graph_embedding/test_dir/checkpoint.pth (torch, 826715 bytes, 36 tensors)

u.0.learn_args.0 f4 [2, 2, 7]
-0.21993534 -0.74892163 0.13487118 -0.4484349 -0.42445335 0.24617203 0.3179841 2.6839986
-2.1805158 0.04057393 0.23114392 -0.26155972 1.4836024 -0.74801844 1.2207965 0.33327532
-0.8942241 -1.6551238 0.94759345 -0.6845611 0.62860096 -0.46278334 -0.36898902 0.26090074
0.024659937 0.72686774 0.8955115 0.054297008
00000000: bb36 61be 54b9 3fbf ac1b 0a3e 4299 e5be
00000010: f351 d9be 8514 7c3e d0ce a23e a2c6 2b40
00000020: 928d 0bc0 d930 263d feb0 6c3e 28eb 85be
00000030: afe6 bd3f 237e 3fbf 0f43 9c3f 10a3 aa3e
00000040: dfeb 64bf 19db d3bf 7c95 723f 653f 2fbf
00000050: feeb 203f f0f1 ecbe 21ec bcbe c894 853e
00000060: a303 ca3c 0114 3a3f 3e40 653f 8a66 5e3d

u.1.learn_args.0 f4 [2, 8, 3]
0.6164023 0.48528773 1.6230611 -2.062834 -0.7256738 0.69292676 0.23473729 -0.11169196
-0.24248625 -0.9927892 -0.20082538 0.92993337 -0.8585344 1.5283493 -0.73017985 -1.3341677
-1.7728469 0.8523724 -0.03373304 -0.7999212 0.0042208345 0.07137148 -1.464454 0.00042377505
0.009283666 -0.8567524 -0.2912683 0.20996949 0.6436871 -0.01993763 0.31682748 -0.692676
-0.3908142 1.2360258 0.09795412 1.5731725 -0.23309621 1.4223607 -0.16223618 -2.154015
1.6300057 0.97527957 0.9721498 -1.2896284 -1.4971781 1.5885155 3.3971117 -0.4137266
00000000: 8bcc 1d3f a277 f83e 77c0 cf3f 7905 04c0
00000010: c2c5 39bf a663 313f f95e 703e c1be e4bd
00000020: 514e 78be 6f27 7ebf 2ba5 4dbe 1d10 6e3f
00000030: e9c8 5bbf f3a0 c33f 11ed 3abf 02c6 aabf
00000040: a6ec e2bf 1435 5a3f a82b 0abd a3c7 4cbf
00000050: ed4e 8a3b 362b 923d 3b73 bbbf 202e de39
00000060: 841a 183c 2054 5bbf 1e21 95be 3e02 573e
00000070: aec8 243f 3e54 a3bc 3637 a23e 3753 31bf
00000080: cc18 c8be 1836 9e3f 2b9c c83d b75d c93f
00000090: c6b0 6ebe ea0f b63f 3e21 26be 62db 09c0
000000a0: 07a4 d03f ecab 793f cfde 783f 8b12 a5bf
000000b0: 88a3 bfbf 7a54 cb3f 476a 5940 f9d3 d3be

u.2.learn_args.0 f4 [2, 4, 5]
-0.2544232 -1.0919522 -0.65805095 -0.12776834 1.6409549 -0.95515466 0.58564955 0.9677635
0.4772242 -1.360222 0.41685465 -0.5172129 0.8987977 -1.0434111 -1.1874384 -1.736331
0.17976192 0.96028155 -1.6054463 0.7165762 1.1207571 0.49303588 2.3916295 -0.722015
1.7711668 -1.4769237 -0.9953073 0.22350106 -0.49484468 -0.24926235 0.38024405 1.4726889
-1.0210015 0.17424053 0.39361396 -0.8404381 -0.30933288 0.9949117 -0.38094795 -0.4074536
00000000: c243 82be 17c5 8bbf 0776 28bf b4d5 02be
00000010: cf0a d23f 0485 74bf 21ed 153f 59bf 773f
00000020: bb56 f43e c11b aebf f96d d53e 1168 04bf
00000030: 9b17 663f 7f8e 85bf fbfd 97bf 1840 debf
00000040: 8213 383e 03d5 753f 447f cdbf 8a71 373f
00000050: f874 8f3f 336f fc3e 7510 1940 fad5 38bf
00000060: 98b5 e23f d60b bdbf 76cc 7ebf 76dd 643e
00000070: 485c fdbe a13e 7fbe 59af c23e 1281 bc3f
00000080: 2db0 82bf 1c6c 323e c587 c93e f426 57bf
00000090: e160 9ebe 88b2 7e3f 9c0b c3be c29d d0be

r.learn_args.0 f4 [1, 11]
1.0453745 1.5347841 -0.26284304 0.03271559 -0.04299813 1.3986492 -0.8255152 0.64356166
-0.06316883 1.4941452 -1.1276518
00000000: d5ce 853f ce73 c43f 5d93 86be c800 063d
00000010: cf1e 30bd f006 b33f f754 53bf 75c0 243f
00000020: a95e 81bd 2640 bf3f e556 90bf

r.learn_args.1 f4 [7, 11]
-0.6770228 1.4743916 1.4354476 0.7309075 -0.43712857 1.0761398 -0.85311425 0.41428113
0.42919216 -1.8590312 -0.4802094 1.4745027 -0.0070884246 0.3228757 0.63576984 -0.02712294
-0.86661315 -1.5907007 -0.092839494 0.4495288 -1.4544016 0.24105886 0.14458579 -0.74790627
-0.3636654 0.85083854 0.8492744 -0.9505677 0.07860445 -0.2320828 0.47770566 -0.22166806
-0.08992885 -0.03338156 -0.27519304 0.26433063 0.1301408 1.1773875 0.582548 -0.014771525
0.28137964 -0.6205255 -0.09838908 0.43459564 0.516503 -2.5357296 -0.90938425 -0.64830536
-0.03610903 -0.0034661165 0.20304109 0.18883362 1.8993869 0.28530574 -0.95765316 -0.14024223
-1.2972345 -0.2840858 0.3000924 0.5914628 -0.6898862 1.2972023 0.058093544 -1.0129967
0.024487132 -0.09663012 0.049745098 0.96783435 0.8726022 0.8501815 -0.40587327 0.11136379
0.2138166 -0.014444267 -0.383433 -0.9652012 -0.061392445
00000000: 5e51 2dbf ddb8 bc3f bfbc b73f c11c 3b3f
00000010: 51cf dfbe f3be 893f b265 5abf a81c d43e
00000020: 13bf db3e bcf4 edbf 02de f5be 81bc bc3f
00000030: 0446 e8bb f74f a53e d0c1 223f ee30 debc
00000040: 5cda 5dbf 159c cbbf a222 bebd a428 e63e
00000050: d529 babf 22d8 763e 4c0e 143e c976 3fbf
00000060: 5a32 babe 8ed0 593f 0c6a 593f 6858 73bf
00000070: 5ffb a03d 1da7 6dbe d695 f43e f4fc 62be
00000080: 9e2c b8bd 1abb 08bd 1ae6 8cbe 5856 873e
00000090: a143 053e a2b4 963f de21 153f 4404 72bc
000000a0: fe10 903e c2da 1ebf 3780 c9bd 5283 de3e
000000b0: 8a39 043f 6549 22c0 68cd 68bf 57f7 25bf
000000c0: 10e7 13bd c927 63bb 01ea 4f3e 9a5d 413e
000000d0: 1c1f f33f 9813 923e c228 75bf a99b 0fbe
000000e0: c80b a6bf b273 91be b6a5 993e 1b6a 173f
000000f0: 629c 30bf ba0a a63f 7ff3 6d3d e0a9 81bf
00000100: 3d99 c83c 03e6 c5bd 84c1 4b3d fec3 773f
00000110: dc62 5f3f 7fa5 593f 9fce cfbe b312 e43d
00000120: bdf2 5a3e a6a7 6cbc 5551 c4be 6d17 77bf
00000130: a576 7bbd

r.learn_args.2 f4 [3, 11]
-0.5204591 -0.12850256 1.0984068 -1.675133 -0.086663194 0.91777325 -2.8804908 -1.6063536
0.8419035 -0.20526871 0.51107293 0.30978858 1.0506724 -1.2565409 -1.5363636 -0.45937994
-0.24391249 -0.7814821 0.8740547 1.013549 -1.1848171 2.4195313 -0.9451179 1.7009718
1.1601632 -0.9878597 0.7777445 0.062901646 -1.0847152 0.6606286 0.34365985 -0.05699661
-0.3912774
00000000: cf3c 05bf 2d96 03be 9898 8c3f c26a d6bf
00000010: 797c b1bd 30f3 6a3f f659 38c0 ff9c cdbf
00000020: fd86 573f f631 52be add5 023f 9c9c 9e3e
00000030: 6f7c 863f 55d6 a0bf 90a7 c4bf d933 ebbe
00000040: 32c4 79be 360f 48bf 0cc2 5f3f f9bb 813f
00000050: 16a8 97bf 9ad9 1a40 3ff3 71bf 72b9 d93f
00000060: 3a80 943f 60e4 7cbf 431a 473f 94d2 803d
00000070: f3d7 8abf f51e 293f 2ff4 af3e 4775 69bd
00000080: 8355 c8be

r.learn_args.3 f4 [5, 11]
1.1087469 -0.76514775 -1.0373374 0.36402816 0.04678875 1.1843432 -0.9367491 1.9902705
0.8089461 0.9646587 2.15335 -0.21895096 -0.22445428 0.93005294 -0.6819458 0.29290348
-0.82281244 0.16707624 -1.0327371 0.63053757 -0.052797455 1.7947929 0.73109645 -0.3223745
-0.66799474 0.5845236 1.6245027 -0.4096126 0.86369634 -1.5850235 -0.0779505 0.9838115
-1.2132024 1.3908741 -0.22916564 1.2027794 0.0649186 -0.4808817 0.09295142 -0.28320718
-1.208108 -1.2525876 0.77151746 1.0685682 -1.4289193 -0.8946955 -1.1199929 -1.3650278
-0.62669533 -0.75035715 0.95175666 0.4121776 -1.4463494 1.0832789 -0.0069509028
00000000: 6beb 8d3f b9e0 43bf 79c7 84bf e661 ba3e
00000010: 8fa5 3f3d 8f98 973f cace 6fbf 2fc1 fe3f
00000020: 1717 4f3f dff3 763f 7dd0 0940 ae34 60be
00000030: 58d7 65be f317 6e3f 0094 2ebf 72f7 953e
00000040: d6a3 52bf 0916 2b3e bb30 84bf e96a 213f
00000050: 2542 58bd c6bb e53f 2329 3b3f 450e a5be
00000060: b401 2bbf 57a3 153f b4ef cf3f beb8 d1be
00000070: 341b 5d3f 0de2 cabf 83a4 9fbd 12db 7b3f
00000080: 374a 9bbf 2a08 b23f 66aa 6abe adf4 993f
00000090: 0bf4 843d 2036 f6be 505d be3d 8800 91be
000000a0: 48a3 9abf ca54 a0bf 2b82 453f d8c6 883f
000000b0: d4e6 b6bf c40a 65bf ed5b 8fbf 3bb9 aebf
000000c0: 1b6f 20bf 6817 40bf 53a6 733f f108 d33e
000000d0: fa21 b9bf e2a8 8a3f 66c4 e3bb

r.learn_modules.0.fcs.0.weight f4 [128, 11]
0.053415388 0.021121524 -0.038014077 0.1618742 0.14820528 0.23865607 -0.070081905 0.12365035
-0.25999507 -0.11645562 -0.23390901 0.20484935 -0.02723351 0.23548141 0.19593374 -0.13450576
0.21643923 -0.13837537 0.21188137 0.12060863 -0.18747108 -0.27254507 0.029585185 -0.24301961
0.22604203 0.2222648 0.06779549 0.22469662 0.12887602 -0.17291857 0.105158836 0.0054404694
0.15992275 0.023396665 0.092316285 0.12394979 0.27565628 -0.052274983 -0.037402853 -0.259653
0.2202233 -0.06693337 0.23670363 0.12499219 -0.13991712 0.2773951 -0.05391612 0.26036194
0.037558217 0.30392164 -0.025743298 0.10381353 0.11394003 0.04226961 0.24975523 -0.23097804
-0.15907344 -0.18687737 0.021504382 -0.054334424 -0.28550825 -0.23479475 0.18413 0.18859667
0.13788055 -0.025479313 0.06964004 0.27400607 0.2998869 -0.22280906 0.08788793 -0.04968211
0.19147855 -0.08141838 0.06414903 -0.10812875 0.30657625 -0.24550371 0.1293045 -0.18723716
0.044595074 0.12796775 -0.29295406 -0.061353996 -0.24089377 0.21239355 -0.0071863118 -0.1673636
-0.081501864 -0.19104242 0.17727408 -0.15968564 0.227946 0.18397617 0.042084955 0.25114858
-0.030760385 0.12112263 -0.0832666 -0.14313346 -0.038628183 -0.06388062 -0.20292431 0.24034145
-0.17642015 -0.21718994 0.04464989 0.102718204 0.14661245 0.22791539 -0.2680484 -0.18139733
0.09508297 0.19837117 -0.046610747 0.09575063 -0.06796786 -0.16763736 0.23456644 0.26886594
0.12963074 -0.26775664 -0.12311181 0.16773526 0.16450432 -0.11243042 0.26087785 -0.08906222
0.29155844 0.27165252 -0.03779707 0.1851679 -0.033662084 -0.18382761 -0.25006336 -0.2593317
-0.06163052 0.05767791 -0.14558984 -0.15208851 0.24733503 0.112717465 -0.23362899 -0.011825404
0.20082253 -0.117668636 0.20008081 -0.20095167 0.21222936 0.04154994 0.0054535377 0.179532
0.18246876 0.10454405 0.017221611 0.24472938 -0.17545725 -0.0035763162 -0.08852264 0.2569732
-0.1660683 -0.24129397 0.08539744 -0.12900971 -0.15616928 0.16458087 -0.040885787 0.26610464
0.016983807 0.21616498 0.21844769 -0.25767538 -0.12480267 0.23999847 0.26613715 -0.044951055
-0.11260624 0.10833731 -0.09223368 0.24879032 0.17141227 -0.27722386 0.23456359 0.29487002
-0.24048832 0.14342172 0.2705824 -0.11327867 -0.2710392 0.12312363 -0.21553698 -0.14042693
0.10531465 0.13080004 -0.250478 -0.013648042 0.1436665 -0.20805122 0.28412816 0.03748832
-0.07322942 -0.18669996 -0.2845015 -0.29768163 0.10110113 -0.04663749 0.09867538 -0.24459036
-0.02593665 0.15309319 0.03037158 -0.08589498 0.13751467 -0.1894913 0.27922127 0.24693961
-0.2911529 0.18134248 -0.23243402 -0.093296856 -0.26768568 -0.10528086 -0.1251497 0.0007374775
0.19549465 0.035346337 -0.26490292 -0.0026006165 0.2432315 0.1514511 -0.2858316 0.18310034
-0.20103134 -0.29959646 -0.28156146 -0.12945825 0.10191894 0.22357725 -0.16409604 -0.20205875
0.20903146 -0.116563536 0.10725625 0.21487358 0.28953478 -0.069966376 0.096433334 0.29475006
0.06791095 0.13975316 0.21319881 0.23414186 0.06293329 -0.02424744 -0.09429824 -0.034913585
00000000: 18ca 5a3d 0c07 ad3c a6b4 1bbd 5ac2 253e
00000010: 20c3 173e 4262 743e 1a87 8fbd 653c fd3d
00000020: 131e 85be 4980 eebd d885 6fbe 07c4 513e
00000030: cf18 dfbc 0a22 713e dba2 483e e1bb 09be
00000040: 3fa2 5d3e 46b2 0dbe 6ef7 583e a801 f73d
00000050: 6bf8 3fbe 078b 8bbe a15c f23c 22da 78be
00000060: 9077 673e 6299 633e 5dd8 8a3d df16 663e
00000070: 13f8 033e 9111 31be 845d d73d f745 b23b
00000080: cac2 233e 5daa bf3c 5210 bd3d 63d9 fd3d
00000090: d222 8d3e 4b1e 56bd bc33 19bd 3df1 84be
000000a0: 3782 613e 5d14 89bd 7062 723e e8fb ff3d
000000b0: 6f46 0fbe bb06 8e3e 26d7 5cbd 294e 853e
000000c0: a5d6 193d 9e9b 9b3e 9ce3 d2bc 309c d43d
000000d0: 6459 e93d e622 2d3d d6bf 7f3e 8285 6cbe
000000e0: 26e4 22be c85c 3fbe f529 b03c c68d 5ebd
000000f0: 232e 92be 096e 70be 938c 3c3e 7c1f 413e
00000100: 8f30 0d3e feb9 d0bc 709f 8e3d 864a 8c3e
00000110: c78a 993e 0f28 64be 96fe b33d 787f 4bbd
00000120: f412 443e aebe a6bd 9160 833d 9b72 ddbd
00000130: 90f7 9c3e 5365 7bbe 6668 043e 19bb 3fbe
00000140: 53a9 363d fa09 033e 13fe 95be 544e 7bbd
00000150: dbac 76be b27d 593e 277b ebbb 5d61 2bbe
00000160: 73ea a6bd a0a0 43be 5687 353e a284 23be
00000170: ad6a 693e 4064 3c3e 4661 2c3d 8c96 803e
00000180: 34fd fbbc 240f f83d ae87 aabd 9491 12be
00000190: 9638 1ebd d8d3 82bd 64cb 4fbe 121c 763e
000001a0: 7ca7 34be 0a67 5ebe cee2 363d ec5d d23d
000001b0: 9321 163e a762 693e a43d 89be 39c0 39be
000001c0: dcba c23d d021 4b3e e9ea 3ebd e818 c43d
000001d0: bc32 8bbd 21a9 2bbe 2f32 703e cca8 893e
000001e0: ecbd 043e 6617 89be 0b22 fcbd cbc2 2b3e
000001f0: d273 283e ec41 e6bd c891 853e 4166 b6bd
00000200: 2647 953e 0a16 8b3e 1ad1 1abd a79c 3d3e
00000210: 41e1 09bd 4e3d 3cbe 4e08 80be 20c7 84be
00000220: 4970 7cbd ac3f 6c3d 8115 15be 17bd 1bbe
00000230: 6545 7d3e 6ad8 e63d 703c 6fbe 57bf 41bc
00000240: 6ca4 4d3e 41fc f0bd fce1 4c3e 46c6 4dbe
00000250: a752 593e 4530 2a3d 97b3 b23b 3dd7 373e
00000260: 17d9 3a3e 311b d63d 5614 8d3c 579a 7a3e
00000270: 11ab 33be a160 6abb 5c4b b5bd fe91 833e
00000280: cf0d 2abe c415 77be dae4 ae3d 1f1b 04be
00000290: d7ea 1fbe e387 283e db77 27bd de3e 883e
000002a0: a021 8b3c 5a5a 5d3e c0b0 5f3e 07ee 83be
000002b0: 8b98 ffbd 29c2 753e 2143 883e 991e 38bd
000002c0: 1a9e e6bd f4df dd3d 03e5 bcbd e4c2 7e3e
000002d0: b386 2f3e 49f0 8dbe 7031 703e 34f9 963e
000002e0: 9242 76be 25dd 123e c789 8a3e a6fe e7bd
000002f0: a6c5 8abe 3e28 fc3d bab5 5cbe 14cc 0fbe
00000300: 35af d73d 72f0 053e a73e 80be 0a9c 5fbc
00000310: 501d 133e 610b 55be 3f79 913e 5a8d 193d
00000320: 4ef9 95bd 462e 3fbe 2eaa 91be ba69 98be
00000330: 1c0e cf3d f406 3fbd 5116 ca3d e575 7abe
00000340: 1979 d4bc 76c4 1c3e d2cd f83c b5e9 afbd
00000350: a5d0 0c3e 020a 42be 17f6 8e3e bddd 7c3e
00000360: fe11 95be d8b1 393e 2f03 6ebe 6c12 bfbd
00000370: 190e 89be 7e9d d7bd 3e27 00be 4753 413a
00000380: c02f 483e 52c7 103d 5ba1 87be 1b6f 2abb
00000390: ae11 793e ff15 1b3e 8558 92be a87e 3b3e
000003a0: 29db 4dbe b564 99be d328 90be b490 04be
000003b0: e1ba d03d 6ff1 643e cb08 28be 7de8 4ebe
000003c0: 580c 563e ddb8 eebd 2aa9 db3d d207 5c3e
000003d0: e73d 943e 884a 8fbd d77e c53d 7be9 963e
000003e0: e514 8b3d 741b 0f3e ca50 5a3e e2c2 6f3e
000003f0: 2be3 803d 91a2 c6bc 701f c1bd 8c01 0fbd

r.learn_modules.0.fcs.0.bias f4 [128]
0.141967 -0.01553645 -0.25332505 -0.28246146 -0.2664874 -0.16125774 -0.041576616 0.19440727
0.05906863 0.16375843 -0.14627722 -0.18179867 -0.14837751 -0.20763588 -0.27964535 -0.032625325
0.2042848 -0.23331255 -0.05542702 0.0944032 -0.18976942 -0.12795368 -0.123373136 -0.107863866
-0.16965587 -0.076654136 -0.048701946 0.1310065 -0.049095735 0.19742297 0.017608413 0.203583
0.16288528 0.18947889 -0.047570128 0.08945493 -0.2820949 -0.18905282 0.20407136 -0.24913168
0.23292966 0.18442252 0.24443147 -0.07252314 0.15600011 -0.24547666 -0.05854823 -0.21763732
0.09921216 -0.19293965 -0.06358952 -0.18560557 -0.08541577 0.04406031 -0.046822634 0.00795044
0.25860277 0.21186708 0.074082695 0.026080858 0.16227405 -0.031402245 -0.23637667 0.21930492
-0.1844161 -0.10940226 -0.032111302 0.10671488 0.16652139 0.03061991 0.060097363 -0.05572865
-0.22233042 0.18192418 -0.22594517 0.2501774 -0.097527646 0.09940153 0.22963808 0.25269878
0.13133705 -0.08423177 0.20571308 -0.022563063 -0.053493682 -0.06749803 0.24680811 -0.23785426
-0.17786197 -0.18303302 -0.12134297 -0.24460137 -0.13509345 0.26093894 0.012770172 0.14242555
-0.11384891 0.10906122 0.17614889 0.044765428 0.037804075 -0.012567454 0.13552208 -0.20882489
-0.22023581 -0.24406247 -0.16224502 -0.13408968 0.24526073 0.29816443 0.09499213 0.20818692
-0.1142362 -0.014145098 0.2341376 -0.09239773 -0.07415814 0.15538315 -0.2668888 0.15842004
-0.11323817 -0.27059636 -0.22402582 0.06871087 0.09007241 -0.12918232 -0.17916092 -0.047156077
00000000: cc5f 113e 988c 7ebc d2b3 81be ca9e 90be
00000010: 0971 88be c020 25be 3e4c 2abd b312 473e
00000020: f3f1 713d 4ab0 273e b2c9 15be 6e29 3abe
00000030: 46f0 17be 809e 54be ad2d 8fbe 22a2 05bd
00000040: 0930 513e 7ce9 6ebe 7107 63bd 7756 c13d
00000050: ea52 42be 4a06 03be 0eab fcbd bbe7 dcbd
00000060: 45ba 2dbe d8fc 9cbd b17b 47bd 9126 063e
00000070: 9c18 49bd 3f29 4a3e 853f 903c 1078 503e
00000080: 66cb 263e c106 423e e5d8 42bd 2534 b73d
00000090: be6e 90be 1097 41be 15f8 503e 601c 7fbe
000000a0: 1d85 6e3e 42d9 3c3e 3e4c 7a3e 0387 94bd
000000b0: 7ebe 1f3e 3c5e 7bbe 45d0 6fbd 51dc 5ebe
000000c0: bf2f cb3d f991 45be 393b 82bd 630f 3ebe
000000d0: 77ee aebd 9578 343d 17c9 3fbd 9042 023c
000000e0: 9567 843e aff3 583e abb8 973d 86a7 d53c
000000f0: 2b2b 263e a49f 00bd ba0c 72be 7891 603e
00000100: 93d7 3cbe 4b0e e0bd 2487 03bd 558d da3d
00000110: 9584 2a3e 9bd6 fa3c a728 763d ba43 64bd
00000120: 96aa 63be 554a 3a3e 2c5e 67be 4117 803e
00000130: 93bc c7bd 0893 cb3d 3f26 6b3e bc61 813e
00000140: 387d 063e b581 acbd 73a6 523e 2cd6 b8bc
00000150: 311c 5bbd 683c 8abd 44bb 7c3e 1190 73be
00000160: 7321 36be 026d 3bbe aa82 f8bd c878 7abe
00000170: f055 0abe ca99 853e fc39 513c 01d8 113e
00000180: 9e29 e9bd 7d5b df3d 6060 343e f45b 373d
00000190: 72d8 1a3d b9e7 4dbc 4dc6 0a3e 31d6 55be
000001a0: 7f85 61be 83eb 79be 8f23 26be ce4e 09be
000001b0: a125 7b3e 02a9 983e 3c8b c23d f42e 553e
000001c0: abf4 e9bd d7c0 67bc c4c1 6f3e 053b bdbd
000001d0: 39e0 97bd c31c 1f3e a6a5 88be dd38 223e
000001e0: 6ae9 e7bd 9b8b 8abe 0667 65be 49b8 8c3d
000001f0: e277 b83d 5f48 04be f675 37be bb26 41bd

r.learn_modules.0.fcs.1.weight f4 [256, 128]
-0.08562733 -0.013117564 0.075029366 0.065913565 -0.07868153 0.07558702 0.036590613 -0.04358588
0.0058054943 0.009334937 0.06460664 -0.0037479717 -0.057663735 -0.012041357 0.06443529 -0.06722451
0.051219635 -0.025298119 -0.046826024 -0.01667736 -0.05522294 0.0674995 -0.051414482 -0.066734634
0.008060374 0.016228275 0.020503104 0.032657918 0.08023348 0.0046763616 0.07467683 0.03974857
0.034058433 -0.018227763 -0.01606396 0.023532283 0.012354664 0.07037545 -0.027074827 0.006446824
-0.025331078 -0.047886405 0.07189156 0.017583117 -0.001010281 -0.027548848 0.04397349 0.06967202
0.02216613 0.07318688 0.074484214 0.05077197 0.037156 0.06955034 0.024067104 -0.014932765
-0.019463036 0.05697 -0.0028208187 0.08429409 -0.03067183 0.015471897 0.068055674 -0.010441187
0.0037742397 0.031948965 0.0809428 0.046783824 -0.048749264 -0.039447352 -0.04204231 0.054670982
0.068802066 0.010107478 -0.015754787 0.03908214 -0.057208657 -0.018637283 0.04164136 -0.07972481
0.041805837 -0.010515807 -0.00076215266 -0.07398376 -0.057502083 0.071747266 0.00030308455 0.048281036
-0.042818382 -0.06839454 -0.06073678 -0.0011453341 -0.081453614 0.0060636215 0.035040256 -0.053556647
-0.01791749 0.076848336 0.004604423 0.05252682 -0.053099077 0.01641095 0.07955316 -0.08793361
-0.0144748185 -0.08293684 -0.030278148 -0.0818694 0.022195257 -0.07712481 -0.010975349 0.037332542
0.033099066 -0.0074643437 0.031498116 0.005522702 -0.09931918 -0.0068333317 -0.08246058 -0.0040916144
-0.014549503 0.05451488 0.002231823 -0.049122095 0.0061166966 0.03862201 -0.052054718 0.0017737711
0.061299566 -0.03711349 0.0057126046 -0.009915154 0.07787238 0.049468882 -0.0337709 -0.030999515
-0.039788023 -0.055008903 -0.0049183266 0.07463754 -0.08754 -0.08120002 0.06120219 0.08032104
0.0155933555 0.06591856 -0.037105516 -0.04488505 -0.020304086 -0.087408535 -0.043866795 0.048957683
-0.026158368 -0.06315563 -0.018132407 -0.033443682 -0.020072613 -0.0483522 -0.0033139854 -0.08173041
-0.056877837 0.031249138 -0.048918866 -0.03418723 0.02612735 0.029658357 0.08780271 -0.08250477
-0.05151304 -0.022900335 -0.0922632 -0.061915416 0.03829369 -0.03537927 -0.07127872 0.061675992
-0.023151655 -0.039567377 -0.018770983 -0.05335112 0.082691304 -0.03313684 -0.06938211 0.06923702
-0.0021258187 -0.0040476946 -0.015910551 0.06448925 -0.0818915 0.04683892 0.049243174 0.0250524
0.009870001 0.045712136 0.03002342 -0.0742759 0.09013862 0.027119927 0.06405222 0.072733745
0.0022418692 0.049555738 0.029298276 0.019984778 -0.05278959 -0.020411508 -0.023763113 0.0679207
-0.06574129 -0.06505788 -0.06528778 0.048744347 0.010317865 0.07210018 0.02138832 0.052107904
0.07908055 0.0426042 0.014554981 -0.04394817 0.07877169 0.0506441 -0.018871156 0.07246834
0.014976218 0.0717833 0.009310062 0.071003996 -0.0041895797 0.06739174 0.05503288 -0.017003167
-0.07806657 -0.026999008 0.04595484 0.051736973 -0.0030561418 0.08309795 0.009827236 0.045554142
-0.028642818 -0.070289 0.0744945 -0.058940366 -0.069018945 0.011511442 0.07829561 -0.034642074
0.036342636 0.021823458 0.034118894 0.02017024 0.09138442 0.06492638 0.012598199 -0.01617833
00000000: 625d afbd 0deb 56bc ffa8 993d b1fd 863d
00000010: c823 a1bd 5ecd 9a3d 0ae0 153d 1c87 32bd
00000020: 043c be3b 90f1 183c 7c50 843d 88a0 75bb
00000030: cf30 6cbd 1d49 45bc a6f6 833d 01ad 89bd
00000040: aecb 513d 003e cfbc a5cc 3fbd f59e 88bc
00000050: 7331 62bd 2e3d 8a3d fe97 52bd 2bac 88bd
00000060: a90f 043c 29f1 843c 20f6 a73c 4fc4 053d
00000070: 7351 a43d 2a3c 993b 2af0 983d 66cf 223d
00000080: db80 0b3d 6452 95bc 9198 83bc c6c6 c03c
00000090: 376b 4a3c 0121 903d 07cc ddbc e13f d33b
000000a0: 1f83 cfbc 8924 44bd e23b 933d 780a 903c
000000b0: 686b 84ba 1fae e1bc 8c1d 343d 34b0 8e3d
000000c0: be95 b53c 01e3 953d 2e8b 983d 45f6 4f3d
000000d0: e430 183d 6970 8e3d 6028 c53c 8ea8 74bc
000000e0: f270 9fbc 6059 693d 7cdd 38bb 61a2 ac3d
000000f0: 7d43 fbbc d77d 7d3c c660 8b3d 8311 2bbc
00000100: 3c59 773b ebdc 023d 57c5 a53d 65a0 3f3d
00000110: 4fad 47bd 8c93 21bd 8f34 2cbd aeee 5f3d
00000120: 19e8 8c3d d699 253c 2f10 81bc 9814 203d
00000130: a053 6abd 37ad 98bc 2190 2a3d c346 a3bd
00000140: 993c 2b3d 7e4a 2cbc 33cb 47ba cc84 97bd
00000150: 4e87 6bbd 3bf0 923d 52e7 9e39 56c2 453d
00000160: 5462 2fbd 7012 8cbd 21c7 78bd 091f 96ba
00000170: 27d1 a6bd 58b1 c63b 5f86 0f3d 375e 5bbd
00000180: b3c7 92bc a962 9d3d b3e0 963b 5d26 573d
00000190: 6b7e 59bd 4270 863c c4ec a23d 8916 b4bd
000001a0: ca27 6dbc cada a9bd e109 f8bc 25ab a7bd
000001b0: d4d2 b53c 9df3 9dbd f3d1 33bc 02ea 183d
000001c0: e392 073d 7497 f4bb 2b04 013d c8f7 b43b
000001d0: db67 cbbd 24ea dfbb 18e1 a8bd f312 86bb
000001e0: 0a61 6ebc ff4a 5f3d c743 123b 4034 49bd
000001f0: 926e c83b 1d32 1e3d 5437 55bd e27d e83a
00000200: 4115 7b3d 5104 18bd cd30 bb3b 2c73 22bc
00000210: 8e7b 9f3d e29f 4a3d 5b53 0abd b2f2 fdbc
00000220: c4f8 22bd 0451 61bd ea29 a1bb 91db 983d
00000230: 2c48 b3bd 324c a6bd 26af 7a3d 5b7f a43d
00000240: 467b 7f3c 4f00 873d f4fb 17bd 63d9 37bd
00000250: c154 a6bc 3f03 b3bd abad 33bd da87 483d
00000260: 134a d6bc bd57 81bd 6a8a 94bc 3efc 08bd
00000270: 526f a4bc f50c 46bd 732f 59bb 4662 a7bd
00000280: bcf8 68bd 31fe ff3c 265f 48bd e907 0cbd
00000290: 0609 d63c 15f6 f23c e8d1 b33d 43f8 a8bd
000002a0: 56ff 52bd 7c99 bbbc 7df4 bcbd 059b 7dbd
000002b0: d8d9 1c3d dae9 10bd 94fa 91bd f79f 7c3d
000002c0: 8aa8 bdbc 6711 22bd 9bc5 99bc b486 5abd
000002d0: 0f5a a93d 7fba 07bd 3518 8ebd 24cc 8d3d
000002e0: 5251 0bbb 86a2 84bb d856 82bc f112 843d
000002f0: bbb6 a7bd 2bda 3f3d 36b3 493d b13a cd3c
00000300: c9b5 213c a63c 3b3d adf3 f53c f71d 98bd
00000310: 999a b83d 9c2a de3c cf2d 833d 6ef5 943d
00000320: 53ec 123b f5fa 4a3d f002 f03c 1eb7 a33c
00000330: e639 58bd 0936 a7bc dcaa c2bc 021a 8b3d
00000340: 5fa3 86bd 113d 85bd 99b5 85bd 27a8 473d
00000350: 430c 293c 42a9 933d 8f36 af3c 196f 553d
00000360: fcf4 a13d be81 2e3d 0478 6e3c ff02 34bd
00000370: 0d53 a13d 3070 4f3d af97 9abc 486a 943d
00000380: d05e 753c 1f03 933d 3b89 183c 8b6a 913d
00000390: be48 89bb ae04 8a3d 286a 613d 3a4a 8bbc
000003a0: 5ee1 9fbd 062d ddbc 243b 3c3d 26ea 533d
000003b0: 8d49 48bb 422f aa3d 6a02 213c fb96 3a3d
000003c0: 58a4 eabc aef3 8fbd 9390 983d 746b 71bd
000003d0: ce59 8dbd 7d9a 3c3c 7359 a03d d9e4 0dbd
000003e0: 04dc 143d 1cc7 b23c 41c0 0b3d 0f3c a53c
000003f0: c127 bb3d 1ff8 843d ad68 4e3c 6b88 84bc

r.learn_modules.0.fcs.1.bias f4 [256]
0.07421453 0.02965605 -0.061042584 0.002633767 0.0922593 0.06258926 0.0122620985 0.045909785
0.041169677 0.022386141 -0.067138255 -0.03412562 -0.02430771 -0.037235525 -0.066592135 0.027668161
-0.010317356 0.08663183 0.043410573 -0.04484494 -0.03714367 0.06113638 0.051205 -0.056647155
0.07158841 -0.07103456 -0.07155745 -0.058908746 0.009495643 0.05509622 -0.05483813 0.042388204
-0.083720796 -0.069389276 0.0010930047 -0.007814919 0.06710995 0.03393954 0.059677187 0.05311755
0.023424933 0.03302997 0.03171074 0.041443985 -0.031060489 0.025526535 0.08182974 0.07343512
0.0096420245 0.08810806 0.086475156 -0.024945106 -0.033813406 -0.019456677 0.00617329 0.024337567
-0.036417965 -0.010886147 0.007504773 -0.011985654 0.07633736 0.009107576 -0.03497456 0.06661334
0.039932914 0.0695194 0.07918334 -0.07997514 0.024660742 0.0016053846 -0.052515585 0.059291046
-0.021246681 -0.07803298 -0.04356843 -0.06630674 -0.018076245 -0.05029912 0.025168907 -0.072277494
0.0405713 -0.05643465 -0.046768967 0.05273202 0.00051238656 -0.056775607 -0.00013945338 0.033682622
-0.024815144 -0.0693987 0.08559771 -0.026841799 -0.07191642 -0.02880379 0.013861478 0.051607594
0.0860201 -0.047660187 0.01363141 0.012278767 0.06565485 -0.05868152 0.02322313 0.026253548
0.07838092 0.008827404 0.090346 0.016224196 0.08393078 0.0701101 -0.07661185 0.039872896
0.08122838 0.089717954 0.07146 -0.082831755 0.012873515 0.05515332 -0.042282127 -0.0152867315
-0.046212576 -0.04199656 -0.03622535 0.08636864 -0.06015589 0.027057547 0.077695996 0.05541614
-0.046634044 -0.071701884 0.027986705 0.08406065 0.02189149 0.04726982 -0.011694612 0.02721974
-0.08831956 0.004619085 -0.07353896 -0.048910312 -0.08073145 0.011398647 0.018596992 -0.05989453
0.044917885 0.06641242 -0.05825 -0.0004912446 0.0018540925 -0.060135514 -0.007998687 -0.038779937
0.09021725 0.07928772 -0.03230535 0.059753723 0.032735042 -0.0349734 0.09277832 0.0012798825
0.00335491 0.01331704 0.049461693 -0.05088561 0.02990467 -0.013705638 0.031121895 0.037941962
-0.07132681 0.0346586 -0.08799103 -0.032113083 0.06234446 0.07096604 -0.077919416 0.033863194
-0.0655057 -0.030677412 0.056061946 0.022754258 -0.04914883 0.054624192 -0.053209152 -0.025231149
-0.019049995 -0.04637125 -0.0031301621 0.024241818 -0.070828564 0.04849756 0.041437786 0.037811164
0.00725442 -0.0015014067 -0.021158751 0.04527601 -0.01098782 -0.0853607 -0.028854975 0.042354684
0.09174439 0.05910695 0.0453471 -0.048180263 -0.063667975 -0.020497687 0.0040835855 -0.05924298
0.03029355 -0.07294754 0.033669416 -0.05175229 -0.048966397 -0.06329582 -0.058498275 0.017897444
-0.0118638 0.033211052 -0.067857556 -0.014919963 -0.035334073 -0.066136785 0.09650688 -0.042954728
0.05542481 0.037660886 -0.019008797 0.052713614 0.032121066 0.02982518 -0.025208957 0.037879594
-0.01318876 0.053325787 -0.067569956 -0.06787975 0.03454171 -0.026374191 -0.025140472 0.07774632
0.026387298 -0.033387527 -0.071476035 -0.038245566 0.004501225 -0.04291168 0.00021777276 -0.08402099
0.0076832124 -0.0014297402 0.030422553 0.045087982 0.047262944 0.047127523 0.07067962 -0.06537058
00000000: cafd 973d 3ff1 f23c ca07 7abd 479b 2c3b
00000010: 72f2 bc3d cc2e 803d f8e6 483c e60b 3c3d
00000020: 89a1 283d 2463 b73c c87f 89bd 4ec7 0bbd
00000030: f620 c7bc 4784 18bd 7561 88bd 57a8 e23c
00000040: 210a 29bc 076c b13d 49cf 313d 54af 37bd
00000050: f623 18bd 246a 7a3d 56bc 513d d906 68bd
00000060: f29c 923d 917a 91bd b68c 92bd 4c4a 71bd
00000070: 9d93 1b3c 93ac 613d f29d 60bd 419f 2d3d
00000080: cf75 abbd f71b 8ebd 2743 8f3a 250a 00bc
00000090: f170 893d 3004 0b3d 1170 743d ca91 593d
000000a0: a5e5 bf3c 6f4a 073d 1fe3 013d 2bc1 293d
000000b0: 9172 febc 061d d13c 5a96 a73d 2765 963d
000000c0: 95f9 1d3c 0072 b43d e319 b13d ae59 ccbc
000000d0: ed7f 0abd 9c63 9fbc 4f49 ca3b 945f c73c
000000e0: 012b 15bd cf5b 32bc 99ea f53b 7a5f 44bc
000000f0: c356 9c3d f137 153c 7c41 0fbd 936c 883d
00000100: b290 233d 3060 8e3d e02a a23d 02ca a3bd
00000110: 5305 ca3c c56b d23a 951a 57bd 2bdb 723d
00000120: 850d aebc c1cf 9fbd cf74 32bd d4cb 87bd
00000130: a214 94bc 7306 4ebd 062f ce3c 3906 94bd
00000140: 172e 263d 0528 67bd d190 3fbd 88fd 573d
00000150: ae51 063a 8a8d 68bd 3b3a 12b9 caf6 093d
00000160: 2149 cbbc e820 8ebd da4d af3d 55e3 dbbc
00000170: ea48 93bd edf5 ebbc 411b 633c 7c62 533d
00000180: 4e2b b03d 5437 43bd 4756 5f3c e22c 493c
00000190: 0d76 863d 095c 70bd 6f3e be3c ae11 d73c
000001a0: 2d86 a03d d1a0 103c 5307 b93d 9be8 843c
000001b0: e7e3 ab3d e295 8f3d ace6 9cbd c351 233d
000001c0: 115b a63d 0cbe b73d 9f59 923d b2a3 a9bd
000001d0: 6feb 523c 73e8 613d 0630 2dbd 3375 7abc
000001e0: 6649 3dbd 9604 2cbd 0861 14bd 0be2 b03d
000001f0: 0666 76bd caa7 dd3c 141f 9f3d 09fc 623d
00000200: 5703 3fbd 70d8 92bd 6044 e53c fd27 ac3d
00000210: c855 b33c 009e 413d c29a 3fbc effb de3c
00000220: e3e0 b4bd b25b 973b 989b 96bd 2e56 48bd
00000230: 8856 a5bd 64c1 3a3c b858 983c f753 75bd
00000240: d1fb 373d 3c03 883d 8d97 6ebd dec6 00ba
00000250: 0505 f33a a850 76bd ed0c 03bc b6d7 1ebd
00000260: d2c3 b83d 9a61 a23d 9d52 04bd 52c0 743d
00000270: 2e15 063d 4540 0fbd 8f02 be3d bbc1 a73a
00000280: 0dde 5b3b b72f 5a3c 5898 4a3d 6e6d 50bd
00000290: a3fa f43c 9d8d 60bc 58f3 fe3c 0869 1b3d
000002a0: ca13 92bd 2df6 0d3d a434 b4bd 0289 03bd
000002b0: e85c 7f3d a556 913d 3794 9fbd 22b4 0a3d
000002c0: da27 86bd 324f fbbc 36a1 653d 2367 ba3c
000002d0: 4950 49bd 9ebd 5f3d d7f1 59bd 8eb1 cebc
000002e0: bc0e 9cbc c8ef 3dbd 6823 4dbb c796 c63c
000002f0: 910e 91bd 61a5 463d abba 293d e1df 1a3d
00000300: 7cb6 ed3b d9ca c4ba 1e55 adbc 5673 393d
00000310: 4206 34bc 97d1 aebd 4561 ecbc 1b7c 2d3d
00000320: 7ce4 bb3d 211a 723d e1bd 393d ab58 45bd
00000330: 5b64 82bd c4ea a7bc 99cf 853b c4a8 72bd
00000340: 2e2a f83c 8565 95bd f1e8 093d 36fa 53bd
00000350: fd90 48bd 3da1 81bd e39b 6fbd a99d 923c
00000360: 6260 42bc 5008 083d e7f8 8abd dc72 74bc
00000370: 76ba 10bd b972 87bd 66a5 c53d 4cf1 2fbd
00000380: 2005 633d 4d42 1a3d 56b8 9bbc 3bea 573d
00000390: 6191 033d f053 f43c 0483 cebc a227 1b3d
000003a0: ab15 58bc 246c 5a3d 1e62 8abd 8a04 8bbd
000003b0: 9c7b 0d3d b00e d8bc 64f3 cdbc 7639 9f3d
000003c0: 2d2a d83c 5cc1 08bd 0762 92bd 62a7 1cbd
000003d0: 037f 933b 28c4 2fbd ee59 6439 3213 acbd
000003e0: 75c3 fb3b 1f66 bbba b838 f93c 2dae 383d
000003f0: ca96 413d ca08 413d 7ac0 903d 03e1 85bd

r.learn_modules.0.fcs.2.weight f4 [128, 256]
-0.03444664 0.022464246 -0.046131223 0.0033345446 0.025275186 0.020073734 -0.059022218 -0.05087132
-0.002259396 -0.024501778 -0.05159592 0.043347463 -0.020716846 -0.05580022 0.01409433 -0.03918697
-0.042953417 -0.020060413 -0.045083895 0.029712707 -0.045821384 0.05810509 -0.020001814 -0.055207692
0.05828549 0.004186377 -0.035634875 0.025407843 -0.03408993 -0.054315425 -0.0064408854 -0.039900534
0.026030406 -0.031735666 0.058337167 -0.0026281178 -0.062001318 -0.061268367 -0.03673152 0.0035198852
-0.032523446 -0.0025241822 0.030495517 -0.051206596 -0.03529992 -0.05308778 0.017229468 -0.031875707
-0.02685801 -0.048065566 0.05373705 -0.012137376 -0.005050905 0.058069997 -0.044886023 -0.048706345
0.022052266 -0.00027359277 0.024489082 -0.013805583 -0.01465977 0.008630589 -0.01151821 0.023352385
-0.008203067 0.014711551 0.05573807 0.018570773 0.016940609 -0.010704733 -0.025756426 -0.053137466
-0.022442318 0.032350592 0.014911883 0.05136267 0.0037255585 0.027683295 0.0031690449 0.0011776835
-0.026595585 -0.024307407 -0.032172658 0.052462764 0.05378171 0.06139887 -0.04862699 0.022562742
-0.057609193 -0.030241974 -0.06080003 -0.05597499 -0.008279175 0.040726587 -0.04325007 -0.0010908023
-0.025680639 -0.036803976 0.03105563 0.041420616 -0.040251464 -0.024089731 -0.00072543323 0.016545117
-0.029840998 0.008826852 0.035279922 0.023025468 -0.004285246 0.055730805 0.04012993 -0.0051384047
-0.045142986 0.027305484 0.035618775 0.015165664 0.03786379 0.034051172 -0.045271054 0.044934087
0.046624683 -0.039172374 -0.021618143 0.022387765 -0.0075574517 -0.057937667 -0.03303255 -0.047802046
0.04054095 -0.027500778 0.024176233 0.017929569 0.009650655 -0.032582656 -0.0030803606 0.049275354
-0.02665966 -0.027491555 -0.02310647 0.018574394 0.03802447 -0.028255813 -0.037686735 0.0024745539
-0.006514944 -0.028245695 0.01337681 -0.05396446 -0.03845129 -0.05902575 0.01527223 0.04906057
0.038875617 0.0332812 0.0051293895 0.051452585 0.022311255 0.011990532 -0.0053954646 -0.017992832
0.04867512 0.059953414 0.05386416 -0.054946847 0.015984572 0.04659558 -0.020518951 -0.042293295
0.05188471 0.041489355 -0.0030281246 0.020514004 -0.04057379 -0.04759801 0.041330755 -0.02334565
-0.05902195 -0.019813135 -0.04948277 0.0028629377 0.025608048 -0.026389912 0.050263934 -0.02396407
-0.0546607 -0.01562383 -0.027159452 -0.028526165 -0.017274775 0.023138128 -0.04023032 0.00020775944
-0.024925575 0.027586438 0.003168486 0.026879855 -0.016033486 -0.045189843 -0.027195685 0.060494162
-0.043495543 0.04765036 -0.021022357 -0.051820986 -0.039245553 0.054880805 -0.024181552 -0.0499148
-0.026510358 -0.02807182 -0.03068965 0.02949766 0.0559014 -0.0030000135 0.001009196 0.04694221
0.05738268 0.00049426407 -0.03754314 0.016900435 -0.047215745 0.01808495 -0.0056557357 -0.0010063946
-0.019371733 -0.0013425648 0.013941161 0.038905412 0.030041017 0.018396698 0.0039453506 -0.007882059
-0.04169569 -0.0005905703 -0.0026820898 -0.024020277 0.03683828 0.0409775 -0.058894105 -0.05088073
-0.008798927 -0.04141909 0.051416613 0.046264738 -0.001141265 0.00043774396 0.0041953325 -0.053282507
-0.05176214 0.055318356 -0.014327027 -0.035623826 0.039948322 -0.029699534 -0.014482677 0.052586444
00000000: ec17 0dbd f006 b83c 18f4 3cbd 6088 5a3b
00000010: e80d cf3c ac71 a43c 48c1 71bd 725e 50bd
00000020: 6012 14bb f4b7 c8bc 3e56 53bd 1c8d 313d
00000030: 60b6 a9bc c68e 64bd e8eb 663c 8482 20bd
00000040: ecef 2fbd bc55 a4bc e4a9 38bd 1068 f33c
00000050: 34af 3bbd 9aff 6d3d d8da a3bc 7621 62bd
00000060: c4bc 6e3d e02d 893b e0f5 11bd 1c24 d03c
00000070: e2a1 0bbd da79 5ebd 100e d3bb be6e 23bd
00000080: b83d d53c 42fd 01bd f4f2 6e3d 803c 2cbb
00000090: 18f5 7dbd 8af4 7abd ca73 16bd e0ad 663b
000000a0: 4e37 05bd c06c 25bb bcd1 f93c 02be 51bd
000000b0: a696 10bd 9272 59bd d024 8d3c 1a90 02bd
000000c0: 5405 dcbc 66e0 44bd 621b 5c3d d8db 46bc
000000d0: 1082 a5bb ceda 6d3d 68da 37bd 4e80 47bd
000000e0: f4a6 b43c 0071 8fb9 549d c83c d030 62bc
000000f0: 882f 70bc 5067 0d3c e0b6 3cbc 804d bf3c
00000100: 2866 06bc b808 713c 9a4d 643d bc21 983c
00000110: 08c7 8a3c e862 2fbc 24ff d2bc aca6 59bd
00000120: f4d8 b7bc 0e82 043d f850 743c aa61 523d
00000130: 8028 743b 14c8 e23c c0af 4f3b 805c 9a3a
00000140: fcde d9bc 5420 c7bc 7ac7 03bd 32e3 563d
00000150: 364a 5c3d 627d 7b3d 182d 47bd 80d5 b83c
00000160: 9ef7 6bbd 04be f7bc 7409 79bd 0846 65bd
00000170: 60a5 07bc ecd0 263d fc26 31bd 40f9 8eba
00000180: 3460 d2bc c4bf 16bd 6068 fe3c aaa8 293d
00000190: b8de 24bd d457 c5bc 002b 3eba a089 873c
000001a0: 1c75 f4bc 809e 103c ae81 103d e89f bc3c
000001b0: 406b 8cbb fc45 643d 485f 243d 1060 a8bb
000001c0: dae7 38bd c0af df3c fee4 113d 6879 783c
000001d0: 1017 1b3d 3e79 0b3d 246e 39bd ce0c 383d
000001e0: 86f9 3e3d 3673 20bd 8818 b1bc 8c66 b73c
000001f0: 80a4 f7bb 0c50 6dbd 244d 07bd 14cc 43bd
00000200: 440e 263d 5049 e1bc 3c0d c63c 08e1 923c
00000210: c81d 1e3c 6475 05bd e0df 49bb f4d4 493d
00000220: 5c65 dabc f835 e1bc c849 bdbc 5429 983c
00000230: 8cbf 1b3d bc78 e7bc 685d 1abd 202c 223b
00000240: 507b d5bb 8463 e7bc 682a 5b3c d609 5dbd
00000250: 1a7f 1dbd fcc4 71bd 6038 7a3c bcf3 483d
00000260: 0a3c 1f3d de51 083d 7014 a83b f2bf 523d
00000270: 18c6 b63c f073 443c 70cc b0bb b465 93bc
00000280: 905f 473d b691 753d aaa0 5c3d f20f 61bd
00000290: 14f2 823c 02db 3e3d 5c17 a8bc bc3b 2dbd
000002a0: 1085 543d bef0 293d 8073 46bb fc0c a83c
000002b0: b430 26bd 22f6 42bd 704a 293d 603f bfbc
000002c0: 00c1 71bd 284f a2bc 72ae 4abd 20a0 3b3b
000002d0: f8c7 d13c a82f d8bc 8ee1 4d3d 4c50 c4bc
000002e0: e6e3 5fbd 18fb 7fbc 807d debc b4af e9bc
000002f0: d483 8dbc 2c8c bd3c 8cc8 24bd 00da 5939
00000300: b830 ccbc f4fc e13c 60a6 4f3b 2433 dc3c
00000310: a858 83bc fc18 39bd 7cc9 debc bac8 773d
00000320: 6228 32bd 062d 433d 1437 acbc 3e42 54bd
00000330: f2bf 20bd b2ca 603d 6418 c6bc 7673 4cbd
00000340: 402c d9bc e0f6 e5bc dc68 fbbc 14a5 f13c
00000350: def8 643d e09b 44bb 0047 843a 7a46 403d
00000360: 1a0a 6b3d 8091 013a d6c6 19bd c872 8a3c
00000370: 4c65 41bd e426 943c c053 b9bb 00e9 83ba
00000380: 78b1 9ebc 00f9 afba 7869 643c 485b 1f3d
00000390: 9418 f63c acb4 963c 0048 813b c023 01bc
000003a0: 1ac9 2abd 80d0 1aba 00c6 2fbb 2cc6 c4bc
000003b0: bce3 163d 06d8 273d f23a 71bd 5068 50bd
000003c0: 6029 10bc 10a7 29bd 3a9a 523d 1880 3d3d
000003d0: 8096 95ba 0081 e539 0079 893b c23e 5abd
000003e0: 8a04 54bd 8095 623d e8bb 6abc 4aea 11bd
000003f0: daa0 233d 704c f3bc c048 6dbc e264 573d

r.learn_modules.0.fcs.2.bias f4 [128]
-0.017156392 0.049679257 -0.044245988 -0.027481712 0.041230265 0.031057395 -0.034164295 -0.039351158
0.058624666 -0.05367981 0.03313086 -0.044926185 -0.052959844 0.011615492 0.037134636 -0.02861581
-0.054989956 -0.022036392 -0.034575537 -0.014297584 -0.02130764 -0.013554089 0.015785947 0.009858688
0.010763178 0.04625028 0.0013553344 -0.04719429 -0.008368388 0.011966485 0.0068213884 0.0045282394
-0.032300025 -0.01666192 0.0072888485 0.030531824 0.023058925 0.043526612 -0.04326117 -0.010151544
0.034869686 -0.005225271 0.002389931 0.018366963 -0.03750993 -0.0066476837 0.04235726 0.01455611
-0.04215045 -0.005308623 0.045637116 -0.04129699 -0.04113529 0.006112371 -0.025294201 -0.0256894
0.06648994 -0.047379047 0.05171618 0.03172914 -0.026622437 0.066113725 -0.044097744 0.0026699975
-0.039816555 -0.06230007 -0.042305503 0.035532787 0.04391305 0.016760437 -0.014862254 0.047721773
0.027641183 0.037426606 0.03696618 0.055656273 -0.024361014 -0.00029144436 0.015411342 -0.03832715
0.022532022 0.027745709 -0.022974815 0.010789035 0.049698275 0.01445657 0.040778108 0.042312194
-0.048992194 0.03976104 0.025444318 0.057088803 0.032290623 0.024888664 0.022196652 0.04577987
-0.0056888023 0.061637312 -0.00648281 0.03777309 -0.0013306236 0.008552659 -0.059774242 0.005026914
-0.053215902 0.06613988 -0.033361427 -0.035543136 -0.044073887 -0.016426027 0.041735422 0.0022424918
-0.038877346 0.033840336 0.034888502 0.019326985 0.05797018 0.057958946 0.027899308 -0.043236125
-0.022719227 -0.031690463 0.0031865984 0.031642992 -0.023481218 -0.03810205 -0.044197343 -0.010350354
00000000: 908b 8cbc 7a7c 4b3d 483b 35bd 5421 e1bc
00000010: 11e1 283d 146c fe3c dcef 0bbd ae2e 21bd
00000020: 6b20 703d 5cdf 5bbd 3ab4 073d 8504 38bd
00000030: 6cec 58bd e84e 3e3c 7d1a 183d b46b eabc
00000040: 263d 61bd aa85 b4bc 149f 0dbd 6a40 6abc
00000050: 5c8d aebc f811 5ebc 8851 813c 5686 213c
00000060: 0a58 303c ef70 3d3d 7aa5 b13a cd4e 41bd
00000070: 901b 09bc 130f 443c f485 df3b a061 943b
00000080: 084d 04bd 947e 88bc 4bd7 ee3b e01d fa3c
00000090: 12e6 bc3c f648 323d a032 31bd a952 26bc
000000a0: 84d3 0e3d c038 abbb 63a0 1c3b 5076 963c
000000b0: 03a4 19bd d0d4 d9bb ce7e 2d3d c07c 6e3c
000000c0: f3a5 2cbd f5f3 adbb fced 3a3d 0827 29bd
000000d0: 7a7d 28bd 494a c83b c935 cfbc 9472 d2bc
000000e0: e12b 883d 8810 42bd 58d4 533d 6af6 013d
000000f0: 4c17 dabc a266 873d d69f 34bd 20fb 2e3b
00000100: af16 23bd 5c2e 7fbd 8948 2dbd d48a 113d
00000110: 2cde 333d 2f4d 893c d080 73bc e877 433d
00000120: c36f e23c a44c 193d d969 173d d5f7 633d
00000130: c090 c7bc 00cd 98b9 da7f 7c3c eefc 1cbd
00000140: 1395 b83c f84a e33c ae35 bcbc 7ec4 303c
00000150: 6b90 4b3d 40db 6c3c f206 273d 8d4f 2d3d
00000160: 0aac 48bd 79dc 223d 9a70 d03c f3d5 693d
00000170: 2c43 043d 50e3 cb3c c1d5 b53c ac83 3b3d
00000180: 2269 babb 6877 7c3d c06d d4bb f5b7 1a3d
00000190: 5268 aeba 7420 0c3c d6d5 74bd d0b8 a43b
000001a0: ebf8 59bd 5874 873d fea5 08bd ae95 11bd
000001b0: d286 34bd e08f 86bc c3f2 2a3d c5f6 123b
000001c0: da3d 1fbd 2a9c 0a3d 3fe7 0e3d a053 9e3c
000001d0: 2472 6d3d 5c66 6d3d 178d e43c 5d18 31bd
000001e0: ac1d babc dccd 01bd 40d6 503b 159c 013d
000001f0: af5b c0bc e510 1cbd 4608 35bd 8894 29bc

r.learn_modules.0.fcs.3.weight f4 [1, 128]
0.064870276 -0.07385144 -0.03070988 0.027696306 -0.07866543 -0.00027410203 0.059191857 -0.011852959
-0.04639539 -0.004535433 0.057740476 -0.07225946 0.08531761 0.082152 0.02775967 0.03323143
-0.038258445 -0.04911292 0.06525202 0.075240605 0.06710089 -0.026753217 0.058809426 -0.045164365
-0.01725866 0.044992298 -0.01669089 0.005131378 -0.07559954 -0.033432126 -0.07257678 -0.0048297127
-0.04004548 -0.023653802 0.014738766 0.082816 0.008837287 0.06629437 -0.04377489 0.022323538
0.044359017 0.08198545 0.030354397 -0.01912016 -0.0360465 -0.040273525 -0.06613116 0.0026000917
-0.06475041 0.007809962 0.0919085 -0.0412364 0.003082336 -0.050991826 -0.03718345 -0.077667005
0.051263828 0.012782802 -0.01711957 -0.025740894 -0.09308646 0.03278153 0.090592794 -0.0756919
0.076368414 0.02388308 0.007619194 0.07729159 0.08851677 0.0127729485 0.0027144467 -0.020681303
-0.0007722587 0.07392261 -0.0040006787 0.011413175 0.078821056 0.053145964 0.07109198 -0.064951636
0.06884516 0.0076029017 -0.059166897 -0.00027335348 0.046739023 -0.05643431 0.047710918 0.09017253
-0.037717234 -0.05248222 0.07104648 0.06884959 -0.049675696 -0.031168353 0.027001396 -0.070475265
0.025145743 0.078918114 0.069807656 0.054654483 0.052215602 -0.02900714 -0.05324073 0.06231302
0.09140582 0.026003782 -0.0368972 0.051303472 -0.057815664 0.08778737 -0.0758736 -0.058134552
-0.02995985 0.0415338 -0.017218271 -0.040418595 0.023680221 0.0008700875 0.066910796 -0.08835044
0.052391525 -0.0042997054 0.001460894 0.047136407 0.04451981 0.07812257 -0.009809714 -0.07668293
00000000: b5da 843d 6c3f 97bd 4993 fbbc 5de3 e23c
00000010: 571b a1bd 5ab5 8fb9 2973 723d ea32 42bc
00000020: 1809 3ebd f89d 94bb 4781 6c3d c5fc 93bd
00000030: 00bb ae3d 4f3f a83d 3f68 e33c ae1d 083d
00000040: e3b4 1cbd a12a 49bd daa2 853d bf17 9a3d
00000050: 316c 893d 9029 dbbc 27e2 703d 45fe 38bd
00000060: 0962 8dbc d849 383d 55bb 88bc 1e25 a83b
00000070: eed3 9abd 20f0 08bd 23a3 94bd 9142 9ebb
00000080: bb06 24bd 9ec5 c1bc dd7a 713c 6f9b a93d
00000090: 45ca 103c 58c5 873d 4d4d 33bd dadf b63c
000000a0: cdb1 353d fde7 a73d c9a9 f83c e2a1 9cbc
000000b0: 7fa5 13bd daf5 24bd c66f 87bd 4d66 2a3b
000000c0: dd9b 84bd b6ea ff3b 863a bc3d 80e7 28bd
000000d0: 0401 4a3b cedc 50bd ac4d 18bd e10f 9fbd
000000e0: 05fa 513d f56e 513c 573e 8cbc 91de d2bc
000000f0: 1da4 bebd ed45 063d b788 b93d 5b04 9bbd
00000100: 0b67 9c3d 73a6 c33c 6faa f93b 0e4b 9e3d
00000110: 4848 b53d a145 513c dce4 313b d66b a9bc
00000120: 6771 4aba bd64 973d 2018 83bb 53fe 3a3c
00000130: ef6c a13d 95af 593d ac98 913d 5d05 85bd
00000140: b1fe 8c3d c321 f93b fd58 72bd e250 8fb9
00000150: 6b71 3f3d aa27 67bd 866c 433d 60ac b83d
00000160: 637d 1abd 99f7 56bd d180 913d 0401 8d3d
00000170: be78 4bbd c654 ffbc 0832 dd3c 5655 90bd
00000180: 72fe cd3c d29f a13d 51f7 8e3d 61dd 5f3d
00000190: 07e0 553d 62a0 edbc f412 5abd f03b 7f3d
000001a0: f932 bb3d e205 d53c 8521 17bd 9723 523d
000001b0: 1ed0 6cbd ddc9 b33d 9e63 9bbd 7f1e 6ebd
000001c0: 5c6e f5bc 591f 2a3d 550d 8dbc f88d 25bd
000001d0: 06fd c13c 9516 643a 8708 893d 13f1 b4bd
000001e0: 7f98 563d 8be4 8cbb 787b bf3a 1b12 413d
000001f0: 675a 363d bafe 9f3d ecb8 20bc f10b 9dbd

exp_avg f4 [1, 11]
0.00020345955 -0.0046547772 -5.9131594e-06 -1.9122144e-05 -3.0170595e-05 0.0029155419 2.216365e-05 -6.356734e-05
-5.2203695e-06 0.0015814673 5.6138186e-05
00000000: c257 5539 1a87 98bb a769 c6b6 7e68 a0b7
00000010: dc16 fdb7 ad12 3f3b 13ec b937 754f 85b8
00000020: a22a afb6 3d49 cf3a eb75 6b38

exp_avg_sq f4 [1, 11]
4.0079713e-06 0.0003206795 2.771266e-09 1.1520359e-08 1.9733447e-08 0.00013756064 1.8482481e-08 3.37823e-08
4.9413256e-09 7.1061964e-05 1.1850974e-07
00000000: 367c 8636 e020 a839 a170 3e31 13eb 4532
00000010: 4f82 a932 273e 1039 68c3 9e32 0818 1133
00000020: 5cc8 a931 1a07 9538 6b7f fe33

exp_avg f4 [7, 11]
0.0 0.0 0.0 0.0 0.0 0.0 0.0 0.0
0.0 0.0 0.0 0.0 0.0 0.0 0.0 0.0
0.0 0.0 0.0 0.0 0.0 0.0 0.0 0.0
0.0 0.0 0.0 0.0 0.0 0.0 0.0 0.0
0.0 0.0 0.0 0.0 0.0 0.0 0.0 0.0
0.0 0.0 0.0 0.0 0.0 0.0 0.0 0.0
0.0 0.0 0.0 0.0 0.0 0.0 0.0 0.0
0.0 0.0 0.0 0.0 0.0 0.0 0.0 0.0
0.0 0.0 0.0 0.0 0.0 0.0 0.0 0.0
0.0 0.0 0.0 0.0 0.0
00000000: 0000 0000 0000 0000 0000 0000 0000 0000
00000010: 0000 0000 0000 0000 0000 0000 0000 0000
00000020: 0000 0000 0000 0000 0000 0000 0000 0000
00000030: 0000 0000 0000 0000 0000 0000 0000 0000
00000040: 0000 0000 0000 0000 0000 0000 0000 0000
00000050: 0000 0000 0000 0000 0000 0000 0000 0000
00000060: 0000 0000 0000 0000 0000 0000 0000 0000
00000070: 0000 0000 0000 0000 0000 0000 0000 0000
00000080: 0000 0000 0000 0000 0000 0000 0000 0000
00000090: 0000 0000 0000 0000 0000 0000 0000 0000
000000a0: 0000 0000 0000 0000 0000 0000 0000 0000
000000b0: 0000 0000 0000 0000 0000 0000 0000 0000
000000c0: 0000 0000 0000 0000 0000 0000 0000 0000
000000d0: 0000 0000 0000 0000 0000 0000 0000 0000
000000e0: 0000 0000 0000 0000 0000 0000 0000 0000
000000f0: 0000 0000 0000 0000 0000 0000 0000 0000
00000100: 0000 0000 0000 0000 0000 0000 0000 0000
00000110: 0000 0000 0000 0000 0000 0000 0000 0000
00000120: 0000 0000 0000 0000 0000 0000 0000 0000
00000130: 0000 0000

exp_avg_sq f4 [7, 11]
0.0 0.0 0.0 0.0 0.0 0.0 0.0 0.0
0.0 0.0 0.0 0.0 0.0 0.0 0.0 0.0
0.0 0.0 0.0 0.0 0.0 0.0 0.0 0.0
0.0 0.0 0.0 0.0 0.0 0.0 0.0 0.0
0.0 0.0 0.0 0.0 0.0 0.0 0.0 0.0
0.0 0.0 0.0 0.0 0.0 0.0 0.0 0.0
0.0 0.0 0.0 0.0 0.0 0.0 0.0 0.0
0.0 0.0 0.0 0.0 0.0 0.0 0.0 0.0
0.0 0.0 0.0 0.0 0.0 0.0 0.0 0.0
0.0 0.0 0.0 0.0 0.0
00000000: 0000 0000 0000 0000 0000 0000 0000 0000
00000010: 0000 0000 0000 0000 0000 0000 0000 0000
00000020: 0000 0000 0000 0000 0000 0000 0000 0000
00000030: 0000 0000 0000 0000 0000 0000 0000 0000
00000040: 0000 0000 0000 0000 0000 0000 0000 0000
00000050: 0000 0000 0000 0000 0000 0000 0000 0000
00000060: 0000 0000 0000 0000 0000 0000 0000 0000
00000070: 0000 0000 0000 0000 0000 0000 0000 0000
00000080: 0000 0000 0000 0000 0000 0000 0000 0000
00000090: 0000 0000 0000 0000 0000 0000 0000 0000
000000a0: 0000 0000 0000 0000 0000 0000 0000 0000
000000b0: 0000 0000 0000 0000 0000 0000 0000 0000
000000c0: 0000 0000 0000 0000 0000 0000 0000 0000
000000d0: 0000 0000 0000 0000 0000 0000 0000 0000
000000e0: 0000 0000 0000 0000 0000 0000 0000 0000
000000f0: 0000 0000 0000 0000 0000 0000 0000 0000
00000100: 0000 0000 0000 0000 0000 0000 0000 0000
00000110: 0000 0000 0000 0000 0000 0000 0000 0000
00000120: 0000 0000 0000 0000 0000 0000 0000 0000
00000130: 0000 0000

exp_avg f4 [3, 11]
0.0 0.0 0.0 0.0 0.0 0.0 0.0 0.0
0.0 0.0 0.0 0.0 0.0 0.0 0.0 0.0
0.0 0.0 0.0 0.0 0.0 0.0 0.0 0.0
0.0 0.0 0.0 0.0 0.0 0.0 0.0 0.0
0.0
00000000: 0000 0000 0000 0000 0000 0000 0000 0000
00000010: 0000 0000 0000 0000 0000 0000 0000 0000
00000020: 0000 0000 0000 0000 0000 0000 0000 0000
00000030: 0000 0000 0000 0000 0000 0000 0000 0000
00000040: 0000 0000 0000 0000 0000 0000 0000 0000
00000050: 0000 0000 0000 0000 0000 0000 0000 0000
00000060: 0000 0000 0000 0000 0000 0000 0000 0000
00000070: 0000 0000 0000 0000 0000 0000 0000 0000
00000080: 0000 0000

exp_avg_sq f4 [3, 11]
0.0 0.0 0.0 0.0 0.0 0.0 0.0 0.0
0.0 0.0 0.0 0.0 0.0 0.0 0.0 0.0
0.0 0.0 0.0 0.0 0.0 0.0 0.0 0.0
0.0 0.0 0.0 0.0 0.0 0.0 0.0 0.0
0.0
00000000: 0000 0000 0000 0000 0000 0000 0000 0000
00000010: 0000 0000 0000 0000 0000 0000 0000 0000
00000020: 0000 0000 0000 0000 0000 0000 0000 0000
00000030: 0000 0000 0000 0000 0000 0000 0000 0000
00000040: 0000 0000 0000 0000 0000 0000 0000 0000
00000050: 0000 0000 0000 0000 0000 0000 0000 0000
00000060: 0000 0000 0000 0000 0000 0000 0000 0000
00000070: 0000 0000 0000 0000 0000 0000 0000 0000
00000080: 0000 0000

exp_avg f4 [5, 11]
0.0 0.0 0.0 0.0 0.0 0.0 0.0 0.0
0.0 0.0 0.0 0.0 0.0 0.0 0.0 0.0
0.0 0.0 0.0 0.0 0.0 0.0 0.0 0.0
0.0 0.0 0.0 0.0 0.0 0.0 0.0 0.0
0.0 0.0 0.0 0.0 0.0 0.0 0.0 0.0
0.0 0.0 0.0 0.0 0.0 0.0 0.0 0.0
0.0 0.0 0.0 0.0 0.0 0.0 0.0
00000000: 0000 0000 0000 0000 0000 0000 0000 0000
00000010: 0000 0000 0000 0000 0000 0000 0000 0000
00000020: 0000 0000 0000 0000 0000 0000 0000 0000
00000030: 0000 0000 0000 0000 0000 0000 0000 0000
00000040: 0000 0000 0000 0000 0000 0000 0000 0000
00000050: 0000 0000 0000 0000 0000 0000 0000 0000
00000060: 0000 0000 0000 0000 0000 0000 0000 0000
00000070: 0000 0000 0000 0000 0000 0000 0000 0000
00000080: 0000 0000 0000 0000 0000 0000 0000 0000
00000090: 0000 0000 0000 0000 0000 0000 0000 0000
000000a0: 0000 0000 0000 0000 0000 0000 0000 0000
000000b0: 0000 0000 0000 0000 0000 0000 0000 0000
000000c0: 0000 0000 0000 0000 0000 0000 0000 0000
000000d0: 0000 0000 0000 0000 0000 0000

exp_avg_sq f4 [5, 11]
0.0 0.0 0.0 0.0 0.0 0.0 0.0 0.0
0.0 0.0 0.0 0.0 0.0 0.0 0.0 0.0
0.0 0.0 0.0 0.0 0.0 0.0 0.0 0.0
0.0 0.0 0.0 0.0 0.0 0.0 0.0 0.0
0.0 0.0 0.0 0.0 0.0 0.0 0.0 0.0
0.0 0.0 0.0 0.0 0.0 0.0 0.0 0.0
0.0 0.0 0.0 0.0 0.0 0.0 0.0
00000000: 0000 0000 0000 0000 0000 0000 0000 0000
00000010: 0000 0000 0000 0000 0000 0000 0000 0000
00000020: 0000 0000 0000 0000 0000 0000 0000 0000
00000030: 0000 0000 0000 0000 0000 0000 0000 0000
00000040: 0000 0000 0000 0000 0000 0000 0000 0000
00000050: 0000 0000 0000 0000 0000 0000 0000 0000
00000060: 0000 0000 0000 0000 0000 0000 0000 0000
00000070: 0000 0000 0000 0000 0000 0000 0000 0000
00000080: 0000 0000 0000 0000 0000 0000 0000 0000
00000090: 0000 0000 0000 0000 0000 0000 0000 0000
000000a0: 0000 0000 0000 0000 0000 0000 0000 0000
000000b0: 0000 0000 0000 0000 0000 0000 0000 0000
000000c0: 0000 0000 0000 0000 0000 0000 0000 0000
000000d0: 0000 0000 0000 0000 0000 0000
