graph_embedding/test_dir/checkpoint.pth (torch, 827249 bytes, 36 tensors)

u.0.learn_args.0 f4 [4, 2, 7]
000000 2f 1b 90 3f f0 61 25 bf d4 98 03 be 35 7a 0f 3f
       1.1258296 -0.64602566 -0.12851268 0.5604585
000010 7b 29 cc 3f bb ef 44 bf fd 05 c4 3e 79 42 13 c0
       1.5950159 -0.769283 0.3828582 -2.3009322
000020 be 7b 6f bf 91 30 e1 3e c3 dc f9 3e fe be 8f 3f
       -0.9354819 0.43982366 0.4880124 1.1230161
000030 5a a0 54 bf a8 a6 13 3e 24 0d 6f 3e a4 b6 a5 bf
       -0.8305718 0.14419043 0.23344857 -1.2946362
000040 88 40 13 bf 01 cc 87 bf e4 8c af 3f 35 0b 7c be
       -0.5752034 -1.0609132 1.3714871 -0.2461365
000050 4d 0a aa 3f cc d2 b4 3f d6 d2 66 3f 17 08 90 3f
       1.3284394 1.412683 0.9016546 1.1252469
000060 0a e5 1b bf 64 15 9b bd 7a 0d c8 3f 9a be b3 be
       -0.6089636 -0.07572439 1.5629113 -0.35106355
000070 62 98 a6 bf e7 ae 9d 3f ea bb 63 3f f3 81 67 3e
       -1.3015254 1.2319001 0.8895861 0.22608165
000080 1c 4b 07 be ef 64 09 be 73 40 1c bf a9 69 92 3f
       -0.13212246 -0.1341741 -0.6103584 1.1438495
000090 50 5e 85 bf 13 8b b4 3e 79 a9 40 3d a7 18 67 3d
       -1.0419407 0.35262355 0.04703662 0.056419995
0000a0 d6 9a fb 3f 86 08 99 bf ba be ff 3e 0a d5 87 3e
       1.9656627 -1.1955726 0.499502 0.26529723
0000b0 24 ed 9e bf 54 f9 0c bc 5c a4 0d bf ca bd c2 bf
       -1.241612 -0.008604366 -0.5532892 -1.5214169
0000c0 0d 6e 97 bf 62 3e cb 3f 36 89 ec bf 79 82 90 bf
       -1.183046 1.5878413 -1.8479373 -1.1289817
0000d0 e4 d3 31 bf 1b 4d 77 3d d8 ba a1 bf ef f5 bb 3e
       -0.69463944 0.060376268 -1.2635145 0.3671107

u.1.learn_args.0 f4 [4, 8, 3]
000000 20 c8 25 bf 2f f5 a0 3e 48 13 0b 3e 21 c5 bf 3c
       -0.6475849 0.3143706 0.13581574 0.023409428
000010 00 95 b8 bd 54 35 4d 3f 95 27 aa bf d3 c5 ed 3d
       -0.090127945 0.801595 -1.329333 0.116099976
000020 ec a2 93 3e 87 42 e4 be 5f 2b e0 be 81 49 05 bf
       0.28835237 -0.44582006 -0.4378309 -0.52065283
000030 0b 4e 94 bf 5d 45 07 3f 16 07 14 3f cd 0d 01 3f
       -1.1586317 0.52840215 0.5782331 0.50411683
000040 33 2c e9 3e 63 d2 9c bd 49 c6 3d bf 1d 00 ce 3f
       0.45541534 -0.076573156 -0.74130684 1.6093785
000050 df 5c 87 bf 45 23 ba 3e 10 02 a7 3f 91 08 6d be
       -1.0575217 0.36355034 1.3047504 -0.23147799
000060 db 31 83 3e 0f 2d 19 c0 8e 0a ff be 9f d6 dd bd
       0.25623974 -2.3933752 -0.4981274 -0.10831951
000070 cc 06 64 3f a5 67 88 3e 8f 97 9c bf c4 45 10 be
       0.8907287 0.26641575 -1.2233752 -0.14089113
000080 f9 a9 d2 bf f1 df 8e be 87 59 9d bf 78 ee c4 3f
       -1.6458122 -0.2790523 -1.2292947 1.5385275
000090 93 64 e5 be b6 be 63 3d f1 93 c9 3f c7 12 f0 bf
       -0.44803295 0.055601798 1.5748273 -1.875573
0000a0 28 b4 39 bf e5 e1 57 3f 83 24 18 bf 0b 29 00 bf
       -0.7254052 0.8432906 -0.5943071 -0.50062627
0000b0 88 d8 b9 be bc c9 d4 3f 63 7e 2b be 80 44 b1 3f
       -0.36298013 1.6624064 -0.16747431 1.384903
0000c0 0f 85 d5 3f 8c 04 b6 be bb 10 17 3f da 16 31 bf
       1.6681231 -0.35550344 0.59009904 -0.69175494
0000d0 8c a2 da bd 3a ab 08 bf 5d f6 25 bf cf 2c 03 3d
       -0.106755346 -0.5338627 -0.64829046 0.032025155
0000e0 47 18 42 bf 4f 10 07 40 92 91 29 bf 0c 4e 5c bf
       -0.75818294 2.1103704 -0.6623775 -0.8605659
0000f0 88 1d c8 3e e3 9e 26 3f 02 a8 1e 40 0d 78 38 3f
       0.3908503 0.6508619 2.4790044 0.7205818
000100 de 85 83 3d 8c 4b 99 3f 7d 93 12 bf f1 60 fb 3f
       0.064220175 1.197618 -0.572563 1.9638959
000110 c7 4a 76 3f 72 6e 20 be f1 2b 1f be 00 82 b6 3f
       0.9620785 -0.15667132 -0.15544106 1.4258423
000120 b1 91 da bd 68 1f e7 be 87 f8 c6 bf af 70 7f 3f
       -0.1067232 -0.4514115 -1.5544595 0.99781317
000130 b9 a1 98 bd d9 95 cc 3e 53 af 20 bf 81 68 1b 3e
       -0.07452721 0.39958075 -0.62767524 0.15176584
000140 e0 e0 ea be 7b fe 2b 3f 7e 6d d1 bf 75 25 d3 3d
       -0.4587469 0.6718518 -1.6361539 0.10309879
000150 17 19 56 3f e2 6b 38 40 70 08 73 bf 20 fd 0c bf
       0.83632034 2.8815846 -0.9493475 -0.5507374
000160 08 32 c0 be e9 37 be bf d9 86 96 bf 18 f0 20 40
       -0.3753817 -1.4860812 -1.1759902 2.5146542
000170 44 4e 73 3f c6 40 1b 3f 3b 70 6e 3f 19 5c 49 3e
       0.950413 0.6064571 0.9314 0.19664039

u.2.learn_args.0 f4 [4, 4, 5]
000000 61 a4 7f be 37 1e 2c 3f 89 a2 6a be 00 7b 0d 3f
       -0.2496505 0.67233604 -0.22913565 0.5526581
000010 22 1e 05 3f 4d 4d 95 bf 14 11 4f bf a5 d6 fa be
       0.51999104 -1.1664215 -0.80885434 -0.48991886
000020 c5 a5 4b bf 95 aa c8 3e 7f f6 24 bf c7 43 31 bf
       -0.7954982 0.39192644 -0.64438623 -0.69244045
000030 8f c8 0c 3e 5d 17 69 3f 4d 4a 87 bf 00 bf 31 3f
       0.13748382 0.91051275 -1.056955 0.6943207
000040 bc f0 46 3d 6e 49 ab be d3 dd 65 3e 46 9a 3a bf
       0.048569426 -0.3345446 0.224479 -0.7289165
000050 70 80 e6 3f 4d 9e 62 bf 4f 50 7e 3e 36 a2 86 bf
       1.8007946 -0.885228 0.24835323 -1.0518253
000060 e1 a7 1d 3e 0c 5e ac 3e 78 b6 92 3f cc 4b df bf
       0.15396072 0.33665502 1.1461935 -1.7445006
000070 d0 0d 79 3f 1a 5a 84 bf be 67 26 3f a7 2d e9 3e
       0.972867 -1.0339997 0.6500205 0.45542642
000080 9b ce 69 3f 03 ed a0 bf 2b 57 5f 3f 6f e8 ac bf
       0.9133088 -1.257233 0.8724238 -1.3508433
000090 52 b1 e7 3e b1 c0 00 3e 1b 3f 0e 3f 2b 35 a9 be
       0.45252472 0.12573506 0.5556504 -0.33048376
0000a0 83 c3 15 40 81 38 c7 bf c1 cf 88 bf 46 dc d8 be
       2.340058 -1.5564119 -1.0688401 -0.42355555
0000b0 d9 a5 1d 3f 4a c4 c9 3a fa 6c 44 bd 96 a3 8b bc
       0.6158119 0.0015393582 -0.04795549 -0.017045777
0000c0 95 b0 88 3f 41 0c 8e bf be b3 b9 bd ed a3 41 bd
       1.0678889 -1.109749 -0.09067486 -0.047275472
0000d0 6d 1b 49 be d2 64 20 3f bc 1b 04 3e 21 b0 5a bf
       -0.19639368 0.6265384 0.12901205 -0.85425
0000e0 82 13 dc bf b5 6f f0 be 54 0c ed 3f 85 0b 8c 3f
       -1.7193453 -0.46960226 1.8519387 1.0941015
0000f0 91 b0 92 bf 15 24 08 40 5a 9a 11 bf e1 6c 6e 3f
       -1.1460134 2.1272023 -0.56876147 0.93134886
000100 6c 38 75 3f 4d 34 d1 3e 53 d4 5d be 6b d0 33 bf
       0.9578922 0.40860215 -0.21663027 -0.70239896
000110 94 3d fa 3e db 72 a3 bf 8d 90 38 3f b7 30 99 bd
       0.48875105 -1.2769426 0.72095567 -0.07479995
000120 de a9 34 3f c6 52 2e bf 14 e8 8a 3f 1e 89 14 be
       0.70571697 -0.6809505 1.0852075 -0.14505431
000130 a6 74 d7 3f 00 fc d7 3f 84 ae 04 40 82 4a fc be
       1.6832473 1.6873779 2.0731516 -0.49275595

r.learn_args.0 f4 [1, 11]
000000 96 dc 3d bf bf e2 c0 bf c1 55 28 3f 59 9f 2a bf
       -0.7416471 -1.5069197 0.6575585 -0.66649395
000010 e2 b9 2c 3f 43 01 12 40 a5 1f 8d be 0d f8 4d 3f
       0.67471135 2.281327 -0.27563205 0.8045662
000020 cf da d6 be 45 d9 81 bf 16 5b a4 3e
       -0.41963813 -1.014443 0.32100743

r.learn_args.1 f4 [7, 11]
000000 3a 7f f4 bf 78 02 af bf e4 c1 26 bd 27 76 04 c0
       -1.9101326 -1.3672628 -0.040712252 -2.0697114
000010 bf 96 a5 3f a9 d0 0c 3f 0e c1 63 3f 61 56 1c be
       1.2936629 0.5500589 0.88966453 -0.15267326
000020 74 43 e1 be 24 63 9f bf ff a0 3d c0 c6 18 8e 3e
       -0.43996775 -1.245213 -2.9629514 0.27753276
000030 68 84 b6 3f b0 4a 3c 3f b6 b0 c9 be 75 64 e9 bf
       1.4259157 0.73551464 -0.39392632 -1.8233782
000040 0d d6 4c bf db c3 34 3f 97 57 bd bf 4a f7 43 be
       -0.80014116 0.7061135 -1.4792355 -0.19137302
000050 b4 fc fc be d6 64 a3 3f f2 31 13 be b1 91 b1 3e
       -0.49411547 1.2765148 -0.14374521 0.34681466
000060 14 bc ba bf d6 cc 93 be 2d 3f 90 3f 17 a8 80 be
       -1.4588647 -0.28867215 1.126928 -0.25128242
000070 e8 e5 a6 bf c7 bf be bf 5b a9 a1 3f c4 83 91 bd
       -1.3038912 -1.4902276 1.2629808 -0.071052104
000080 e6 81 c4 bf 47 4d 30 bf a4 ff 99 bf f6 d2 d9 3f
       -1.5352142 -0.68867916 -1.203114 1.7017505
000090 3b 57 d0 bd c0 7a 13 3f 80 70 1c 3f 69 fd 01 be
       -0.10172888 0.57609177 0.6110916 -0.12694325
0000a0 67 fc c3 3e 77 63 1c 3f 4c e3 65 bf 38 29 90 be
       0.38278505 0.6108927 -0.8979995 -0.28156447
0000b0 0d b0 8b 3f 81 be 4d 3f 67 3f 57 be cb 96 28 bf
       1.0913101 0.8036881 -0.2102028 -0.6585509
0000c0 f2 1b 6c 3f e7 14 4a bf da c9 98 3f 28 ba 4f be
       0.9223014 -0.78938144 1.19366 -0.20285857
0000d0 5d 70 a4 bf 79 e5 34 3f fd d7 1a 40 c8 80 04 40
       -1.284679 0.7066265 2.4194329 2.0703602
0000e0 29 c6 0a 3f 1f f0 58 bf 01 0c be 3f bb 19 e5 bf
       0.5420862 -0.84741396 1.4847413 -1.7898477
0000f0 83 70 fe bc bd f0 ac 3e 1f 88 aa 3f 52 99 6f be
       -0.03105951 0.3377742 1.3322791 -0.23398331
000100 4e da 67 be ef 5c 76 3e ea 22 73 bf ef b2 ba 3e
       -0.2264187 0.24058889 -0.9497515 0.3646464
000110 05 8e 88 3f 27 05 fb be c5 5f bb 3e 8f 1c e1 be
       1.0668341 -0.49027368 0.36596504 -0.439671
000120 26 da 05 bf 32 2f 5f bd 39 12 09 3e de cf 24 bf
       -0.52285993 -0.05448837 0.13385858 -0.6437968
000130 d5 28 80 3f
       1.0012461

r.learn_args.2 f4 [3, 11]
000000 a3 38 86 bf ef 44 a9 bf a8 d6 31 bf 40 44 3e 3f
       -1.0486034 -1.3224162 -0.69468164 0.7432289
000010 2c 23 88 bf 32 2c b1 be f9 7c ee bd 48 68 85 3f
       -1.0635734 -0.3460403 -0.116449304 1.0422449
000020 db f5 1d 3e 9a 37 b5 bb 45 08 a8 3e 73 a5 2b be
       0.15425818 -0.00553031 0.3281881 -0.16762333
000030 de 0c 0b be b5 e2 20 bd 56 81 33 bf 7f 71 90 bf
       -0.13579127 -0.039278705 -0.70119226 -1.1284636
000040 93 94 54 bd b0 c8 55 bf 65 e4 6d 3f 6f a2 0b 40
       -0.051899504 -0.8350935 0.9292663 2.1817892
000050 fd 20 94 be f4 fb 6c 3f bc d4 07 bf 43 93 68 3e
       -0.28931418 0.9257195 -0.5305898 0.22712426
000060 14 1b 0c 3f 74 42 32 be 1b b3 e9 be c4 51 86 3f
       0.5472882 -0.17408162 -0.4564446 1.0493703
000070 97 75 ef bf fe c3 c9 bf bb 3f a7 3f 9f d8 97 be
       -1.870776 -1.5762937 1.3066324 -0.29657456
000080 1a 46 2b 40
       2.6761537

r.learn_args.3 f4 [5, 11]
000000 44 3a 03 c0 eb 1e 0a 40 6f 09 80 3f d5 7d cd 3f
       -2.0504313 2.158137 1.0002879 1.6054026
000010 26 8e 89 3f 2c 9e 2d 3e ca cb 85 3f 69 69 f0 be
       1.0746505 0.16954869 1.0452816 -0.46955422
000020 71 af a1 3f ef bd dd be 6e 88 8f 3e fd 11 f1 bf
       1.2631665 -0.4330897 0.28033775 -1.8833615
000030 fe 70 bc bf c7 e8 b7 3f 44 63 62 bf 64 17 aa 3e
       -1.4721982 1.4367913 -0.8843272 0.3322097
000040 c0 7c a9 bf 9b 57 8f be c7 e7 48 3f 54 b4 d5 3f
       -1.3241196 -0.27996525 0.78478664 1.6695657
000050 30 ff c2 be 41 62 3e 3d 51 4c 29 c0 6a 38 e7 3f
       -0.38085318 0.04648042 -2.645283 1.8064091
000060 79 93 5a 3b 4e 9f 9d 3e 73 d6 37 3f f6 97 c4 3f
       0.003335206 0.30785602 0.718116 1.5358875
000070 d7 5a 9f 3f 8a 3b 0c 3f 14 62 90 bf 7e d1 c6 3f
       1.2449597 0.5477835 -1.1279931 1.5532682
000080 c1 65 c6 3e 18 87 8e 3f 27 80 54 3d 3f c0 0d bf
       0.38749507 1.1134977 0.051880028 -0.5537147
000090 8f 81 93 bf fd 78 19 bf 3c 51 38 3f 35 72 0b 40
       -1.1523913 -0.5995024 0.71998954 2.1788456
0000a0 d9 ab a1 3f c3 fd e4 3f 89 62 9c bf 78 34 3a 3f
       1.2630569 1.7889942 -1.221757 0.7273631
0000b0 44 3e 1a 3f d8 5e 5c 3f c3 e8 9a be 3c 1a d8 3f
       0.6025126 0.8608222 -0.30255708 1.6883006
0000c0 3c 37 0f 3f 04 69 32 c0 0b 2a 50 bf 1f 19 ba bf
       0.55943656 -2.7876596 -0.8131415 -1.4538916
0000d0 60 f8 c7 3f 15 26 93 3f 50 88 93 3f
       1.5622673 1.1495997 1.1525974

r.learn_modules.0.fcs.0.weight f4 [128, 11]
000000 63 08 2b bd 35 c8 5c be 2b a8 00 3e 37 40 8b bc
       -0.041756045 -0.21560748 0.12564151 -0.016998393
000010 be 20 8e be d6 7b 0f be ac 14 64 be f2 64 0d 3e
       -0.27759355 -0.14012083 -0.2227351 0.13808039
000020 5d ba a8 3d 61 c4 90 bd f9 02 3c 3e 72 61 34 be
       0.08238671 -0.07068706 0.18360509 -0.17615297
000030 04 28 b9 3d b9 60 84 be 36 fa 3b 3e 19 f1 b2 3d
       0.090408355 -0.25855044 0.18357167 0.08737392
000040 c5 0e 97 be 86 bc 8a 3e ba bb 93 3d ac 45 08 be
       -0.29503456 0.27096957 0.072135404 -0.13307828
000050 51 6c 86 3e cb 6f bd bb 39 49 a8 3d 4e 73 32 3e
       0.26254514 -0.005781149 0.08217091 0.17426798
000060 af 80 85 3e 54 d1 4a be c5 0a 8c 3e 1b bd 01 be
       0.2607474 -0.19806415 0.27351967 -0.12669794
000070 68 9d 13 3e 03 e3 9f bd 25 a1 5e bd e3 0f 97 3e
       0.14415514 -0.07806971 -0.0543529 0.29504308
000080 ca 8e 95 be 9b aa 54 be 3f 30 25 be 1e 7c 5f bd
       -0.29210502 -0.20768206 -0.16131686 -0.054561727
000090 03 01 02 be 1b 5d 0c 3d 75 84 22 be c0 07 07 be
       -0.12695698 0.03426848 -0.15870841 -0.1318655
0000a0 72 ac 85 be e9 82 5f be 1d 89 84 be 8f 42 c9 3b
       -0.26108128 -0.21827282 -0.2588586 0.0061419676
0000b0 99 23 ef 3d f2 9f 4f 3e c6 54 9e bd bf bc 77 3e
       0.116767116 0.20275858 -0.07731013 0.24193095
0000c0 02 5b 72 3e d5 ba e8 bd d2 23 2a be 10 72 51 3c
       0.23667529 -0.113637604 -0.16615227 0.012783542
0000d0 e2 9c 0c be 7e 24 0f 3e b5 13 71 be 3e f9 71 3e
       -0.13731721 0.13978764 -0.23542674 0.23630235
0000e0 8f d7 8f 3e 59 59 94 3e 03 6e 39 3e c1 03 83 3e
       0.28094146 0.28974417 0.18108372 0.25588802
0000f0 60 39 15 be 9b 76 ab 3d 8f 12 8f be f6 fa 5f be
       -0.14572668 0.083722316 -0.27943847 -0.21873078
000100 0f 7d 59 be 47 6b 80 3e a5 9d fe bd 8e 07 30 be
       -0.21239112 0.25081846 -0.12432412 -0.17190382
000110 f6 3d 8e bd 77 d9 8b 3e c9 5e ed 3d dc 62 5a 3d
       -0.06945412 0.2731435 0.115903445 0.053316936
000120 07 d0 75 bd c8 e8 2c bb c9 b1 3d be 54 94 4e be
       -0.060012843 -0.0026383866 -0.18524851 -0.2017377
000130 65 de 3d bc 42 0d 69 3d 36 11 8c be cb 0f 24 be
       -0.0115886675 0.05689741 -0.2735688 -0.1602165
000140 ed ea 38 3e 27 b1 3c be a2 b6 2c 3e 3c 61 30 3e
       0.18058367 -0.18426953 0.16866544 0.17224592
000150 75 af e0 bc 00 10 f3 3d 93 80 1b be 4d 00 8e 3e
       -0.027427414 0.11868286 -0.15185766 0.27734604
000160 ac 28 07 3e af c7 87 3e 59 21 3b be a9 29 61 3d
       0.13199109 0.26519534 -0.1827444 0.05497137
000170 00 f4 41 3c 49 3d 59 3e ba 87 43 3e 03 50 47 3e
       0.011837959 0.21214785 0.19094744 0.19464116
000180 e8 5f 56 bd 29 47 ff 3d 73 21 10 be 29 5a 56 3d
       -0.052337557 0.124647446 -0.1407526 0.052332077
000190 c7 f4 26 3d de ef 17 bd 4a c9 89 be 93 0a 2c be
       0.04076078 -0.03709399 -0.26911384 -0.16800909
0001a0 d7 8d 6d be e6 e2 57 be 15 f0 5c 3e 2c da c4 3d
       -0.23198639 -0.21082649 0.21575959 0.096119255
0001b0 2d 76 9a bd 69 98 7b be cb 2c 6a be e6 de 97 be
       -0.075420715 -0.24569859 -0.2286865 -0.29662246
0001c0 d5 70 73 be 30 ce 8d 3e b3 20 98 3e dd 51 40 be
       -0.23773511 0.2769637 0.29712448 -0.18781228
0001d0 2d 95 c0 bd 57 59 e3 bb 39 11 f8 3d c4 8e 30 3e
       -0.09403453 -0.0069381404 0.1211266 0.17241961
0001e0 1f 75 93 be cc 62 58 3e c8 34 1c be d6 24 96 3e
       -0.28800294 0.21131438 -0.1525451 0.2932498
0001f0 2c 19 9f 3d 5f 3a 5c 3e c6 0a 9a be 74 ad c3 bd
       0.07768473 0.21506642 -0.30086344 -0.09554568
000200 3a d4 90 3d d1 f1 63 3e ee 26 4b 3e d0 af 9f bb
       0.07071729 0.22260214 0.19839069 -0.0048732534
000210 1d d8 2b bd 45 23 83 be 3c 71 8a bd 91 22 84 3e
       -0.04195415 -0.25612846 -0.06759879 0.25807622
000220 e1 ad 96 3c 89 a7 97 3e 90 4a f4 bd 28 59 2e 3d
       0.018393459 0.29620007 -0.11928284 0.042565495
000230 a0 64 97 3e ee a3 cd bd 6e fb d4 bd 0e 49 75 3d
       0.29568958 -0.10041033 -0.10399519 0.059884124
000240 7a 75 48 be 7f bd 21 3e cc 94 86 3c 30 09 31 3e
       -0.19576064 0.15794943 0.016428374 0.17288661
000250 a0 c6 93 be a8 f3 0d 3c af 40 91 be 30 94 8c 3e
       -0.28862476 0.008664049 -0.28369662 0.27456808
000260 ba d3 99 3e 8c ed 9e 3d 27 92 4d bd b2 3d fa 3d
       0.30044347 0.07760152 -0.05018821 0.12218799
000270 61 ef 22 3e f4 e3 22 be ef f3 1d be f3 bc 5f 3e
       0.15911628 -0.1590727 -0.15425085 0.21849422
000280 f1 84 27 3c 88 52 9a 3d 71 77 bc bd 5f 55 45 be
       0.010224567 0.07535273 -0.09202469 -0.19270848
000290 75 0b 40 be 22 9f 3e 3e 3b 76 c8 bd f1 db 12 bd
       -0.1875437 0.18615392 -0.09788176 -0.035854284
0002a0 90 8c a3 3d 4d da 8c 3e b7 ec c3 bd 21 5a a9 3d
       0.079857945 0.275103 -0.09566634 0.08269144
0002b0 ff 12 79 be fe 42 91 be 77 71 53 3e de 1b a1 3d
       -0.24323653 -0.28371423 0.20648752 0.07866643
0002c0 6f 36 1f be 99 88 ee bd a7 c6 10 bd 46 b3 17 3e
       -0.15548109 -0.11647148 -0.0353457 0.14814481
0002d0 88 f9 f6 bd 4b e3 93 3e c0 43 c1 bd 51 12 ed bd
       -0.12059313 0.28884348 -0.094367504 -0.11575759
0002e0 8a e4 5e be 23 6a 5a 3c f5 36 91 be 74 28 71 3e
       -0.21766868 0.013330969 -0.2836224 0.23550588
0002f0 0f 05 83 bd 23 74 be bd 3d 3e 84 bd 7e 95 72 3d
       -0.06397449 -0.09299495 -0.064571835 0.059224598
000300 d8 16 3d 3e eb 14 96 be 4a bc c9 bd a3 32 bd 3d
       0.18465745 -0.29312834 -0.098503664 0.09238174
000310 be 9d b4 bd 60 b9 9c bc 84 be 26 be 58 b6 25 bc
       -0.088191494 -0.019131362 -0.16283613 -0.010114275
000320 96 68 8f bd d3 03 f7 3d 61 82 ec 3d 0b 74 82 be
       -0.0700237 0.12061276 0.11548305 -0.2547916
000330 05 ca 56 39 a1 24 e3 3d 48 6d 5c 3e 3e 09 48 be
       0.00020483889 0.11090971 0.21526062 -0.19534776
000340 98 80 8f be 25 bf 60 3d b9 00 35 bd 0d 6c 8a 3d
       -0.28027797 0.05486979 -0.044190142 0.0675889
000350 4d 61 5b 3e b3 f9 18 be 85 49 99 3e 1c 23 b1 3d
       0.21423836 -0.14939003 0.29938903 0.08649275
000360 4a 52 74 bd 6e ba b3 bc 5b 72 0d be 3e b8 ca 3d
       -0.05964879 -0.021939483 -0.13813154 0.09898423
000370 7e 51 09 3d ea a5 59 3e b0 96 55 bc 1c 90 f1 3c
       0.033524983 0.21254697 -0.013036415 0.029487662
000380 f9 68 5c be dc 9e 24 3e f8 a2 be 3d 14 47 a2 3d
       -0.21524419 0.16076225 0.093084276 0.07923713
000390 da 16 30 3e db 35 08 be 02 4f 63 bc ff be 97 be
       0.17196217 -0.13301794 -0.013873817 -0.29637906
0003a0 2e 49 b8 3c 10 70 29 3e 16 03 46 3e a8 12 b5 bb
       0.022495832 0.16546655 0.19337115 -0.0055259056
0003b0 0e 30 97 be e1 3a 7c 3e 88 33 ea bc 55 93 d5 3d
       -0.2952885 0.24631836 -0.028589025 0.10428492
0003c0 39 e3 33 3e 66 73 15 3e 35 fa 4b 3e 5a e7 64 be
       0.17567147 0.14594802 0.19919665 -0.22353879
0003d0 8b 7d 5e be c8 70 4d 3e 25 31 2f bc 31 91 33 3e
       -0.21727578 0.20062554 -0.010692869 0.17535855
0003e0 bb 8e 70 be f2 42 72 3e eb 4e 83 3e 56 d8 24 3e
       -0.23491947 0.2365835 0.25646147 0.1609815
0003f0 09 a2 1e 3e 1a fe 80 bd 1d d5 5e bd 94 16 8a be
       0.15491499 -0.06298466 -0.05440246 -0.2697035

r.learn_modules.0.fcs.0.bias f4 [128]
000000 d2 13 04 3d 99 8a 6c 3e 9f 0d 54 be f5 bc 7a 3e
       0.032245465 0.23099746 -0.20708321 0.24486144
000010 df 70 2c be 0b 3c 66 bb cf c9 50 bd d5 32 91 3e
       -0.16839932 -0.0035131003 -0.05097371 0.28359094
000020 a1 0f 99 3e 87 e3 b5 3c b0 ca 83 be 5a 16 f8 3b
       0.29894736 0.02220322 -0.25740576 0.007571024
000030 ff 67 49 3d 06 2f 77 3e ac 8f e1 3d 13 6a db bd
       0.049171444 0.24139032 0.11013731 -0.107135914
000040 41 bd 02 3e ad 42 83 3e c3 93 62 3e 6b e2 f4 bd
       0.12767507 0.25636807 0.22126679 -0.11957248
000050 55 9f 40 be 95 51 12 3e 1c 6c 17 3e de bb 35 3e
       -0.1881078 0.14288934 0.14787334 0.17747447
000060 60 ba 24 3c f4 b0 8e be 92 c7 46 3e 09 aa 7d 3d
       0.010054201 -0.2786938 0.19412068 0.061929736
000070 19 41 13 be bb 21 87 3e 1b 32 8e be aa 36 2f be
       -0.14380302 0.26392922 -0.27772602 -0.17110696
000080 19 fc 16 3d d1 d3 88 3e 0e a6 47 be 59 18 8e 3e
       0.036861513 0.26724103 -0.19496939 0.2775295
000090 a5 1b 19 3e 97 31 5e be 86 60 87 3e 7c 42 69 be
       0.14951952 -0.21698605 0.2644083 -0.22779268
0000a0 55 13 46 3e 0c ad 21 3e 8f 0f 8a be 3d 9c 09 be
       0.19343312 0.15788668 -0.26964995 -0.13438506
0000b0 50 33 50 3e e2 35 7a 3e a5 22 80 3e b6 97 90 3e
       0.20332074 0.24434617 0.25026432 0.28240746
0000c0 e0 60 9f bd 08 5d 8c 3e 33 05 21 bd 73 5d 26 3e
       -0.07782149 0.27414727 -0.0393116 0.16246586
0000d0 b1 3d 6b bd 0c 87 71 3e 7f 30 a0 bd 07 64 1d 3e
       -0.05743188 0.23586673 -0.0782175 0.15370189
0000e0 8f 12 2d be f1 a4 3d 3d 3a 75 58 be bc c1 72 bc
       -0.16901611 0.04629988 -0.21138468 -0.014816698
0000f0 2b cb c1 3d af 4b 24 3e 1c 76 77 3e e6 79 2d 3e
       0.09462579 0.16044496 0.24166149 0.16941032
000100 08 b6 f8 bd 57 76 46 be 29 81 36 3d d6 24 ad 3c
       -0.12144095 -0.1938108 0.04455677 0.021135729
000110 2a 22 53 3e 70 d1 51 be 87 24 5e be 65 de 7a 3e
       0.20618501 -0.2049005 -0.21693622 0.244989
000120 f9 b1 ca bd ca 9c 54 3e 56 00 79 3e b4 1e 8a 3e
       -0.09897227 0.20762935 0.24316534 0.2697655
000130 e5 28 47 3e c0 d1 73 bd ef 29 ca 3d bc 74 93 be
       0.19449194 -0.059526205 0.098712794 -0.288
000140 e1 8e 58 3e 3c 83 5b 3c f1 e6 87 be fb 53 22 be
       0.21148254 0.013397988 -0.26543382 -0.15852349
000150 88 56 09 3e f3 85 67 be 63 59 1c be 9c 04 6a 3d
       0.13411915 -0.22609691 -0.15268473 0.057133302
000160 fb 50 ff 3d 7d 13 31 be 7f fb a1 bd 76 ab 68 3e
       0.12466618 -0.1729259 -0.07909297 0.22721657
000170 5b 85 94 bd 8d da c4 bd 6e b9 3e 3e 94 03 8e 3e
       -0.07251998 -0.09611998 0.18625423 0.27737105
000180 53 70 d9 bd a8 00 46 bd 85 e1 38 3e aa 13 2f be
       -0.10617127 -0.04834047 0.18054779 -0.17097345
000190 fe 86 19 be 92 34 cd bd 1a 1c e6 3d 7f fb 99 3e
       -0.14992902 -0.100197926 0.11235829 0.3007469
0001a0 0d 6f 2c 3e 89 c2 42 3e 23 71 0c be 29 ee 9e bd
       0.16839238 0.19019522 -0.13715033 -0.07760269
0001b0 60 94 85 3e 21 ec 4e 3e a5 ef 42 3e 51 1d 98 be
       0.26089764 0.20207264 0.1903673 -0.29709867
0001c0 a1 5f 29 be 82 b4 30 3e 26 e7 6a be b7 f1 a4 3d
       -0.16540386 0.17256358 -0.22939739 0.08053916
0001d0 9c 88 82 be 88 9f 40 be 80 6c ce 3d d6 7a 06 bc
       -0.2549485 -0.18810856 0.100792885 -0.008207997
0001e0 3a 0c 51 3e 17 e5 95 be a4 31 79 be 47 5a c6 bd
       0.2041482 -0.29276344 -0.24335343 -0.09685188
0001f0 4a 33 59 3e 5e 29 a5 3d 10 77 f2 3d bd 04 55 3d
       0.21210971 0.08064531 0.118391156 0.052006472

r.learn_modules.0.fcs.1.weight f4 [256, 128]
000000 23 ea 38 bd 2a 5d db bc 8e c2 48 bc 6f b6 b1 3c
       -0.045145165 -0.026777823 -0.012253417 0.021693436
000010 61 71 5d bd 04 49 a3 3c ca 52 b2 bb 11 90 79 3d
       -0.054063205 0.019932278 -0.005441998 0.060928408
000020 f6 1f 92 3d 51 35 af 3d e9 96 ee bb 8b 4c c6 3c
       0.07135002 0.08555091 -0.0072811735 0.02420642
000030 9d 93 f6 ba 5a 87 3c 3d 57 e8 9f 3d bd ec 63 3d
       -0.0018812303 0.04602752 0.07807987 0.055645693
000040 47 03 8c bd 57 83 1f bb a8 e3 22 bd 39 bc 9e 3d
       -0.068365626 -0.002433976 -0.03976789 0.077507444
000050 a2 7f 03 3c 7b 97 b2 3d 69 fc 94 3c 45 b9 8b 3d
       0.0080260355 0.08720299 0.018186765 0.06822447
000060 5e fa 90 bd 7e b2 0b bd 8e 03 af bc 5a 17 70 bd
       -0.07079004 -0.03410577 -0.021364 -0.05861602
000070 2e 53 0c 3d d9 b0 58 bd c7 d4 8f bd 3a dc 16 bd
       0.034259014 -0.05290303 -0.07023006 -0.03683112
000080 5e 60 28 3d e3 d2 81 3d 93 84 7e bc e2 73 4f bb
       0.041107528 0.063390516 -0.015534538 -0.0031654765
000090 a2 ce 6b bc 81 a8 aa bd 6b a9 5f 3d 45 bb ac 3d
       -0.014392527 -0.08332921 0.05460493 0.08434156
0000a0 aa 67 97 3d f2 93 5e 3c f1 c3 87 bd 85 04 6e bd
       0.07392819 0.013585078 -0.0662917 -0.05810978
0000b0 83 3b d5 3c 2d b5 93 3c 81 2b 98 3d a3 61 12 3d
       0.026029354 0.018030727 0.07430173 0.035737645
0000c0 21 05 5a bc 22 46 48 3b d2 f4 85 bb e6 53 24 3d
       -0.013306887 0.003055938 -0.0040880227 0.040119074
0000d0 12 72 f7 3b dd 12 50 bc 52 7e 85 3d 8e 2f b1 3d
       0.00755144 -0.01269981 0.06518234 0.086516485
0000e0 29 95 37 3d a4 22 6b 3d 26 eb e5 3c d2 b6 60 3d
       0.044819985 0.057406083 0.02806623 0.05486185
0000f0 9a e9 11 bd 13 cc 31 bd af da 0b 3c 84 0a 9d bd
       -0.03562317 -0.04340751 0.008536025 -0.07668021
000100 69 58 5c bd 36 b0 14 3d e6 69 85 3d e3 a1 9a 3c
       -0.053795252 0.03630086 0.06514339 0.018876022
000110 24 84 72 3d 69 1f af 3d 6f 8e a5 bc 26 89 4e 3d
       0.05920805 0.08550913 -0.02020952 0.050423764
000120 da dc 85 bd 9a 18 ac bd 73 26 8b bd 24 d5 05 3d
       -0.06536265 -0.0840313 -0.06794443 0.03267397
000130 bc f1 77 bd 9f 49 4f 3d d6 01 19 bd e7 39 72 bd
       -0.06053327 0.05060732 -0.037355267 -0.05913725
000140 1c 24 ae bd ed a5 37 3d 46 28 89 3d fa 3e a0 bc
       -0.08502981 0.044835974 0.06697135 -0.01956128
000150 ad ed 0b 3d 2a 30 02 bd 67 e2 c4 3c 6d 1a 42 bc
       0.034162212 -0.031784214 0.024033738 -0.011847121
000160 33 92 aa bc 15 ce 89 3d eb 35 92 3d 6d 38 e2 3c
       -0.020821666 0.0672876 0.0713919 0.027614797
000170 bd ce a0 bc f5 84 6a bd 69 c7 aa bd 3e 09 e8 3c
       -0.01962983 -0.057255704 -0.08338816 0.02832472
000180 be ed 4d 3d c7 95 45 3c 67 ae a8 3d 7a 72 ac bd
       0.050275557 0.0120596355 0.082363896 -0.08420272
000190 57 23 67 3d 96 e0 92 3d a1 94 0e bd 96 5c b1 bd
       0.056430187 0.071717426 -0.034809712 -0.086602375
0001a0 a0 e5 47 bd 92 ac 02 3d 72 35 ac bd 57 59 80 bd
       -0.04880297 0.031902857 -0.084086314 -0.0626704
0001b0 97 b6 46 3d fb 55 d3 3c 22 e5 0d 3d 35 83 a2 3d
       0.048513975 0.025797835 0.034642346 0.07935182
0001c0 73 84 f4 bc dd 36 83 bd d8 bf 27 3d a8 e1 83 3d
       -0.029848313 -0.06406949 0.04095444 0.06439525
0001d0 ef 7d 96 3d a8 c2 2c bc c7 51 cb 3a 1d c6 f9 bb
       0.07348239 -0.010544457 0.0015512042 -0.007622494
0001e0 f8 80 99 bd 04 8f 7e 3d ab 9f 1d bd e5 14 b6 bd
       -0.07495302 0.06214811 -0.03848235 -0.08890704
0001f0 cf 3d 04 bd f5 df 80 3d 24 90 79 3d ae d6 c9 bb
       -0.032285508 0.062927164 0.06092848 -0.006159625
000200 74 a1 37 bd a4 47 81 3d a4 8f ac 3d c9 64 ca 3c
       -0.044831708 0.063124925 0.08425835 0.024706261
000210 4d 4a 9a 3c 41 ad 3b 3b f6 30 e0 bc 02 bb ca bc
       0.018834257 0.0028637203 -0.027367096 -0.024747375
000220 d6 bb 26 3d fe a6 56 3c a5 c0 ae 3d 6b 1e a5 bd
       0.040706478 0.0131013375 0.08532838 -0.080624424
000230 a4 e8 69 bd 49 cd 99 3d 94 7f 2a bb 96 a5 94 bd
       -0.05710663 0.07509858 -0.0026015984 -0.072581455
000240 fe bf ac 3d e2 b0 68 bc 12 93 fa bc e4 85 b8 bc
       0.08435057 -0.014202328 -0.030587707 -0.022524782
000250 49 5f 85 3d b4 ae bd 3b 2d 23 7d bd 03 26 86 3d
       0.06512315 0.0057886485 -0.061801124 0.06550219
000260 f6 0f c0 b9 b8 02 f0 bb 4f 99 42 3c 3c de 6b bc
       -0.00036632986 -0.007324543 0.011877372 -0.0143962465
000270 13 ec 5d bd b0 ff ac 3b 7c 1c 4c bd c2 25 23 3d
       -0.054180216 0.0052795038 -0.049831852 0.03983093
000280 e0 b3 32 3d 59 ee d9 bc 66 80 3f 3d 9d d6 62 3b
       0.043628573 -0.02660291 0.04675331 0.0034612783
000290 c0 4e 42 bc 04 04 1b bd ae 0a 66 b9 f4 1b 3b 3d
       -0.011859596 -0.037845626 -0.00021938488 0.045680955
0002a0 92 62 2b bd 80 47 3a 3d cc d3 87 3b d8 2c 2f bc
       -0.04184205 0.045478344 0.004145121 -0.010691844
0002b0 54 f5 0e bc b9 07 80 bc 16 45 13 3d e6 1f 63 3d
       -0.008725483 -0.015628682 0.035954557 0.055450343
0002c0 f1 b6 6c bd ea 47 57 bd 7e b9 20 bd 7f 42 47 bd
       -0.057791654 -0.052558817 -0.0392394 -0.0486474
0002d0 f4 36 85 3d 72 db 90 3d 08 46 aa bd 52 ca b2 bd
       0.06504622 0.07073106 -0.08314139 -0.08729996
0002e0 e2 ea 78 bd 08 a5 46 3d f2 88 59 bd 26 50 24 3d
       -0.060770877 0.04849723 -0.053109117 0.040115498
0002f0 85 fa b8 3c 03 67 8e bd a6 4f ae 3d bb 3a 16 3d
       0.022580395 -0.06953242 0.085112855 0.036677103
000300 2f d4 77 3c 21 4a 2e bc c4 d0 69 3b 9f a8 37 bd
       0.015126272 -0.010637791 0.0035677413 -0.044838544
000310 a2 f3 56 3d f0 e3 e2 bc 2e 90 7b bd 69 5f 64 bb
       0.05247844 -0.02769658 -0.061416797 -0.0034846908
000320 70 9c 2a bd 8a 82 72 3d 7a 27 0f bd b9 34 db bc
       -0.041653097 0.059206523 -0.034949757 -0.026758539
000330 59 18 10 39 c2 63 9f bd 3d 2a 07 3d 2b d5 4f bd
       0.0001374198 -0.07782699 0.032999266 -0.050740402
000340 f5 24 37 bd 8a 5c 87 bc 5e 37 0a bd ca 07 1c bd
       -0.04471298 -0.016523618 -0.03374421 -0.038093366
000350 e8 4b 78 3c d7 48 01 3c cc ab 9d 3c 90 61 86 bc
       0.015154816 0.0078909015 0.019246958 -0.016403943
000360 0a ad 66 bd 29 b5 68 3d ad 07 9d bd 92 b1 33 3d
       -0.056317367 0.056813393 -0.0766748 0.043870516
000370 9c 1c c7 3c 5c fc 59 bd ec 2e d5 3c 42 4d 8e 3b
       0.024305634 -0.053219184 0.02602335 0.004342706
000380 fa e3 91 3d 4a 95 0f bd 30 96 88 3c 08 03 41 3b
       0.07123561 -0.035054483 0.016673177 0.002945127
000390 10 0e 97 3d 7f 51 9b 3c 92 88 1e bb ce 79 93 bd
       0.07375729 0.018959759 -0.002419029 -0.07200967
0003a0 e7 71 93 3d 97 ff 30 3d 7b 73 84 bd 61 2c 6a 3c
       0.071994595 0.0432125 -0.06467339 0.014292807
0003b0 8a 43 8b bd 8a 7e e5 bc 28 f8 ab bd a2 f0 8c 3d
       -0.067999914 -0.02801444 -0.083969414 0.068818346
0003c0 0e 2a ac bd 1a 7a 10 bd 9e b3 83 bd 7f bf 1b 3d
       -0.08406459 -0.035272695 -0.06430744 0.03802442
0003d0 c0 68 7f 3d 5b 57 51 bd 96 7a 00 bc 3d 4a 89 bd
       0.062355757 -0.0511087 -0.007841727 -0.06703613
0003e0 33 a5 4e bd 00 7c 6d bd cf f8 8b 3d bd a0 b1 3d
       -0.050450515 -0.057979584 0.06834566 0.086732365
0003f0 27 c6 51 bc e4 72 96 3c 7b 00 9d bc b8 e6 7e bd
       -0.012803591 0.018365331 -0.019165268 -0.06223175

r.learn_modules.0.fcs.1.bias f4 [256]
000000 c4 c6 b1 3d 8d ba 16 bc 54 6a 18 bc 30 ee 79 bb
       0.0868049 -0.009199751 -0.009302694 -0.0038136356
000010 68 72 ab 3c af 1b 4d bd 1a 3f 1c 3d e6 41 9d bd
       0.020928577 -0.05007523 0.038146116 -0.07678585
000020 74 1f 47 3d be 94 17 bd ec 71 75 bc 0c bd 40 bd
       0.04861398 -0.037007086 -0.014980774 -0.04705529
000030 5a f3 67 3d 32 fa 92 3d cc 1f 02 bd 03 35 3d bd
       0.056628563 0.07176627 -0.031768605 -0.046193134
000040 5b 4e ac 3d d1 d3 62 3d 07 4c 50 bd 9f ae 44 bd
       0.084133826 0.055377785 -0.050853755 -0.048018094
000050 3d 59 18 bd 9f 4d d9 bc 91 f8 84 3c 80 9e 57 bd
       -0.03719448 -0.02652627 0.016231807 -0.05264139
000060 b7 39 af 3b 48 69 6b 3d b0 a0 46 3d 11 e3 10 3d
       0.0053474563 0.05747345 0.048493087 0.035372797
000070 3d 67 6c bd 86 a8 a5 3b 3f 3a 87 bd 65 00 81 3d
       -0.057715643 0.00505549 -0.066029064 0.062989034
000080 b5 95 1c 3b 05 dd 5d bd 31 f5 a6 bd 83 bf ec 3c
       0.0023892943 -0.05416586 -0.08152235 0.028899914
000090 f0 c5 78 bd c7 1c fb bc 02 63 1e 3c 9f b3 ae 3d
       -0.060735643 -0.03065337 0.00966716 0.08530354
0000a0 40 8f 90 bd bc 0c 98 3d b6 0f 93 3d 7f fd 4a bd
       -0.07058573 0.07424304 0.07180731 -0.04955816
0000b0 24 8f 8c 3c 01 b7 7b 3d 8d 76 9e 3c 9d bb 05 bd
       0.017158099 0.061453823 0.019343639 -0.032649625
0000c0 71 2a b3 bd f8 cd 74 bd c2 14 ae bd de f5 9b 3d
       -0.087483294 -0.05976674 -0.08500053 0.07615255
0000d0 6b 68 74 bd 46 54 ff bc 3b 87 fd bc 2e 1d b0 bd
       -0.059669893 -0.031168114 -0.030948272 -0.085993156
0000e0 29 65 01 3d cc 36 07 3d b8 45 82 3c 41 09 81 bd
       0.031590614 0.033011243 0.015902385 -0.06300593
0000f0 a8 05 d2 3c 42 0b 49 3d 74 23 42 3d c2 a4 af bc
       0.025637463 0.049083002 0.047397092 -0.021440867
000100 c6 a4 92 bd 4d 92 c5 3b 71 33 0b bc e4 86 5e 3d
       -0.07160334 0.0060294033 -0.008496151 0.05432786
000110 f0 e5 19 3b 21 fb ca 3c c6 93 fa bc be 50 cd 3a
       0.0023483 0.02477795 -0.030588042 0.0015664322
000120 00 47 7c bd 46 06 92 3d 77 92 45 3d 09 4b 67 3d
       -0.06159115 0.07130103 0.048235383 0.056468043
000130 cd 0e ad 3c cf 09 6c ba 44 c8 a4 3c d0 41 74 3d
       0.021125222 -0.0009004147 0.020115025 0.059633076
000140 cf 3a 53 bd 2d 61 89 bd 88 51 7e bd a3 b3 ac bd
       -0.051569756 -0.06707988 -0.062089473 -0.084327005
000150 63 22 45 3c 47 1d 99 3d 39 6f a0 bd 31 4f 53 bd
       0.012032124 0.07476287 -0.07833714 -0.051589195
000160 22 03 23 3d 94 73 94 3d 36 a9 dd bb d4 d2 98 bd
       0.03979791 0.07248607 -0.0067645563 -0.07462087
000170 bc 15 cc bc 64 80 5b bd bb 0d 91 bc 3a b9 13 3c
       -0.024912708 -0.05358924 -0.017706743 0.009016329
000180 3b 2e 22 3d d5 95 ab bd 02 1a 90 3a 75 ad 1c bd
       0.03959487 -0.083781876 0.0010994079 -0.03825136
000190 b8 9c 84 3d 1b 3f a9 3d f6 0c 87 bd a9 f1 55 3a
       0.06475204 0.082639895 -0.06594269 0.00081613153
0001a0 3d 47 56 3d 2e 19 67 3d b1 06 86 bd 02 5d 93 3d
       0.052314032 0.056420498 -0.06544245 0.07195474
0001b0 1f 8e 89 3d e3 ff 61 3d ea ec 6d bd f7 8f 6d 3d
       0.067165606 0.055175673 -0.058087267 0.057998624
0001c0 66 8c 18 bd 54 4b 9c 3d c4 5f 24 3d 61 a8 db bc
       -0.03724327 0.07631555 0.04013039 -0.026813688
0001d0 c3 9e 73 3d 5a 6b 91 bd 0a 57 c3 bc 29 18 38 bb
       0.05947758 -0.07100554 -0.023845214 -0.0028090572
0001e0 16 07 81 3d f4 a0 98 3b 63 3e 63 3a 6b 84 4c 3d
       0.0630018 0.004657859 0.0008668659 0.04993097
0001f0 03 38 a8 bd 17 fa e0 3c 29 5b 8f bd 42 f1 a9 bc
       -0.082138084 0.027463002 -0.06999809 -0.020744924
000200 07 1b 9b 3c e5 ad 72 3c f0 63 e5 3c d2 51 79 3d
       0.018933786 0.0148119675 0.028001755 0.060869046
000210 a5 e0 a6 3d 8a 05 3f bd 75 31 22 bd 8d 22 e3 3c
       0.08148316 -0.04663614 -0.039597947 0.027726436
000220 ca 0f db 3c 4c 27 d5 bc 53 cd f4 bc 6f cc 99 3d
       0.026740927 -0.026019715 -0.029883062 0.07509696
000230 1b ce 74 3d 82 70 50 3d 3b 1a 9d 3d 03 2c 88 bd
       0.05976687 0.050888546 0.07671019 -0.066490196
000240 f9 10 7b bc 3f ed 2d bd 4e e0 3c 3d 21 0c c0 3c
       -0.015323871 -0.042462584 0.04611235 0.023443284
000250 fb f5 a9 bd 54 88 aa 3b 84 6e 29 bd 9a 57 e7 3c
       -0.0829887 0.00520424 -0.04136516 0.028240014
000260 b9 25 8a 3d da c1 08 3d 6d 5b 7c 3c 11 1b 21 3d
       0.06745476 0.033387996 0.015402657 0.039332453
000270 2f 55 35 3d d7 e5 85 bc 85 cf 81 3d 3d 66 c7 3c
       0.04427069 -0.016344948 0.06338409 0.024340743
000280 b0 f6 21 bd f2 f5 02 bc ab cf 17 3d a2 25 b1 3d
       -0.0395419 -0.007993208 0.037063282 0.08649756
000290 af 63 0a bc f7 5f 9e 3c 6f d5 ad 3c 62 f3 77 bc
       -0.008446618 0.019332869 0.021219937 -0.015133711
0002a0 78 94 00 bc 5a a2 12 3d 86 95 9e bd 71 ca 5c bd
       -0.007847898 0.03579936 -0.07743363 -0.053904
0002b0 62 77 93 3d f9 12 6d bc b0 7b 7f 3d 01 37 88 3d
       0.07200505 -0.014469855 0.062373817 0.06651116
0002c0 e3 1f ac bd 4a b6 3d 3d 19 bc 16 bd d4 67 0a 3d
       -0.084045194 0.046316423 -0.036800478 0.033790424
0002d0 e0 9f 39 3d f3 0d 92 bd 6d c5 09 3c af 53 11 3d
       0.045318484 -0.07131567 0.008408886 0.035480198
0002e0 67 dc 48 bc 07 aa 4a bd a9 e0 06 3d 8b f9 1e 3d
       -0.012259579 -0.049478557 0.032929096 0.0388122
0002f0 d2 fa ae 3d 03 90 23 3c 97 75 37 3d 69 70 c1 3c
       0.08543934 0.009983066 0.044789877 0.023613172
000300 9f 11 83 bd ef 02 36 bc 9a 55 20 bb 4c f1 9a 3d
       -0.06399845 -0.011109098 -0.0024465085 0.07565555
000310 57 f2 5d 3d f7 4e 26 bd cb b3 a6 3c d8 5c 38 bd
       0.05418619 -0.04060265 0.020349404 -0.045010418
000320 e6 1e 9c 3a c1 33 39 bd 34 0b 93 3c 75 9d 74 bd
       0.0011911064 -0.045215372 0.017949678 -0.059720475
000330 36 70 b0 ba a0 3c cc bc 6d e3 62 3d 07 0b 60 3d
       -0.0013461176 -0.024931252 0.05539267 0.054698016
000340 bb 7b 6c bd b5 32 97 3d ac 9c 8c 3d 2c da 3c 3c
       -0.057735186 0.073827185 0.0686582 0.011526626
000350 c8 91 85 bb aa 23 7d 3d 10 1f 7c 3d c7 0f 33 bd
       -0.0040762164 0.06180159 0.06155306 -0.04371622
000360 56 0c 1c 3d 4d d3 62 bc d9 52 10 3d 5a 30 90 bc
       0.038097702 -0.013844323 0.03523526 -0.01760118
000370 b0 38 c4 3c 20 5b 9e 3d 77 c9 34 bc 6e ed 2d bd
       0.023952812 0.077322245 -0.011034361 -0.04246276
000380 4a 0a dc bc 93 50 85 bd 22 c7 12 3d 43 23 55 3c
       -0.026860375 -0.06509509 0.03583444 0.013008895
000390 c8 d4 ff bc 6d 86 36 bd 30 12 78 3d dc 9b 5b 3d
       -0.031229392 -0.044561792 0.06056422 0.053615436
0003a0 21 b6 da 3c fc 47 85 3d a5 ea 68 3c 82 ee 85 bd
       0.026698174 0.065078706 0.0142161 -0.065396324
0003b0 6d 69 11 3c 03 ec 6f bd 6f a1 62 3d 01 d9 97 3d
       0.008875233 -0.058574688 0.055329736 0.07414437
0003c0 9a 71 fb 3c b3 df 62 3d ee ea 16 3d 99 dc 93 bd
       0.030693818 0.055389117 0.03684514 -0.0721981
0003d0 42 2a ee bc 8b c0 3b bd ba bd a9 3d 99 4b a9 bc
       -0.029072884 -0.04583792 0.082881406 -0.02066593
0003e0 16 57 0d bd 43 fb a4 3d ad e3 46 bd 32 fb 08 3d
       -0.03450688 0.08055737 -0.048556972 0.033442684
0003f0 b1 24 09 3c 14 e5 9c bc 34 5b ab bd 0c b7 39 bd
       0.008370564 -0.019152202 -0.08367005 -0.045340583

r.learn_modules.0.fcs.2.weight f4 [128, 256]
000000 06 a9 03 3d e0 c6 fd 3c f2 76 37 bd 95 9c d9 3a
       0.032143615 0.03097862 -0.04479117 0.0016602451
000010 c1 d6 05 3d ca f8 3e bd 12 f5 0c bd c2 ea 35 bd
       0.03267551 -0.046623982 -0.034413405 -0.044413336
000020 67 32 40 3d 84 e2 78 3c a3 18 15 3d 42 64 1c 3d
       0.046923067 0.015190724 0.03640045 0.03818155
000030 9e a5 34 3d 7d ab 63 bc 9b c7 fe 3c f0 4e 8e bc
       0.044103257 -0.013895866 0.031101039 -0.017371625
000040 e8 65 44 3d 9c 78 75 3d d6 0c 46 3d 78 fe 47 3d
       0.047948748 0.059929475 0.048352085 0.048826665
000050 e7 e6 17 3d b6 23 17 3d 43 4f 27 bb b0 ee 51 bd
       0.03708544 0.03689929 -0.0025529421 -0.05125302
000060 a8 9f 91 3c 48 63 64 3d 8c 60 19 bd 74 5b 70 bd
       0.017776325 0.055758744 -0.03744559 -0.058680966
000070 66 66 58 bc 37 e9 5f bb 90 5a 3b bc a6 fd 67 3d
       -0.013208007 -0.0034166106 -0.011435166 0.056638382
000080 88 6d 30 bd 8d c9 01 3d 9b 96 4a 3d a0 50 ab bb
       -0.043073207 0.031686354 0.049460035 -0.005228117
000090 a0 ea ce bb a0 4c 27 bd 20 85 30 bd 3d 72 03 bd
       -0.0063145906 -0.04084456 -0.043095708 -0.032091368
0000a0 f8 74 d1 3c c6 23 37 3d 96 6f 55 3d c9 aa a0 3c
       0.02556847 0.04471185 0.05210837 0.019612687
0000b0 58 d2 df bc a4 92 c6 3c 03 d4 57 bd c0 17 08 3d
       -0.02732198 0.024239846 -0.052692425 0.033225775
0000c0 5e 34 52 3d 00 63 1f 3a ac 68 38 bd ed 93 4c 3c
       0.051319472 0.0006080121 -0.045021698 0.01248644
0000d0 e6 1d 79 3d c2 49 55 bb 42 fc 4c bd f7 90 3b 3d
       0.06081953 -0.0032545184 -0.05004526 0.045792546
0000e0 51 bf f0 3b 46 cf 11 bd d4 11 78 3d 68 f0 2d bc
       0.0073470254 -0.035598062 0.060563877 -0.010616399
0000f0 ea a9 64 bd 9a f2 c7 bc 2b 2c 5e bb 2e 5b 05 3d
       -0.055826105 -0.024407674 -0.0033900838 0.03255766
000100 8f 32 9e 3b 91 44 3e bd 34 9a 16 3d 9e 25 10 3d
       0.0048278044 -0.04645211 0.036768153 0.035192125
000110 6b 89 b6 bc cd b3 04 3d c9 73 2d bd 85 34 5c bd
       -0.022282323 0.032398034 -0.04234675 -0.053761024
000120 40 74 ef 3c aa 80 d3 bc 2a 7b 4f 3d da 35 72 3d
       0.029230237 -0.025818188 0.050654568 0.059133388
000130 88 de 23 bc 02 90 25 bd 00 04 6e 39 f5 27 49 3d
       -0.010001786 -0.04042054 0.00022698939 0.04911037
000140 08 dc 35 bc 51 09 57 bd 78 f0 3b bc ba b2 3e bd
       -0.011099823 -0.05249912 -0.011470906 -0.046557166
000150 98 88 d2 bc 5c 03 34 3d 7f 72 07 3d 49 48 21 bd
       -0.025699899 0.043948516 0.033068176 -0.039375577
000160 40 7e 36 bb 19 3c 8f 3c c9 3d b6 bc cd 51 a2 3c
       -0.0027846247 0.017484711 -0.022246258 0.019814396
000170 4a 4a 26 3d 64 cf 0c 3d d2 30 e3 3c 1a f4 e7 bc
       0.04059819 0.03437747 0.02773324 -0.028314639
000180 a6 eb a8 bb 09 6a 5e 3d 10 23 ea 3b a4 a1 50 3d
       -0.0051550446 0.05430034 0.007145293 0.050935403
000190 fe 4f 75 bd 84 0c 1f 3d a7 34 eb ba b4 48 15 bd
       -0.05989074 0.038830295 -0.0017944769 -0.03644629
0001a0 78 c1 2f bd 5c f2 a8 3c a5 71 be bc be e2 bd ba
       -0.042909116 0.020623378 -0.02324755 -0.001448713
0001b0 31 a1 45 3d 9a 75 65 3d e3 79 74 3d c8 f4 13 3c
       0.048249427 0.056020357 0.059686553 0.009030528
0001c0 6d f2 67 bd c8 27 3d bd 1c 8f 89 3a 0c e6 5a bb
       -0.05662768 -0.046180516 0.001049492 -0.0033401279
0001d0 14 fc 23 3b cd 64 ed 39 48 1e 26 bd f5 91 71 3d
       0.0025022076 0.00045279265 -0.040556222 0.058977086
0001e0 d0 42 44 bd 28 f8 02 3c c3 76 09 bd 42 7a 7b 3d
       -0.04791528 0.007993735 -0.033560526 0.06139589
0001f0 92 4b 79 bd 88 05 e0 bc 02 f8 37 bd b8 56 6e 3d
       -0.060863085 -0.027346388 -0.044914253 0.05818817
000200 a9 a2 13 3d 7d 3e 1e 3d 7a fd bd ba 76 f9 47 bd
       0.036043797 0.038633812 -0.0014495098 -0.04882189
000210 3d 8b 35 bb 40 83 e2 3a 6f fd f9 3c 5e 29 5e bd
       -0.00277014 0.0017281547 0.030516354 -0.05423867
000220 73 c3 23 3d 9a 68 35 bd 9a 62 05 bd 3a c6 72 bd
       0.039981317 -0.04428921 -0.032564737 -0.059271075
000230 03 4e ae 3b 0a c8 2d 3d 9d 76 be 3b f8 4c 6f bc
       0.0053193583 0.0424271 0.0058124796 -0.014605753
000240 1b af 61 3c 35 83 70 bd b2 69 34 3c 55 e9 17 3d
       0.013774659 -0.05871888 0.011011528 0.037087757
000250 ae 25 15 bd 5a b2 2f 3d 12 8c f2 ba 39 a4 63 3d
       -0.036412887 0.0428947 -0.0018504879 0.055576537
000260 9c 34 ac bc 18 3f 2a bc fe e3 8b 3c 69 02 fd bc
       -0.02102118 -0.010391019 0.017076489 -0.030884938
000270 16 41 4b 3d ac ee 9f 3c 70 bc f1 3b 40 9c c5 3c
       0.049622618 0.019522987 0.0073772 0.024122357
000280 98 35 e2 3c 96 6f 42 3c 32 50 c8 3b 5d f4 52 3c
       0.027613446 0.0118674245 0.0061130757 0.012875644
000290 a0 97 3d 3d c9 92 3a bd fa 55 5f bd 25 5d 42 bb
       0.04628718 -0.04555014 -0.054525353 -0.002965757
0002a0 ec 26 3e bd 01 08 04 3d 30 85 c2 3b fd 84 e8 3c
       -0.046423838 0.032234196 0.0059362873 0.028383726
0002b0 b1 02 11 bc 1c 98 23 3d 1a 47 56 bd bc 1d e8 bc
       -0.008850739 0.039939985 -0.0523139 -0.028334491
0002c0 00 43 24 3c 43 6a 4d 3d c0 57 14 bc d2 ed 43 bd
       0.01002574 0.050150167 -0.009054124 -0.047834225
0002d0 51 14 94 bc 5c 0a f8 bb 10 44 64 3c fa da 64 bd
       -0.018076094 -0.0075695943 0.013932243 -0.055872895
0002e0 fd 28 53 bd ca b3 40 3d 56 dc 36 bd 34 43 93 3c
       -0.05155276 0.04704646 -0.044643722 0.01797638
0002f0 3f 31 08 bd 1a 3b 96 3c 50 1d c7 bc 50 5f 1b bc
       -0.03325009 0.018338729 -0.02430597 -0.0094831735
000300 4e c4 58 bd 20 8e 19 bb 44 f2 ae 3c 2f 0f 64 3d
       -0.052921586 -0.002343066 0.021355756 0.055678543
000310 db 9c 9e bc 1a c8 2c 3d 39 58 dd 3a 39 83 39 3d
       -0.019361904 0.04218302 0.0016887254 0.04529116
000320 99 7b 75 bd a8 43 38 bd b2 72 55 bd 11 28 b4 bb
       -0.059932325 -0.044986397 -0.052111335 -0.0054979404
000330 40 59 2a 3c 80 55 74 3d 48 f2 46 bd 94 64 00 3d
       0.010397255 0.05965185 -0.0485709 0.03134592
000340 b8 94 31 bd 8d 2d 6e bd 4c a7 31 bd 80 90 52 3b
       -0.04335472 -0.05814891 -0.043372437 0.0032129586
000350 99 bc 6a 3d 4b 05 59 3d 0b 4e 18 3d 00 2e bf 3b
       0.057308767 0.052983563 0.037183803 0.005834341
000360 4d 30 cf 3c f8 f6 34 bd a8 cf 07 bd 5b 32 82 3c
       0.025291586 -0.04418084 -0.03315702 0.015893152
000370 40 c5 15 bb a7 52 2d 3d e0 19 c0 bc 48 dd be 3c
       -0.0022853166 0.04231515 -0.023449838 0.023298874
000380 7d aa 66 bc 78 4f e9 3c 80 70 d1 3c 9a 18 c5 3c
       -0.0140787335 0.028480276 0.02556634 0.024059583
000390 da 50 2a 3d 6f b2 20 3d 72 ac 0b 3d 70 bb b2 3b
       0.041581012 0.039232668 0.034100004 0.005454473
0003a0 64 3a 60 bd e8 48 cc bb 30 e3 11 3c a4 ae de bc
       -0.054743186 -0.006234277 0.008904263 -0.027182885
0003b0 32 66 e4 bc 01 e6 d9 bc 20 71 99 3c 30 5c 84 3c
       -0.027880762 -0.026598932 0.0187307 0.01615724
0003c0 6c 51 b9 bc f7 a4 b6 bc 80 a1 70 bd 80 d4 eb ba
       -0.022621833 -0.022295458 -0.05874777 -0.0017992407
0003d0 4c b6 5d bc 18 77 37 3c d4 b0 f0 3c 2a ef 1c bc
       -0.0135322325 0.011197828 0.029381193 -0.0095785055
0003e0 74 e8 28 3d 0f 56 69 bd 70 8b 9c 3b af 23 3f 3c
       0.04123731 -0.056966837 0.0047773644 0.0116662225
0003f0 5f bb 3d bd 4c 87 b1 3c 25 10 3e 3d b9 4c 56 bc
       -0.04632127 0.02167096 0.046402115 -0.013079816

r.learn_modules.0.fcs.2.bias f4 [128]
000000 d3 d9 44 bd e6 61 4c 3d 63 d7 e4 3c 92 0a 11 bd
       -0.048059296 0.04989805 0.027934736 -0.03541047
000010 bc 91 19 bd e3 4d c3 bb 06 10 4b 3d 18 ae 51 bd
       -0.0374925 -0.0059602126 0.049575828 -0.05119142
000020 58 5d dc 3c 6c 15 ce bc c2 63 2c 3d 30 91 fd 3c
       0.026899979 -0.0251567 0.042087324 0.03095302
000030 ec 7e db bc 9c 17 1f bd 40 ee 1f bc 9f 0f 60 3b
       -0.02679392 -0.038840875 -0.009761393 0.0034188998
000040 65 fb b5 3a aa 94 fb bb df ff 8a 3c 4d b2 37 ba
       0.0013884126 -0.0076776342 0.016967712 -0.0007007465
000050 05 53 63 3d dd 10 27 3d 20 a9 eb 3b bd 63 0e 3c
       0.055499095 0.040787566 0.007191792 0.008690772
000060 64 5b d0 bc 84 b1 da bc 67 b8 99 bc 7c 6b 15 3d
       -0.025434203 -0.026695974 -0.018764688 0.03647946
000070 78 27 d6 3c 4a 65 16 3d 5a 07 65 3d e9 67 29 bd
       0.026141867 0.03671769 0.055915214 -0.041358862
000080 f0 68 df 3b 44 c2 39 bc 0c 02 41 bd 7f aa 4a bd
       0.0068179294 -0.01133782 -0.047121093 -0.049479004
000090 dc a4 b6 3c e0 45 04 3c 5b 5f c4 3b 42 94 60 bd
       0.022295408 0.0080733 0.0059928126 -0.05482889
0000a0 ac 13 6b bd 3c c7 03 bd 42 43 b2 3c 1c 03 8b 3a
       -0.057391807 -0.032172427 0.021760587 0.0010605785
0000b0 43 ad 6e 3d 09 d3 1e bd a7 bb ba 3c 56 ec 14 bd
       0.058270704 -0.038775478 0.022794558 -0.0363582
0000c0 60 20 d6 bb f6 9f 34 bd d0 01 b9 3b c6 2c 30 3d
       -0.006534621 -0.044097863 0.005645968 0.04301145
0000d0 8f 1e ed 3c 76 fd 6b bc 2a 3f 8c bc f3 ca cf 3c
       0.028945236 -0.0144036915 -0.017119963 0.025365328
0000e0 37 5d 11 3d 18 17 2a 3c 50 2f 39 bd bc 84 56 bd
       0.035489287 0.010381483 -0.045211136 -0.05237268
0000f0 3b a1 5b 3d 32 81 25 bd 9c e4 9a 3c 07 48 4b bd
       0.05362056 -0.040406413 0.018907838 -0.049629238
000100 bc 80 06 3d 5b dd b3 3c 35 ca 36 3d 88 90 3a bc
       0.032837614 0.021956136 0.044626433 -0.011386998
000110 ea 39 1a bd ac df eb bc fb 58 bd 3c 3d db 1b bb
       -0.037652887 -0.028793178 0.023113718 -0.00237818
000120 26 e7 e2 bc f6 93 18 3c 73 2a c5 bc 80 2a 31 ba
       -0.02769811 0.00931262 -0.024068093 -0.0006758347
000130 1b b4 5f bd 5f a1 b0 3b 4b 48 d0 bc 5a 21 20 3d
       -0.05461512 0.0053903307 -0.025425097 0.039094307
000140 4e f3 6f 3d e9 08 82 3c 3c 5c 15 bd 0c bd 7f 3c
       0.058581643 0.01587339 -0.036464915 0.015609037
000150 58 85 15 bd b1 22 5e 3d cd e2 46 3d d8 d2 f6 bc
       -0.03650412 0.054232303 0.048556138 -0.030129835
000160 e9 d9 41 3d c9 8f 2f bd bf f2 7f 3c 13 70 4b bd
       0.047326956 -0.042861734 0.01562184 -0.04966743
000170 2f 2d 22 3d f7 11 78 bd 21 e8 0a 3d 00 6e 04 3c
       0.03959387 -0.060564008 0.03391278 0.008082867
000180 74 53 e7 bc 2f 79 79 3d f9 6f 81 3d 48 c6 6c bd
       -0.028238036 0.060906585 0.06320185 -0.057806283
000190 f0 36 4f 3c 20 6c 30 bc 64 f6 85 bc 72 f6 3f 3d
       0.012647375 -0.0107679665 -0.01635284 0.046865888
0001a0 ce f3 33 3d 2c d2 47 3b da ea 60 bd c8 49 eb 3c
       0.043933682 0.0030490262 -0.054911472 0.028721705
0001b0 25 9a 3f bd 40 25 23 3b b0 7f 81 bc 90 5e 74 bc
       -0.046777863 0.002489403 -0.015807956 -0.014915124
0001c0 4c ba c6 bc d0 91 56 3c 16 77 4f bd 62 d6 76 bd
       -0.024258755 0.013096288 -0.05065068 -0.060263045
0001d0 44 72 c6 3c 80 bb 3f 3b d8 ec 5c bc f4 a4 a1 bc
       0.024224408 0.0029256046 -0.013484202 -0.019731976
0001e0 00 1b 14 bc b1 77 ca bc 28 40 37 3d 4a 94 c8 bc
       -0.00903964 -0.024715276 0.04473892 -0.024484772
0001f0 16 cb 30 3d e6 74 08 bc 43 8b b0 3b 6a 6f 1f bd
       0.043162428 -0.008328652 0.005387695 -0.038924612

r.learn_modules.0.fcs.3.weight f4 [1, 128]
000000 38 47 6f bd e4 ba ae bd 98 48 66 3d bc 71 00 bd
       -0.05841753 -0.0853174 0.056221575 -0.031358466
000010 f1 72 a9 bd c1 56 82 3d 23 37 a2 3a ae 30 88 3d
       -0.082738765 0.06364203 0.0012376051 0.0664991
000020 86 94 ac 3d 48 f2 91 bd f0 d7 0f 3d 45 b1 02 3d
       0.08426766 -0.071262896 0.035118043 0.03190734
000030 d1 40 b2 3d 3d 85 af 3d 0d 89 34 bd 08 fe aa bd
       0.08703769 0.08570335 -0.044076014 -0.08349234
000040 b7 4b 98 3b fd 7c 9c 3c b3 ba 9e 3d 7a 00 38 bd
       0.004647698 0.019102568 0.07750454 -0.04492233
000050 3e 94 b3 bd 3e d8 52 bd 0e 16 d2 bc d4 f6 af bc
       -0.08768509 -0.051475756 -0.025645282 -0.021480002
000060 b5 b5 9f bd 14 e4 50 bd 00 66 d2 bc f8 36 d6 bc
       -0.0779833 -0.050998762 -0.025683403 -0.026149258
000070 88 a3 3b bd c6 c4 b0 bc 89 9b 34 3d 16 af 7c 3d
       -0.045810252 -0.021578204 0.044093642 0.061690412
000080 48 55 48 bd cb 85 97 3b b5 23 35 3b 1a 77 b1 bc
       -0.048909456 0.0046241037 0.0027639691 -0.021663237
000090 d1 7c 91 3c 72 87 ad 3d 56 80 8a ba 29 77 65 3d
       0.017759712 0.084731 -0.0010566812 0.056021843
0000a0 8b 01 4f bd 52 91 42 bd a7 dc 9c bd 6a c0 03 bd
       -0.05053858 -0.04750187 -0.076592736 -0.032165922
0000b0 91 71 a3 3d d3 3e 15 3d 5e 1d 57 bd 9d cd a4 3c
       0.079806454 0.036436867 -0.05251824 0.020117575
0000c0 1f 19 d3 3c de ab d3 bc 9f 16 9c 3d ba 37 d7 bb
       0.025768815 -0.025838789 0.07621502 -0.0065679224
0000d0 02 ff 00 bc 75 b5 8c bd 77 a6 e8 bc d3 d2 0b 3c
       -0.007873299 -0.06870548 -0.02839969 0.008534151
0000e0 1f f8 85 3c f3 ff 7d 3b 07 65 4e bd 80 a1 84 3b
       0.016353665 0.0038757294 -0.050389316 0.0040475726
0000f0 0c 68 aa 3c 31 29 d4 bc fe d3 19 bd e1 51 24 bd
       0.020801567 -0.025898548 -0.037555687 -0.04011715
000100 4f 9b 38 bd 47 9c a0 bc 65 e4 c2 bb 27 03 dc bc
       -0.04506999 -0.019605769 -0.005947637 -0.026856972
000110 0f 37 a7 3d af e5 6c 3d 27 65 1e 3b a2 94 aa bb
       0.081647985 0.05783623 0.0024169178 -0.0052057067
000120 12 75 c0 bb 48 2e b7 3c 4d 4b 41 bd 2c e3 43 bc
       -0.005873331 0.022360936 -0.047190953 -0.011956017
000130 3a 7e 0e 3d b9 eb 32 3b bc d5 9d bc 30 17 e2 bc
       0.034788348 0.0027301146 -0.019266956 -0.027598947
000140 23 f2 90 ba 8a a7 5b 3d d3 85 00 3d a9 e7 ad bd
       -0.001105849 0.053626575 0.031377625 -0.08491451
000150 4f 51 a6 3c 21 04 4e bd f3 50 b1 3d 86 83 95 3d
       0.020302443 -0.050296906 0.08658018 0.07300477
000160 61 5b 03 3d ca 22 8f bc 44 ef 88 bd 13 4f 87 3c
       0.032069568 -0.017472643 -0.06686261 0.016517198
000170 1d 5e 93 3c af 65 11 3c d7 8b 0a bd 52 c7 b8 3a
       0.017989213 0.008874341 -0.033824768 0.0014097488
000180 12 df 4c bc 6e 1a 9e bb a2 ac 0c 3c 52 ad 94 bc
       -0.012504356 -0.004824928 0.008586081 -0.018149052
000190 3b e0 9d 3d 43 5f a2 3d fc a3 a7 3d ea 9b cd 3c
       0.07708784 0.07928326 0.081855744 0.02509876
0001a0 85 01 89 bd 1d c7 29 bd 59 a8 e1 3c 7a 5d 34 bd
       -0.06689743 -0.041449655 0.027546095 -0.04403446
0001b0 57 d9 fa bc 74 0c 92 3d f0 5a 9b 3d b3 65 87 bd
       -0.030621214 0.071312815 0.07585704 -0.066111945
0001c0 06 80 3e bd 40 13 7c 3d df fb b3 3c 3c a2 88 bd
       -0.04650881 0.061541796 0.021970687 -0.06671569
0001d0 9b 26 c1 3c 9e cb 6d 3c 9e 35 b0 3d 63 e7 47 3d
       0.023577979 0.014513878 0.08603977 0.048804652
0001e0 53 c7 9f bd 8f b4 3d 3d b5 97 34 3d d7 06 56 ba
       -0.0780169 0.046314772 0.04408999 -0.00081644714
0001f0 54 e4 b6 3d 19 6b a5 bc 2c 9a 9e 3d 66 8f f2 bc
       0.08930269 -0.02019267 0.0774425 -0.029609393

exp_avg f4 [1, 11]
000000 88 fa 37 ba 8f 51 df 3a 36 3e 8a 39 1b f8 b1 3a
       -0.0007018228 0.0017037856 0.00026367762 0.001357797
000010 2b bc 58 39 e6 3c e1 ba 7c 0b 0c b9 59 1c ce 39
       0.00020669463 -0.0017184287 -0.00013355719 0.00039312502
000020 40 be b2 ba 5b 07 00 ba 9e 16 fc 39
       -0.0013637021 -0.00048839086 0.00048082037
