graph_embedding/test_dir/model_best.pth (torch, 827249 bytes, 36 tensors)

u.0.learn_args.0 f4 [4, 2, 7]
0	0x3f901b2f	1.1258296
1	0xbf2561f0	-0.64602566
2	0xbe0398d4	-0.12851268
3	0x3f0f7a35	0.5604585
4	0x3fcc297b	1.5950159
5	0xbf44efbb	-0.769283
6	0x3ec405fd	0.3828582
7	0xc0134279	-2.3009322
8	0xbf6f7bbe	-0.9354819
9	0x3ee13091	0.43982366
10	0x3ef9dcc3	0.4880124
11	0x3f8fbefe	1.1230161
12	0xbf54a05a	-0.8305718
13	0x3e13a6a8	0.14419043
14	0x3e6f0d24	0.23344857
15	0xbfa5b6a4	-1.2946362
16	0xbf134088	-0.5752034
17	0xbf87cc01	-1.0609132
18	0x3faf8ce4	1.3714871
19	0xbe7c0b35	-0.2461365
20	0x3faa0a4d	1.3284394
21	0x3fb4d2cc	1.412683
22	0x3f66d2d6	0.9016546
23	0x3f900817	1.1252469
24	0xbf1be50a	-0.6089636
25	0xbd9b1564	-0.07572439
26	0x3fc80d7a	1.5629113
27	0xbeb3be9a	-0.35106355
28	0xbfa69862	-1.3015254
29	0x3f9daee7	1.2319001
30	0x3f63bbea	0.8895861
31	0x3e6781f3	0.22608165
32	0xbe074b1c	-0.13212246
33	0xbe0964ef	-0.1341741
34	0xbf1c4073	-0.6103584
35	0x3f9269a9	1.1438495
36	0xbf855e50	-1.0419407
37	0x3eb48b13	0.35262355
38	0x3d40a979	0.04703662
39	0x3d6718a7	0.056419995
40	0x3ffb9ad6	1.9656627
41	0xbf990886	-1.1955726
42	0x3effbeba	0.499502
43	0x3e87d50a	0.26529723
44	0xbf9eed24	-1.241612
45	0xbc0cf954	-0.008604366
46	0xbf0da45c	-0.5532892
47	0xbfc2bdca	-1.5214169
48	0xbf976e0d	-1.183046
49	0x3fcb3e62	1.5878413
50	0xbfec8936	-1.8479373
51	0xbf908279	-1.1289817
52	0xbf31d3e4	-0.69463944
53	0x3d774d1b	0.060376268
54	0xbfa1bad8	-1.2635145
55	0x3ebbf5ef	0.3671107

u.1.learn_args.0 f4 [4, 8, 3]
0	0xbf25c820	-0.6475849
1	0x3ea0f52f	0.3143706
2	0x3e0b1348	0.13581574
3	0x3cbfc521	0.023409428
4	0xbdb89500	-0.090127945
5	0x3f4d3554	0.801595
6	0xbfaa2795	-1.329333
7	0x3dedc5d3	0.116099976
8	0x3e93a2ec	0.28835237
9	0xbee44287	-0.44582006
10	0xbee02b5f	-0.4378309
11	0xbf054981	-0.52065283
12	0xbf944e0b	-1.1586317
13	0x3f07455d	0.52840215
14	0x3f140716	0.5782331
15	0x3f010dcd	0.50411683
16	0x3ee92c33	0.45541534
17	0xbd9cd263	-0.076573156
18	0xbf3dc649	-0.74130684
19	0x3fce001d	1.6093785
20	0xbf875cdf	-1.0575217
21	0x3eba2345	0.36355034
22	0x3fa70210	1.3047504
23	0xbe6d0891	-0.23147799
24	0x3e8331db	0.25623974
25	0xc0192d0f	-2.3933752
26	0xbeff0a8e	-0.4981274
27	0xbdddd69f	-0.10831951
28	0x3f6406cc	0.8907287
29	0x3e8867a5	0.26641575
30	0xbf9c978f	-1.2233752
31	0xbe1045c4	-0.14089113
32	0xbfd2a9f9	-1.6458122
33	0xbe8edff1	-0.2790523
34	0xbf9d5987	-1.2292947
35	0x3fc4ee78	1.5385275
36	0xbee56493	-0.44803295
37	0x3d63beb6	0.055601798
38	0x3fc993f1	1.5748273
39	0xbff012c7	-1.875573
40	0xbf39b428	-0.7254052
41	0x3f57e1e5	0.8432906
42	0xbf182483	-0.5943071
43	0xbf00290b	-0.50062627
44	0xbeb9d888	-0.36298013
45	0x3fd4c9bc	1.6624064
46	0xbe2b7e63	-0.16747431
47	0x3fb14480	1.384903
48	0x3fd5850f	1.6681231
49	0xbeb6048c	-0.35550344
50	0x3f1710bb	0.59009904
51	0xbf3116da	-0.69175494
52	0xbddaa28c	-0.106755346
53	0xbf08ab3a	-0.5338627
54	0xbf25f65d	-0.64829046
55	0x3d032ccf	0.032025155
56	0xbf421847	-0.75818294
57	0x4007104f	2.1103704
58	0xbf299192	-0.6623775
59	0xbf5c4e0c	-0.8605659
60	0x3ec81d88	0.3908503
61	0x3f269ee3	0.6508619
62	0x401ea802	2.4790044
63	0x3f38780d	0.7205818
64	0x3d8385de	0.064220175
65	0x3f994b8c	1.197618
66	0xbf12937d	-0.572563
67	0x3ffb60f1	1.9638959
68	0x3f764ac7	0.9620785
69	0xbe206e72	-0.15667132
70	0xbe1f2bf1	-0.15544106
71	0x3fb68200	1.4258423
72	0xbdda91b1	-0.1067232
73	0xbee71f68	-0.4514115
74	0xbfc6f887	-1.5544595
75	0x3f7f70af	0.99781317
76	0xbd98a1b9	-0.07452721
77	0x3ecc95d9	0.39958075
78	0xbf20af53	-0.62767524
79	0x3e1b6881	0.15176584
80	0xbeeae0e0	-0.4587469
81	0x3f2bfe7b	0.6718518
82	0xbfd16d7e	-1.6361539
83	0x3dd32575	0.10309879
84	0x3f561917	0.83632034
85	0x40386be2	2.8815846
86	0xbf730870	-0.9493475
87	0xbf0cfd20	-0.5507374
88	0xbec03208	-0.3753817
89	0xbfbe37e9	-1.4860812
90	0xbf9686d9	-1.1759902
91	0x4020f018	2.5146542
92	0x3f734e44	0.950413
93	0x3f1b40c6	0.6064571
94	0x3f6e703b	0.9314
95	0x3e495c19	0.19664039

u.2.learn_args.0 f4 [4, 4, 5]
0	0xbe7fa461	-0.2496505
1	0x3f2c1e37	0.67233604
2	0xbe6aa289	-0.22913565
3	0x3f0d7b00	0.5526581
4	0x3f051e22	0.51999104
5	0xbf954d4d	-1.1664215
6	0xbf4f1114	-0.80885434
7	0xbefad6a5	-0.48991886
8	0xbf4ba5c5	-0.7954982
9	0x3ec8aa95	0.39192644
10	0xbf24f67f	-0.64438623
11	0xbf3143c7	-0.69244045
12	0x3e0cc88f	0.13748382
13	0x3f69175d	0.91051275
14	0xbf874a4d	-1.056955
15	0x3f31bf00	0.6943207
16	0x3d46f0bc	0.048569426
17	0xbeab496e	-0.3345446
18	0x3e65ddd3	0.224479
19	0xbf3a9a46	-0.7289165
20	0x3fe68070	1.8007946
21	0xbf629e4d	-0.885228
22	0x3e7e504f	0.24835323
23	0xbf86a236	-1.0518253
24	0x3e1da7e1	0.15396072
25	0x3eac5e0c	0.33665502
26	0x3f92b678	1.1461935
27	0xbfdf4bcc	-1.7445006
28	0x3f790dd0	0.972867
29	0xbf845a1a	-1.0339997
30	0x3f2667be	0.6500205
31	0x3ee92da7	0.45542642
32	0x3f69ce9b	0.9133088
33	0xbfa0ed03	-1.257233
34	0x3f5f572b	0.8724238
35	0xbface86f	-1.3508433
36	0x3ee7b152	0.45252472
37	0x3e00c0b1	0.12573506
38	0x3f0e3f1b	0.5556504
39	0xbea9352b	-0.33048376
40	0x4015c383	2.340058
41	0xbfc73881	-1.5564119
42	0xbf88cfc1	-1.0688401
43	0xbed8dc46	-0.42355555
44	0x3f1da5d9	0.6158119
45	0x3ac9c44a	0.0015393582
46	0xbd446cfa	-0.04795549
47	0xbc8ba396	-0.017045777
48	0x3f88b095	1.0678889
49	0xbf8e0c41	-1.109749
50	0xbdb9b3be	-0.09067486
51	0xbd41a3ed	-0.047275472
52	0xbe491b6d	-0.19639368
53	0x3f2064d2	0.6265384
54	0x3e041bbc	0.12901205
55	0xbf5ab021	-0.85425
56	0xbfdc1382	-1.7193453
57	0xbef06fb5	-0.46960226
58	0x3fed0c54	1.8519387
59	0x3f8c0b85	1.0941015
60	0xbf92b091	-1.1460134
61	0x40082415	2.1272023
62	0xbf119a5a	-0.56876147
63	0x3f6e6ce1	0.93134886
64	0x3f75386c	0.9578922
65	0x3ed1344d	0.40860215
66	0xbe5dd453	-0.21663027
67	0xbf33d06b	-0.70239896
68	0x3efa3d94	0.48875105
69	0xbfa372db	-1.2769426
70	0x3f38908d	0.72095567
71	0xbd9930b7	-0.07479995
72	0x3f34a9de	0.70571697
73	0xbf2e52c6	-0.6809505
74	0x3f8ae814	1.0852075
75	0xbe14891e	-0.14505431
76	0x3fd774a6	1.6832473
77	0x3fd7fc00	1.6873779
78	0x4004ae84	2.0731516
79	0xbefc4a82	-0.49275595

r.learn_args.0 f4 [1, 11]
0	0xbf3e06d5	-0.74229175
1	0xbfc0cdff	-1.5062865
2	0x3f287e9b	0.65818185
3	0xbf2a7050	-0.66577625
4	0x3f2cd65d	0.6751459
5	0x4011f64c	2.2806578
6	0xbe8d42e1	-0.27590087
7	0x3f4e20a8	0.8051858
8	0xbed72ee1	-0.42027953
9	0xbf81efa8	-1.0151262
10	0x3ea4b82b	0.3217176

r.learn_args.1 f4 [7, 11]
0	0xbff47f3a	-1.9101326
1	0xbfaf0278	-1.3672628
2	0xbd26c1e4	-0.040712252
3	0xc0047627	-2.0697114
4	0x3fa596bf	1.2936629
5	0x3f0cd0a9	0.5500589
6	0x3f63c10e	0.88966453
7	0xbe1c5661	-0.15267326
8	0xbee14374	-0.43996775
9	0xbf9f6324	-1.245213
10	0xc03da0ff	-2.9629514
11	0x3e8e18c6	0.27753276
12	0x3fb68468	1.4259157
13	0x3f3c4ab0	0.73551464
14	0xbec9b0b6	-0.39392632
15	0xbfe96475	-1.8233782
16	0xbf4cd60d	-0.80014116
17	0x3f34c3db	0.7061135
18	0xbfbd5797	-1.4792355
19	0xbe43f74a	-0.19137302
20	0xbefcfcb4	-0.49411547
21	0x3fa364d6	1.2765148
22	0xbe1331f2	-0.14374521
23	0x3eb191b1	0.34681466
24	0xbfbabc14	-1.4588647
25	0xbe93ccd6	-0.28867215
26	0x3f903f2d	1.126928
27	0xbe80a817	-0.25128242
28	0xbfa6e5e8	-1.3038912
29	0xbfbebfc7	-1.4902276
30	0x3fa1a95b	1.2629808
31	0xbd9183c4	-0.071052104
32	0xbfc481e6	-1.5352142
33	0xbf304d47	-0.68867916
34	0xbf99ffa4	-1.203114
35	0x3fd9d2f6	1.7017505
36	0xbdd0573b	-0.10172888
37	0x3f137ac0	0.57609177
38	0x3f1c7080	0.6110916
39	0xbe01fd69	-0.12694325
40	0x3ec3fc67	0.38278505
41	0x3f1c6377	0.6108927
42	0xbf65e34c	-0.8979995
43	0xbe902938	-0.28156447
44	0x3f8bb00d	1.0913101
45	0x3f4dbe81	0.8036881
46	0xbe573f67	-0.2102028
47	0xbf2896cb	-0.6585509
48	0x3f6c1bf2	0.9223014
49	0xbf4a14e7	-0.78938144
50	0x3f98c9da	1.19366
51	0xbe4fba28	-0.20285857
52	0xbfa4705d	-1.284679
53	0x3f34e579	0.7066265
54	0x401ad7fd	2.4194329
55	0x400480c8	2.0703602
56	0x3f0ac629	0.5420862
57	0xbf58f01f	-0.84741396
58	0x3fbe0c01	1.4847413
59	0xbfe519bb	-1.7898477
60	0xbcfe7083	-0.03105951
61	0x3eacf0bd	0.3377742
62	0x3faa881f	1.3322791
63	0xbe6f9952	-0.23398331
64	0xbe67da4e	-0.2264187
65	0x3e765cef	0.24058889
66	0xbf7322ea	-0.9497515
67	0x3ebab2ef	0.3646464
68	0x3f888e05	1.0668341
69	0xbefb0527	-0.49027368
70	0x3ebb5fc5	0.36596504
71	0xbee11c8f	-0.439671
72	0xbf05da26	-0.52285993
73	0xbd5f2f32	-0.05448837
74	0x3e091239	0.13385858
75	0xbf24cfde	-0.6437968
76	0x3f8028d5	1.0012461

r.learn_args.2 f4 [3, 11]
0	0xbf8638a3	-1.0486034
1	0xbfa944ef	-1.3224162
2	0xbf31d6a8	-0.69468164
3	0x3f3e4440	0.7432289
4	0xbf88232c	-1.0635734
5	0xbeb12c32	-0.3460403
6	0xbdee7cf9	-0.116449304
7	0x3f856848	1.0422449
8	0x3e1df5db	0.15425818
9	0xbbb5379a	-0.00553031
10	0x3ea80845	0.3281881
11	0xbe2ba573	-0.16762333
12	0xbe0b0cde	-0.13579127
13	0xbd20e2b5	-0.039278705
14	0xbf338156	-0.70119226
15	0xbf90717f	-1.1284636
16	0xbd549493	-0.051899504
17	0xbf55c8b0	-0.8350935
18	0x3f6de465	0.9292663
19	0x400ba26f	2.1817892
20	0xbe9420fd	-0.28931418
21	0x3f6cfbf4	0.9257195
22	0xbf07d4bc	-0.5305898
23	0x3e689343	0.22712426
24	0x3f0c1b14	0.5472882
25	0xbe324274	-0.17408162
26	0xbee9b31b	-0.4564446
27	0x3f8651c4	1.0493703
28	0xbfef7597	-1.870776
29	0xbfc9c3fe	-1.5762937
30	0x3fa73fbb	1.3066324
31	0xbe97d89f	-0.29657456
32	0x402b461a	2.6761537

r.learn_args.3 f4 [5, 11]
0	0xc0033a44	-2.0504313
1	0x400a1eeb	2.158137
2	0x3f80096f	1.0002879
3	0x3fcd7dd5	1.6054026
4	0x3f898e26	1.0746505
5	0x3e2d9e2c	0.16954869
6	0x3f85cbca	1.0452816
7	0xbef06969	-0.46955422
8	0x3fa1af71	1.2631665
9	0xbeddbdef	-0.4330897
10	0x3e8f886e	0.28033775
11	0xbff111fd	-1.8833615
12	0xbfbc70fe	-1.4721982
13	0x3fb7e8c7	1.4367913
14	0xbf626344	-0.8843272
15	0x3eaa1764	0.3322097
16	0xbfa97cc0	-1.3241196
17	0xbe8f579b	-0.27996525
18	0x3f48e7c7	0.78478664
19	0x3fd5b454	1.6695657
20	0xbec2ff30	-0.38085318
21	0x3d3e6241	0.04648042
22	0xc0294c51	-2.645283
23	0x3fe7386a	1.8064091
24	0x3b5a9379	0.003335206
25	0x3e9d9f4e	0.30785602
26	0x3f37d673	0.718116
27	0x3fc497f6	1.5358875
28	0x3f9f5ad7	1.2449597
29	0x3f0c3b8a	0.5477835
30	0xbf906214	-1.1279931
31	0x3fc6d17e	1.5532682
32	0x3ec665c1	0.38749507
33	0x3f8e8718	1.1134977
34	0x3d548027	0.051880028
35	0xbf0dc03f	-0.5537147
36	0xbf93818f	-1.1523913
37	0xbf1978fd	-0.5995024
38	0x3f38513c	0.71998954
39	0x400b7235	2.1788456
40	0x3fa1abd9	1.2630569
41	0x3fe4fdc3	1.7889942
42	0xbf9c6289	-1.221757
43	0x3f3a3478	0.7273631
44	0x3f1a3e44	0.6025126
45	0x3f5c5ed8	0.8608222
46	0xbe9ae8c3	-0.30255708
47	0x3fd81a3c	1.6883006
48	0x3f0f373c	0.55943656
49	0xc0326904	-2.7876596
50	0xbf502a0b	-0.8131415
51	0xbfba191f	-1.4538916
52	0x3fc7f860	1.5622673
53	0x3f932615	1.1495997
54	0x3f938850	1.1525974

r.learn_modules.0.fcs.0.weight f4 [128, 11]
0	0xbd2b0863	-0.041756045
1	0xbe5cc835	-0.21560748
2	0x3e00a82b	0.12564151
3	0xbc8b4037	-0.016998393
4	0xbe8e20be	-0.27759355
5	0xbe0f7bd6	-0.14012083
6	0xbe6414ac	-0.2227351
7	0x3e0d64f2	0.13808039
8	0x3da8ba5d	0.08238671
9	0xbd90c461	-0.07068706
10	0x3e3c02f9	0.18360509
11	0xbe342199	-0.17590941
12	0x3db9a7c7	0.09065204
13	0xbe8440d5	-0.25830713
14	0x3e3c3a13	0.18381529
15	0x3db370aa	0.08761723
16	0xbe96eed5	-0.2947909
17	0x3e8adc72	0.2712131
18	0x3d943b45	0.07237867
19	0xbe0805d5	-0.13283475
20	0x3e868c3f	0.26278874
21	0xbbb575a1	-0.005537704
22	0x3da84939	0.08217091
23	0x3e32734e	0.17426798
24	0x3e8580af	0.2607474
25	0xbe4ad154	-0.19806415
26	0x3e8c0ac5	0.27351967
27	0xbe01bd1b	-0.12669794
28	0x3e139d68	0.14415514
29	0xbd9fe303	-0.07806971
30	0xbd5ea125	-0.0543529
31	0x3e970fe3	0.29504308
32	0xbe958eca	-0.29210502
33	0xbe54aa9b	-0.20768206
34	0xbe25303f	-0.16131686
35	0xbd5f7c1e	-0.054561727
36	0xbe020103	-0.12695698
37	0x3d0c5d1b	0.03426848
38	0xbe228475	-0.15870841
39	0xbe0707c0	-0.1318655
40	0xbe85ac72	-0.26108128
41	0xbe5f82e9	-0.21827282
42	0xbe84891d	-0.2588586
43	0x3bc9428f	0.0061419676
44	0x3def2399	0.116767116
45	0x3e4f9ff2	0.20275858
46	0xbd9e54c6	-0.07731013
47	0x3e77bcbf	0.24193095
48	0x3e725b02	0.23667529
49	0xbde8bad5	-0.113637604
50	0xbe2a23d2	-0.16615227
51	0x3c517210	0.012783542
52	0xbe0c9ce2	-0.13731721
53	0x3e0f247e	0.13978764
54	0xbe7113b5	-0.23542674
55	0x3e71f93e	0.23630235
56	0x3e8fd78f	0.28094146
57	0x3e945959	0.28974417
58	0x3e396e03	0.18108372
59	0x3e8303c1	0.25588802
60	0xbe153960	-0.14572668
61	0x3dab769b	0.083722316
62	0xbe8f128f	-0.27943847
63	0xbe5ffaf6	-0.21873078
64	0xbe597d0f	-0.21239112
65	0x3e806b47	0.25081846
66	0xbdfd5a59	-0.12370748
67	0xbe2f65c7	-0.17128669
68	0xbd8d1beb	-0.068900906
69	0x3e8c2a47	0.27376005
70	0x3dee7f88	0.116454184
71	0x3d5cecb8	0.05393669
72	0xbd734c23	-0.05939878
73	0xbb0a2409	-0.0021078608
74	0xbe3d1076	-0.1846331
75	0xbe4df298	-0.20112073
76	0xbc342d9a	-0.0109972
77	0x3d69c230	0.057069957
78	0xbe8bfa86	-0.27339572
79	0xbe23efc2	-0.16009429
80	0x3e39180b	0.18075578
81	0xbe3c91a1	-0.18414928
82	0x3e2cf17b	0.16888992
83	0x3e308dae	0.17241547
84	0xbcdfd56c	-0.027323447
85	0x3df369a8	0.11885387
86	0xbe1b5338	-0.15168464
87	0x3e8e141c	0.27749717
88	0x3e06861f	0.131371
89	0x3e87768d	0.26457635
90	0xbe3bc559	-0.18337001
91	0x3d5e9f25	0.05435099
92	0x3c37b4e4	0.011212561
93	0x3e5894ea	0.21150556
94	0x3e42e4a6	0.19032535
95	0x3e46acc5	0.19401844
96	0xbd58eb62	-0.052958854
97	0x3dfe025e	0.12402795
98	0xbe10c59d	-0.14137883
99	0x3d565a29	0.052332077
100	0x3d26f4c7	0.04076078
101	0xbd17efde	-0.03709399
102	0xbe89c94a	-0.26911384
103	0xbe2c0a93	-0.16800909
104	0xbe6d8dd7	-0.23198639
105	0xbe57e2e6	-0.21082649
106	0x3e5cf015	0.21575959
107	0x3dc4da2c	0.096119255
108	0xbd9a762d	-0.075420715
109	0xbe7b9869	-0.24569859
110	0xbe6a2ccb	-0.2286865
111	0xbe97dee6	-0.29662246
112	0xbe7370d5	-0.23773511
113	0x3e8dce30	0.2769637
114	0x3e9820b3	0.29712448
115	0xbe4051dd	-0.18781228
116	0xbdc0952d	-0.09403453
117	0xbbe35957	-0.0069381404
118	0x3df81139	0.1211266
119	0x3e308ec4	0.17241961
120	0xbe93751f	-0.28800294
121	0x3e5862cc	0.21131438
122	0xbe1c34c8	-0.1525451
123	0x3e9624d6	0.2932498
124	0x3d9f192c	0.07768473
125	0x3e5c3a5f	0.21506642
126	0xbe9a0ac6	-0.30086344
127	0xbdc3ad74	-0.09554568
128	0x3d90d43a	0.07071729
129	0x3e63f1d1	0.22260214
130	0x3e4b26ee	0.19839069
131	0xbb9fafd0	-0.0048732534
132	0xbd2cacae	-0.042156868
133	0xbe833daa	-0.25632983
134	0xbd8ac824	-0.06776455
135	0x3e8407ec	0.25787294
136	0x3c955696	0.018229764
137	0x3e9773b8	0.29580474
138	0xbdf4b57e	-0.119486794
139	0x3d2dc015	0.04241951
140	0x3e9749f2	0.29548603
141	0xbdce0dcd	-0.10061226
142	0xbdd560f0	-0.1041888
143	0x3d75490e	0.059884124
144	0xbe48757a	-0.19576064
145	0x3e21bd7f	0.15794943
146	0x3c8694cc	0.016428374
147	0x3e310930	0.17288661
148	0xbe93c6a0	-0.28862476
149	0x3c0df3a8	0.008664049
150	0xbe9140af	-0.28369662
151	0x3e8c9430	0.27456808
152	0x3e99d3ba	0.30044347
153	0x3d9eed8c	0.07760152
154	0xbd4ae2f5	-0.04953285
155	0x3dfb9570	0.12284362
156	0x3e239947	0.1597644
157	0xbe22381e	-0.1584172
158	0xbe1d4a20	-0.15360308
159	0x3e6064b5	0.21913417
160	0x3c3240da	0.01087972
161	0x3d9ba492	0.07599749
162	0xbdbb1fed	-0.09136949
163	0xbe44a98f	-0.19205306
164	0xbe3f6053	-0.18689089
165	0x3e3e9f22	0.18615392
166	0xbdc8763b	-0.09788176
167	0xbd12dbf1	-0.035854284
168	0x3da38c90	0.079857945
169	0x3e8cda4d	0.275103
170	0xbdc3ecb7	-0.09566634
171	0x3da95a21	0.08269144
172	0xbe7912ff	-0.24323653
173	0xbe9142fe	-0.28371423
174	0x3e537177	0.20648752
175	0x3da11bde	0.07866643
176	0xbe1e978e	-0.15487501
177	0xbded4a8f	-0.115864865
178	0xbd0e598a	-0.03475336
179	0x3e18522e	0.14875099
180	0xbdf5c340	-0.120001316
181	0x3e94310b	0.28943667
182	0xbdc00672	-0.09376229
183	0xbdebde71	-0.11517037
184	0xbe5e45cd	-0.21706314
185	0x3c6458fa	0.013937229
186	0xbe90e84a	-0.28302222
187	0x3e71c9c7	0.23612128
188	0xbd81c3e8	-0.06336194
189	0xbdbd3d5e	-0.092402205
190	0xbd82fb42	-0.0639558
191	0x3d750074	0.059814885
192	0x3e3dbc45	0.1852885
193	0xbe95c3b7	-0.2925088
194	0xbdc89303	-0.09793665
195	0x3dbe76aa	0.09299977
196	0xbdb35be2	-0.0875776
197	0xbc97a721	-0.01851231
198	0xbe26be84	-0.16283613
199	0xbc25b658	-0.010114275
200	0xbd8f6896	-0.0700237
201	0x3df703d3	0.12061276
202	0x3dec8261	0.11548305
203	0xbe82740b	-0.2547916
204	0x3956ca05	0.00020483889
205	0x3de324a1	0.11090971
206	0x3e5c6d48	0.21526062
207	0xbe48093e	-0.19534776
208	0xbe8f8098	-0.28027797
209	0x3d5dd230	0.05415553
210	0xbd37ee33	-0.0449049
211	0x3d88fb0c	0.066885084
212	0x3e5aa60f	0.21352409
213	0xbe19b218	-0.15009344
214	0x3e98ed80	0.29868698
215	0x3dafad0d	0.08577929
216	0xbd773059	-0.060348842
217	0xbcb99354	-0.02265326
218	0xbe0e2da7	-0.13884602
219	0x3dc94433	0.09827461
220	0x3d0bfd0d	0.034176875
221	0x3e5a50e2	0.21319917
222	0xbc4ace5c	-0.0123783015
223	0x3cf6e78f	0.030139713
224	0xbe5bbc67	-0.21458589
225	0x3e254517	0.16139637
226	0x3dbff8e2	0.093736425
227	0x3da3a0bf	0.07989644
228	0x3e30c1c1	0.17261411
229	0xbe078af3	-0.13236599
230	0xbc5894c4	-0.013219062
231	0xbe97beff	-0.29637906
232	0x3cb8492e	0.022495832
233	0x3e297010	0.16546655
234	0x3e460316	0.19337115
235	0xbbb512a8	-0.0055259056
236	0xbe97300e	-0.2952885
237	0x3e7c3ae1	0.24631836
238	0xbcea3388	-0.028589025
239	0x3dd59355	0.10428492
240	0x3e33e339	0.17567147
241	0x3e157366	0.14594802
242	0x3e4be3d6	0.19911131
243	0xbe64fe20	-0.22362566
244	0xbe5e7c4e	-0.21727106
245	0x3e4d5a70	0.2005403
246	0xbc2f1031	-0.010685013
247	0x3e334d4a	0.17509952
248	0xbe70a3b9	-0.23499955
249	0x3e724b9b	0.23661654
250	0x3e834419	0.25637892
251	0x3e24c1bf	0.16089533
252	0x3e1e9619	0.15486945
253	0xbd7fb8ff	-0.062432285
254	0xbd5c9008	-0.053848296
255	0xbe89d1e1	-0.26917937

r.learn_modules.0.fcs.0.bias f4 [128]
0	0x3d0413d2	0.032245465
1	0x3e6cca7b	0.23124115
2	0xbe540d9f	-0.20708321
3	0x3e7abcf5	0.24486144
4	0xbe2c70df	-0.16839932
5	0xbb663c0b	-0.0035131003
6	0xbd4e42b1	-0.05035657
7	0x3e914989	0.28376415
8	0x3e98be8b	0.29832873
9	0x3cb5e387	0.02220322
10	0xbe83cab0	-0.25740576
11	0x3bf8165a	0.007571024
12	0x3d4895ca	0.048970975
13	0x3e772f06	0.24139032
14	0x3de2e75f	0.11079287
15	0xbddb6a13	-0.107135914
16	0x3e035c44	0.12828165
17	0x3e8392d5	0.2569796
18	0x3e6293c3	0.22126679
19	0xbdf65932	-0.120287314
20	0xbe3ff45c	-0.1874556
21	0x3e125195	0.14288934
22	0x3e175563	0.14778666
23	0x3e364d3e	0.17802903
24	0x3c1996de	0.009374348
25	0xbe8f07f9	-0.2793577
26	0x3e47731a	0.19477502
27	0x3d7ebe2f	0.062193092
28	0xbe134119	-0.14380302
29	0x3e872b78	0.26400352
30	0xbe8e321b	-0.27772602
31	0xbe2f36aa	-0.17110696
32	0x3d16fc19	0.036861513
33	0x3e88d44a	0.26724464
34	0xbe47a60e	-0.19496939
35	0x3e8e5435	0.2779862
36	0x3e191ba5	0.14951952
37	0xbe5d83b0	-0.21632266
38	0x3e876086	0.2644083
39	0xbe69427c	-0.22779268
40	0x3e461355	0.19343312
41	0x3e2267cc	0.15859908
42	0xbe8a521c	-0.2701577
43	0xbe0a5963	-0.13510661
44	0x3e503edf	0.20336483
45	0x3e7a91fe	0.24469754
46	0x3e7f8d29	0.24956192
47	0x3e90ec96	0.283055
48	0xbda0b9d5	-0.07847945
49	0x3e8c03f9	0.2734678
50	0xbd210533	-0.0393116
51	0x3e270373	0.1630991
52	0xbd6b3db1	-0.05743188
53	0x3e710cad	0.23539992
54	0xbda1a6a7	-0.078931145
55	0x3e1e1550	0.15437818
56	0xbe2dcbac	-0.16972226
57	0x3d3da4f1	0.04629988
58	0xbe58753a	-0.21138468
59	0xbc7b9acd	-0.015356732
60	0x3dc1cb2b	0.09462579
61	0x3e244baf	0.16044496
62	0x3e7820f9	0.24231328
63	0x3e2d79e6	0.16941032
64	0xbdfa2e1a	-0.122158244
65	0xbe45cee0	-0.19317198
66	0x3d39388e	0.04521995
67	0x3ca74688	0.020419374
68	0x3e52dbb7	0.20591627
69	0xbe51d170	-0.2049005
70	0xbe5e2487	-0.21693622
71	0x3e7aed0f	0.24504493
72	0xbdcab1f9	-0.09897227
73	0x3e53e291	0.20691897
74	0x3e78495d	0.24246736
75	0x3e8a158e	0.2696957
76	0x3e467ea1	0.19384243
77	0xbd73d1c0	-0.059526205
78	0x3dca29ef	0.098712794
79	0xbe93c4f7	-0.2886121
80	0x3e57f67e	0.21090123
81	0x3c5b833c	0.013397988
82	0xbe879d70	-0.26487303
83	0xbe2253fb	-0.15852349
84	0x3e095688	0.13411915
85	0xbe6785f3	-0.22609691
86	0xbe1d14da	-0.15339985
87	0x3d6a049c	0.057133302
88	0x3dfe184d	0.12406979
89	0xbe31137d	-0.1729259
90	0xbda1fb7f	-0.07909297
91	0x3e67eff1	0.22650124
92	0xbd94855b	-0.07251998
93	0xbdc4da8d	-0.09611998
94	0x3e3eb96e	0.18625423
95	0x3e8da6ae	0.2766623
96	0xbdda3b2d	-0.10655818
97	0xbd4600a8	-0.04834047
98	0x3e38e185	0.18054779
99	0xbe2fc669	-0.17165531
100	0xbe18cf4b	-0.14922826
101	0xbdcead86	-0.10091691
102	0x3de61c1a	0.11235829
103	0x3e9a0ae4	0.30086434
104	0x3e2d1676	0.169031
105	0x3e420d8b	0.18950479
106	0xbe0c7123	-0.13715033
107	0xbda03cbb	-0.078240834
108	0x3e85e743	0.26153
109	0x3e4e3489	0.20137228
110	0x3e42ac78	0.19011104
111	0xbe981d51	-0.29709867
112	0xbe295fa1	-0.16540386
113	0x3e300c8d	0.17192288
114	0xbe6ae726	-0.22939739
115	0x3da3c1a1	0.07995916
116	0xbe82889c	-0.2549485
117	0xbe409f88	-0.18810856
118	0x3dce6c80	0.100792885
119	0xbbf7c29f	-0.0075610424
120	0x3e506027	0.20349179
121	0xbe95e517	-0.29276344
122	0xbe7931a4	-0.24335343
123	0xbdc7af2c	-0.09750208
124	0x3e59d319	0.21271934
125	0x3da3e220	0.08002114
126	0x3df3cad5	0.119039215
127	0x3d5504bd	0.052006472

r.learn_modules.0.fcs.1.weight f4 [256, 128]
0	0xbd38ea23	-0.045145165
1	0xbcd93e88	-0.026519075
2	0xbc48c28e	-0.012253417
3	0x3cb1b66f	0.021693436
4	0xbd5d7161	-0.054063205
5	0x3ca34904	0.019932278
6	0xbba07ecc	-0.004897928
7	0x3d7c11e4	0.0615405
8	0x3d93626c	0.07196507
9	0x3daf3551	0.08555091
10	0xbbee96e9	-0.0072811735
11	0x3cc64c8b	0.02420642
12	0xbaa773ce	-0.0012775601
13	0x3d3c875a	0.04602752
14	0x3da12615	0.07868592
15	0x3d63ecbd	0.055645693
16	0xbd8ac635	-0.06776086
17	0xbaeee711	-0.0018226822
18	0xbd22e3a8	-0.03976789
19	0x3d9ff6f9	0.07810778
20	0x3c0d3551	0.008618669
21	0x3db2977b	0.08720299
22	0x3c99fc68	0.018797114
23	0x3d8cf974	0.06883517
24	0xbd8fb78f	-0.07017433
25	0xbd0975a2	-0.03355945
26	0xbcaa0b99	-0.020757483
27	0xbd6d8e06	-0.057996772
28	0x3d0c532e	0.034259014
29	0xbd563112	-0.05229289
30	0xbd8fd4c7	-0.07023006
31	0xbd16dc3a	-0.03683112
32	0x3d28605e	0.041107528
33	0x3d83210a	0.06402786
34	0xbc7e8493	-0.015534538
35	0xbb272c65	-0.002550864
36	0xbc6bcea2	-0.014392527
37	0xbda97686	-0.0827456
38	0x3d5fa96b	0.05460493
39	0x3dacbb45	0.08434156
40	0x3d9767aa	0.07392819
41	0x3c68da1b	0.014212157
42	0xbd86a114	-0.06573692
43	0xbd6b9472	-0.057514615
44	0x3cda54f9	0.026651846
45	0x3c98b5e2	0.018641416
46	0x3d997020	0.07492089
47	0x3d14e6c8	0.036352903
48	0xbc5030f5	-0.012706985
49	0x3b70484f	0.0036664193
50	0xbb85f4d2	-0.0040880227
51	0x3d26d92e	0.040734462
52	0x3bf77212	0.00755144
53	0xbc45f265	-0.012081717
54	0x3d86b214	0.065769345
55	0x3db27724	0.087141305
56	0x3d39faa9	0.045405064
57	0x3d6b22a4	0.057406083
58	0x3ce5eb26	0.02806623
59	0x3d63303a	0.055465914
60	0xbd11e99a	-0.03562317
61	0xbd31cc13	-0.04340751
62	0x3c15ee93	0.009151119
63	0xbd9d0a84	-0.07668021
64	0xbd59e211	-0.05319411
65	0x3d16f2a4	0.036852494
66	0x3d86abee	0.06575762
67	0x3c9f977a	0.01948141
68	0x3d73973c	0.0594704
69	0x3daf1f69	0.08550913
70	0xbca58e6f	-0.02020952
71	0x3d510c1a	0.05103693
72	0xbd85dcda	-0.06536265
73	0xbdaad824	-0.08342007
74	0xbd89d86f	-0.067307346
75	0x3d085584	0.03328468
76	0xbd756a62	-0.059915908
77	0x3d4f499f	0.05060732
78	0xbd1901d6	-0.037355267
79	0xbd6fd91d	-0.058556665
80	0xbdacdc18	-0.08440417
81	0x3d37a5ed	0.044835974
82	0x3d8a5b35	0.067556776
83	0xbca03efa	-0.01956128
84	0x3d0bedad	0.034162212
85	0xbd02302a	-0.031784214
86	0x3cc9b7ce	0.024623778
87	0xbc421a6d	-0.011847121
88	0xbca59364	-0.020211883
89	0x3d89ce15	0.0672876
90	0x3d9235eb	0.0713919
91	0x3ce77dba	0.028258193
92	0xbca0cebd	-0.01962983
93	0xbd6a84f5	-0.057255704
94	0xbdaac769	-0.08338816
95	0x3ced3be2	0.028959218
96	0x3d4fd62a	0.050741352
97	0x3c4595c7	0.0120596355
98	0x3da8ae67	0.082363896
99	0xbdab3dd1	-0.083614
100	0x3d699346	0.057025217
101	0x3d941dbe	0.07232235
102	0xbd0e94a1	-0.034809712
103	0xbdb01523	-0.085977815
104	0xbd45912d	-0.048234154
105	0x3d052d82	0.032514103
106	0xbdac3572	-0.084086314
107	0xbd7e431e	-0.062075727
108	0x3d4937a8	0.049125344
109	0x3cd871ee	0.026421513
110	0x3d0ef83e	0.03490471
111	0x3da28335	0.07935182
112	0xbcf48473	-0.029848313
113	0xbd81f459	-0.06345434
114	0x3d27bfd8	0.04095444
115	0x3d852489	0.06501109
116	0x3d967def	0.07348239
117	0xbc2cc2a8	-0.010544457
118	0x3acb51c7	0.0015512042
119	0xbbe6663a	-0.0070312293
120	0xbd9838e6	-0.074327275
121	0x3d7e8f04	0.06214811
122	0xbd1d9fab	-0.03848235
123	0xbdb4db1e	-0.08830856
124	0xbd01bcac	-0.031674072
125	0x3d822124	0.06353977
126	0x3d7c0e0a	0.061536826
127	0xbbc9d6ae	-0.006159625
128	0xbd37a174	-0.044831708
129	0x3d8147a4	0.063124925
130	0x3dac8fa4	0.08425835
131	0x3cca64c9	0.024706261
132	0x3c9a4a4d	0.018834257
133	0x3b3bad41	0.0028637203
134	0xbce030f6	-0.027367096
135	0xbccabb02	-0.024747375
136	0x3d26bbd6	0.040706478
137	0x3c56a6fe	0.0131013375
138	0x3daec0a5	0.08532838
139	0xbda51e6b	-0.080624424
140	0xbd69e8a4	-0.05710663
141	0x3d99cd49	0.07509858
142	0xbb2a7f94	-0.0026015984
143	0xbd94a596	-0.072581455
144	0x3dacbffe	0.08435057
145	0xbc68b0e2	-0.014202328
146	0xbcfa9312	-0.030587707
147	0xbcb885e4	-0.022524782
148	0x3d855f49	0.06512315
149	0x3bbdaeb4	0.0057886485
150	0xbd7d232d	-0.061801124
151	0x3d862603	0.06550219
152	0xb9c00ff6	-0.00036632986
153	0xbbf002b8	-0.007324543
154	0x3c42994f	0.011877372
155	0xbc6bde3c	-0.0143962465
156	0xbd5dec13	-0.054180216
157	0x3bacffb0	0.0052795038
158	0xbd4c1c7c	-0.049831852
159	0x3d2325c2	0.03983093
160	0x3d32b3e0	0.043628573
161	0xbcd9ee59	-0.02660291
162	0x3d3f8066	0.04675331
163	0x3b62d69d	0.0034612783
164	0xbc424ec0	-0.011859596
165	0xbd1b0404	-0.037845626
166	0xb9660aae	-0.00021938488
167	0x3d3b1bf4	0.045680955
168	0xbd2b6292	-0.04184205
169	0x3d3a4780	0.045478344
170	0x3b87d3cc	0.004145121
171	0xbc2f2cd8	-0.010691844
172	0xbc0ef554	-0.008725483
173	0xbc8007b9	-0.015628682
174	0x3d134516	0.035954557
175	0x3d631fe6	0.055450343
176	0xbd6cb6f1	-0.057791654
177	0xbd5747ea	-0.052558817
178	0xbd20b97e	-0.0392394
179	0xbd47427f	-0.0486474
180	0x3d8536f4	0.06504622
181	0x3d90db72	0.07073106
182	0xbdaa4608	-0.08314139
183	0xbdb2ca52	-0.08729996
184	0xbd78eae2	-0.060770877
185	0x3d46a508	0.04849723
186	0xbd5988f2	-0.053109117
187	0x3d245026	0.040115498
188	0x3cb8fa85	0.022580395
189	0xbd8e6703	-0.06953242
190	0x3dae4fa6	0.085112855
191	0x3d163abb	0.036677103
192	0x3c77d42f	0.015126272
193	0xbc2e4a21	-0.010637791
194	0x3b69d0c4	0.0035677413
195	0xbd37a89f	-0.044838544
196	0x3d56f3a2	0.05247844
197	0xbce2e3f0	-0.02769658
198	0xbd7b902e	-0.061416797
199	0xbb645f69	-0.0034846908
200	0xbd2a9c70	-0.041653097
201	0x3d72828a	0.059206523
202	0xbd0f277a	-0.034949757
203	0xbcdb34b9	-0.026758539
204	0x39101859	0.0001374198
205	0xbd9f63c2	-0.07782699
206	0x3d072a3d	0.032999266
207	0xbd4fd52b	-0.050740402
208	0xbd3724f5	-0.04471298
209	0xbc875c8a	-0.016523618
210	0xbd0a375e	-0.03374421
211	0xbd1c07ca	-0.038093366
212	0x3c784be8	0.015154816
213	0x3c0148d7	0.0078909015
214	0x3c9dabcc	0.019246958
215	0xbc866190	-0.016403943
216	0xbd66ad0a	-0.056317367
217	0x3d68b529	0.056813393
218	0xbd9d07ad	-0.0766748
219	0x3d33b192	0.043870516
220	0x3cc71c9c	0.024305634
221	0xbd59fc5c	-0.053219184
222	0x3cd52eec	0.02602335
223	0x3b8e4d42	0.004342706
224	0x3d91e3fa	0.07123561
225	0xbd0f954a	-0.035054483
226	0x3c889630	0.016673177
227	0x3b410308	0.002945127
228	0x3d970e10	0.07375729
229	0x3c9b517f	0.018959759
230	0xbb1e8892	-0.002419029
231	0xbd9379ce	-0.07200967
232	0x3d9371e7	0.071994595
233	0x3d30ff97	0.0432125
234	0xbd84737b	-0.06467339
235	0x3c6a2c61	0.014292807
236	0xbd8b438a	-0.067999914
237	0xbce57e8a	-0.02801444
238	0xbdabf828	-0.083969414
239	0x3d8cf0a2	0.068818346
240	0xbdac2a0e	-0.08406459
241	0xbd107a1a	-0.035272695
242	0xbd83b39e	-0.06430744
243	0x3d1bbf7f	0.03802442
244	0x3d7f68c0	0.062355757
245	0xbd51575b	-0.0511087
246	0xbc007a96	-0.007841727
247	0xbd894a3d	-0.06703613
248	0xbd4ea533	-0.050450515
249	0xbd6d7c00	-0.057979584
250	0x3d8bf8cf	0.06834566
251	0x3db1a0bd	0.086732365
252	0xbc51c627	-0.012803591
253	0x3c9672e4	0.018365331
254	0xbc9d007b	-0.019165268
255	0xbd7ee6b8	-0.06223175

r.learn_modules.0.fcs.1.bias f4 [256]
0	0x3db3112a	0.08743508
1	0xbc16ba8d	-0.009199751
2	0xbc186a54	-0.009302694
3	0xbb8f0d18	-0.0043655746
4	0x3cb1254f	0.021624235
5	0xbd4d1baf	-0.05007523
6	0x3d1e72de	0.038683765
7	0xbd9d41e6	-0.07678585
8	0x3d447af7	0.04796883
9	0xbd150c5e	-0.036388747
10	0xbc7cd5b8	-0.015431814
11	0xbd40bd0c	-0.04705529
12	0x3d6ab3d2	0.057300396
13	0x3d9274e6	0.07151203
14	0xbcffd4e6	-0.031229448
15	0xbd3d3503	-0.046193134
16	0x3dad81ce	0.08472024
17	0x3d62d3d1	0.055377785
18	0xbd504c07	-0.050853755
19	0xbd44ae9f	-0.048018094
20	0xbd15e164	-0.036591902
21	0xbcd5dbf5	-0.02610586
22	0x3c7ed6a3	0.015554103
23	0xbd579e80	-0.05264139
24	0x3bc22486	0.005924764
25	0x3d6cb7f1	0.057792608
26	0x3d440349	0.047854695
27	0x3d10e311	0.035372797
28	0xbd6af897	-0.05736598
29	0x3ba1dea8	0.004939873
30	0xbd873a3f	-0.066029064
31	0x3d7fc38e	0.062442355
32	0x3b1c95b5	0.0023892943
33	0xbd5cfcd6	-0.05395206
34	0xbda5a909	-0.080888815
35	0x3cecbf83	0.028899914
36	0xbd78c5f0	-0.060735643
37	0xbcfb1cc7	-0.03065337
38	0x3c13753c	0.009000119
39	0x3dadc87d	0.08485506
40	0xbd91a8e6	-0.07112293
41	0x3d980cbc	0.07424304
42	0x3d930fb6	0.07180731
43	0xbd489f3b	-0.04897998
44	0x3c8c8f24	0.017158099
45	0x3d7bb701	0.061453823
46	0x3c9d81ca	0.019226927
47	0xbd05bb9d	-0.032649625
48	0xbdb32a71	-0.087483294
49	0xbd74cdf8	-0.05976674
50	0xbdae14c2	-0.08500053
51	0x3d9a8ebf	0.07546758
52	0xbd74686b	-0.059669893
53	0xbd02655d	-0.03183495
54	0xbcfd873b	-0.030948272
55	0xbdaf94a5	-0.085732736
56	0x3d03ef54	0.032210663
57	0x3d0736cc	0.033011243
58	0x3c8245b8	0.015902385
59	0xbd810941	-0.06300593
60	0x3ccd1f84	0.025039442
61	0x3d465607	0.048421886
62	0x3d446298	0.04794559
63	0xbcb55c14	-0.022138633
64	0xbd916770	-0.07099807
65	0x3bc1450b	0.005898123
66	0xbc0b3371	-0.008496151
67	0x3d615188	0.055009395
68	0x3b458e99	0.003014481
69	0x3cc8525a	0.02445333
70	0xbcffb643	-0.031214839
71	0x3b0ec711	0.0021786133
72	0xbd7c4700	-0.06159115
73	0x3d9095a8	0.07059795
74	0x3d459277	0.048235383
75	0x3d69fe2c	0.057127163
76	0x3cad0ecd	0.021125222
77	0xba6c09cf	-0.0009004147
78	0x3ca4c844	0.020115025
79	0x3d76cc38	0.060253352
80	0xbd533acf	-0.051569756
81	0xbd8accb3	-0.067773245
82	0xbd7e5188	-0.062089473
83	0xbdacb3a3	-0.084327005
84	0x3c452263	0.012032124
85	0x3d99f386	0.075171515
86	0xbda1dd6a	-0.079035595
87	0xbd55b6dc	-0.05217634
88	0x3d230322	0.03979791
89	0x3d934781	0.07191373
90	0xbbf42b02	-0.007451416
91	0xbd9a5049	-0.075348444
92	0xbccc15bc	-0.024912708
93	0xbd59b340	-0.05314946
94	0xbc8b7d3b	-0.017027488
95	0x3c07e227	0.008293665
96	0x3d211d17	0.039334383
97	0xbdaaca88	-0.08339411
98	0x39d2586d	0.00040120204
99	0xbd19cc90	-0.0375486
100	0x3d84f446	0.06491904
101	0x3da8bd46	0.08239226
102	0xbd85cdd8	-0.06533402
103	0x3a55f1a9	0.00081613153
104	0x3d539324	0.051653996
105	0x3d69d3af	0.057086643
106	0xbd8767fb	-0.066116296
107	0x3d9267ff	0.07148742
108	0x3d885c6c	0.06658253
109	0x3d6461d0	0.055757344
110	0xbd6bc728	-0.057562977
111	0x3d6d8ff7	0.057998624
112	0xbd1a9090	-0.03773552
113	0x3d9dbd3e	0.07702111
114	0x3d217ce4	0.039425746
115	0xbcd64a13	-0.026158368
116	0x3d71ecd5	0.05906375
117	0xbd91ff9e	-0.07128833
118	0xbcc27658	-0.023738071
119	0xbb671198	-0.003525829
120	0x3d80578b	0.062666975
121	0x3b98a0f4	0.004657859
122	0x3ab691df	0.0013928971
123	0x3d4c846b	0.04993097
124	0xbda9766e	-0.08274542
125	0x3ce0fa17	0.027463002
126	0xbd8f5b29	-0.06999809
127	0xbcaf9a51	-0.021435888
128	0x3c968a8a	0.018376607
129	0x3c7de691	0.015496866
130	0x3ce33a56	0.027737778
131	0x3d7bec76	0.061504804
132	0x3da83a62	0.08214261
133	0xbd3f058a	-0.04663614
134	0xbd1fc953	-0.039010357
135	0x3cde164b	0.02711024
136	0x3ce0c90e	0.02743962
137	0xbcdab183	-0.026695972
138	0xbcf4cd53	-0.029883062
139	0x3d99cc6f	0.07509696
140	0x3d775ee0	0.060393214
141	0x3d507082	0.050888546
142	0x3d9e6770	0.07734573
143	0xbd882c03	-0.066490196
144	0xbc8208b1	-0.015873285
145	0xbd30b101	-0.043137554
146	0x3d3c47bb	0.045966845
147	0x3cbb7bc6	0.022886168
148	0xbda9f5fb	-0.0829887
149	0x3baa8854	0.00520424
150	0xbd2bc273	-0.041933488
151	0x3ced260a	0.028948803
152	0x3d8af1c3	0.06784394
153	0x3d08c1da	0.033387996
154	0x3c7f17cf	0.015569641
155	0x3d1e72b0	0.038683593
156	0x3d35552f	0.04427069
157	0xbc85e5d7	-0.016344948
158	0x3d81cf85	0.06338409
159	0x3cc7663d	0.024340743
160	0xbd21f6b0	-0.0395419
161	0xbbf26f9b	-0.0073985583
162	0x3d16cbf9	0.036815617
163	0x3db094c8	0.08622128
164	0xbc0a63af	-0.008446618
165	0x3c9a60cd	0.018844986
166	0x3cadd56f	0.021219937
167	0xbc81436a	-0.015779216
168	0xbc0c056a	-0.008546213
169	0x3d156839	0.036476348
170	0xbd9e9586	-0.07743363
171	0xbd5aca6b	-0.053415697
172	0x3d94ef68	0.072722256
173	0xbc6d12f9	-0.014469855
174	0x3d7f7bb0	0.062373817
175	0x3d883701	0.06651116
176	0xbdac1fe3	-0.084045194
177	0x3d3b14a7	0.045673992
178	0xbd16bc19	-0.036800478
179	0x3d078274	0.033083394
180	0x3d36dc89	0.044643912
181	0xbd937fc6	-0.07202105
182	0x3c09c56d	0.008408886
183	0x3d1153af	0.035480198
184	0xbc3ea19a	-0.0116352085
185	0xbd4aaa07	-0.049478557
186	0x3d03f5d1	0.03221685
187	0x3d1ef98b	0.0388122
188	0x3daf7b69	0.085684605
189	0x3c2b5e56	0.010459503
190	0x3d377597	0.044789877
191	0x3cc17069	0.023613172
192	0xbd83119f	-0.06399845
193	0xbc3602ef	-0.011109098
194	0xbb20559a	-0.0024465085
195	0x3d9985bf	0.07496213
196	0x3d5b07bf	0.053474184
197	0xbd264ef7	-0.04060265
198	0x3cabc4d1	0.020967873
199	0xbd358fa3	-0.044326436
200	0x3a1bd350	0.0005944269
201	0xbd369692	-0.04457719
202	0x3c930b34	0.017949678
203	0xbd71dad9	-0.0590466
204	0xbab07036	-0.0013461176
205	0xbccc3ca0	-0.024931252
206	0x3d61cddc	0.055127963
207	0x3d5d8cc7	0.054089334
208	0xbd6c7bbb	-0.057735186
209	0x3d95b7f4	0.07310477
210	0x3d8ce0af	0.068787925
211	0x3c3cda2c	0.011526626
212	0xbb68cda6	-0.0035522967
213	0x3d7c42eb	0.061587255
214	0x3d7b798b	0.06139521
215	0xbd330fc7	-0.04371622
216	0x3d1917eb	0.037376326
217	0xbc597a45	-0.01327378
218	0x3d1052d9	0.03523526
219	0xbc8acce1	-0.016943397
220	0x3cc438b0	0.023952812
221	0x3d9ed6a1	0.07755781
222	0xbc34c977	-0.011034361
223	0xbd2ded6e	-0.04246276
224	0xbce10963	-0.027470296
225	0xbd855093	-0.06509509
226	0x3d12c722	0.03583444
227	0x3c4a0bf7	0.012331954
228	0xbcffd4c8	-0.031229392
229	0xbd33e7ce	-0.043922238
230	0x3d751f12	0.059844084
231	0x3d5b9bdc	0.053615436
232	0x3cdab621	0.026698174
233	0x3d84b3e3	0.06479623
234	0x3c68eaa5	0.0142161
235	0xbd875ee1	-0.066098936
236	0x3c06353f	0.008191406
237	0xbd6d83a8	-0.057986885
238	0x3d647871	0.055778924
239	0x3d99142b	0.0747455
240	0x3cf93e51	0.030425223
241	0x3d5ff441	0.054676298
242	0x3d1910c4	0.037369505
243	0xbd93dc99	-0.0721981
244	0xbcf09ef7	-0.029372675
245	0xbd3bc08b	-0.04583792
246	0x3daaddfe	0.08343123
247	0xbcaf3293	-0.02138642
248	0xbd0d5716	-0.03450688
249	0x3da46f6b	0.08029064
250	0xbd46e3ad	-0.048556972
251	0x3d067105	0.032822628
252	0x3bfba2bd	0.007679312
253	0xbc9ce514	-0.019152202
254	0xbdaa2112	-0.08307089
255	0xbd3ca223	-0.046053063

r.learn_modules.0.fcs.2.weight f4 [128, 256]
0	0x3d065fea	0.032806315
1	0x3cfdc6e0	0.03097862
2	0xbd3776f2	-0.04479117
3	0x3b18263e	0.0023216153
4	0x3d087b71	0.033320848
5	0xbd3ef8ca	-0.046623982
6	0xbd0a3f41	-0.03375173
7	0xbd35eac2	-0.044413336
8	0x3d42f77c	0.0475993
9	0x3c804ef3	0.015662646
10	0x3d17d394	0.03706701
11	0x3d1c6442	0.03818155
12	0x3d3753b7	0.04475757
13	0xbc5f5d35	-0.013633062
14	0x3d020979	0.031747315
15	0xbc8e4ef0	-0.017371625
16	0x3d472d32	0.048627086
17	0x3d75789c	0.059929475
18	0x3d460cd6	0.048352085
19	0x3d47fe78	0.048826665
20	0x3d1a9d83	0.03774787
21	0x3d19c8dd	0.037545074
22	0xbaf06949	-0.0018341924
23	0xbd51eeb0	-0.05125302
24	0x3c96f4b0	0.018427223
25	0x3d6717b1	0.05641908
26	0xbd1684fc	-0.036747918
27	0xbd705b74	-0.058680966
28	0xbc540503	-0.012940648
29	0xbb353809	-0.0027651808
30	0xbc3b5a90	-0.011435166
31	0x3d69859e	0.057012193
32	0xbd306d88	-0.043073207
33	0x3d042641	0.032263044
34	0x3d4d1419	0.050067995
35	0xbbab50a0	-0.005228117
36	0xbbceeaa0	-0.0063145906
37	0xbd274ca0	-0.04084456
38	0xbd2dc665	-0.042425532
39	0xbd00a25f	-0.03140485
40	0x3cd689b1	0.026188703
41	0x3d3723c6	0.04471185
42	0x3d556f96	0.05210837
43	0x3ca5dda2	0.020247284
44	0xbcdfd258	-0.02732198
45	0x3cc692a4	0.024239846
46	0xbd556089	-0.052094016
47	0x3d0817c0	0.033225775
48	0x3d52345e	0.051319472
49	0x3a1f6300	0.0006080121
50	0xbd3868ac	-0.045021698
51	0x3c57cb5c	0.013171043
52	0x3d791de6	0.06081953
53	0xbb28d1b9	-0.002575977
54	0xbd4cfc42	-0.05004526
55	0x3d3c9dc4	0.046048895
56	0x3c02bea8	0.007980026
57	0xbd11cf46	-0.035598062
58	0x3d7811d4	0.060563877
59	0xbc2df068	-0.010616399
60	0xbd61d09d	-0.05513059
61	0xbcc26a4c	-0.023732327
62	0xbb373584	-0.0027955482
63	0x3d08136e	0.033221655
64	0x3bb31975	0.005465681
65	0xbd3b9fdb	-0.045806747
66	0x3d169a34	0.036768153
67	0x3d12cf01	0.035841946
68	0xbcb17a67	-0.021664811
69	0x3d0767d8	0.033058017
70	0xbd2ab91e	-0.041680448
71	0xbd59810e	-0.05310159
72	0x3cef7440	0.029230237
73	0xbcce034f	-0.025148062
74	0x3d4f7b2a	0.050654568
75	0x3d74dfb7	0.059783664
76	0xbc23de88	-0.010001786
77	0xbd259002	-0.04042054
78	0x396e0400	0.00022698939
79	0x3d4bd2f2	0.04976172
80	0xbc35dc08	-0.011099823
81	0xbd542fab	-0.051803272
82	0xbc3bf078	-0.011470906
83	0xbd3eb2ba	-0.046557166
84	0xbcd28898	-0.025699899
85	0x3d35c46b	0.044376772
86	0x3d0a272f	0.033728775
87	0xbd1eae1a	-0.038740255
88	0xbb367e40	-0.0027846247
89	0x3c9411d0	0.0180749
90	0xbcb0be33	-0.021575069
91	0x3ca7bff0	0.020477265
92	0x3d264a4a	0.04059819
93	0x3d0e4a0c	0.034738585
94	0x3ce8678d	0.02836969
95	0xbce24a8d	-0.02762344
96	0xbba021aa	-0.0048868256
97	0x3d6039ba	0.054742552
98	0x3c0083ae	0.007843895
99	0x3d5311ed	0.051530767
100	0xbd74a120	-0.059723973
101	0x3d21ba15	0.039484102
102	0xba959ad7	-0.0011413944
103	0xbd1548b4	-0.03644629
104	0xbd2d2f97	-0.042281713
105	0x3cae5a7b	0.021283379
106	0xbcb8f93c	-0.022579782
107	0xba4366cc	-0.00074539776
108	0x3d4867bf	0.048927065
109	0x3d6822e2	0.05667389
110	0x3d770319	0.06030569
111	0x3c13f4c8	0.009030528
112	0xbd65778a	-0.056022204
113	0xbd3a7a3d	-0.04552673
114	0x3ae2d411	0.0017305632
115	0xbb334191	-0.0027352313
116	0x3b50557a	0.003178923
117	0x3a614255	0.0008592953
118	0xbd242458	-0.040073723
119	0x3d74666d	0.059667993
120	0xbd419e62	-0.047270186
121	0x3c02f828	0.007993735
122	0xbd07ee33	-0.03318615
123	0x3d7b7a42	0.06139589
124	0xbd76a1a7	-0.060212757
125	0xbce00588	-0.027346388
126	0xbd37f802	-0.044914253
127	0x3d711202	0.058855064
128	0x3d16698b	0.036721747
129	0x3d20ef41	0.03929067
130	0xba9b08f3	-0.0011828229
131	0xbd45d862	-0.04830206
132	0xbb0b0333	-0.0021211624
133	0x3ae28340	0.0017281547
134	0x3cff09f6	0.03113268
135	0xbd5b759f	-0.05357897
136	0x3d266dd1	0.040632073
137	0xbd32b419	-0.043628786
138	0xbd05629a	-0.032564737
139	0xbd72c63a	-0.059271075
140	0x3bc31625	0.0059535676
141	0x3d2dc80a	0.0424271
142	0x3bd4311f	0.0064755823
143	0xbc6f4cf8	-0.014605753
144	0x3c6c7b0a	0.014433632
145	0xbd6dfc89	-0.058102164
146	0x3c3f2714	0.011667032
147	0x3d1a9fa0	0.037749887
148	0xbd1525ae	-0.036412887
149	0x3d2fb25a	0.0428947
150	0xba97f262	-0.0011592621
151	0x3d66500c	0.056228682
152	0xbca7d93c	-0.020489328
153	0xbc2a3f18	-0.010391019
154	0x3c8d41a9	0.017243223
155	0xbcf7892b	-0.030216774
156	0x3d4b4116	0.049622618
157	0x3c9feeac	0.019522987
158	0x3bf1bc70	0.0073772
159	0x3cc59c40	0.024122357
160	0x3ce23598	0.027613446
161	0x3c4beedb	0.012447084
162	0x3bde4b83	0.006783904
163	0x3c5dd0b0	0.0135385245
164	0x3d3d97a0	0.04628718
165	0xbd3803f1	-0.044925634
166	0xbd5f55fa	-0.054525353
167	0xbb196064	-0.00234034
168	0xbd3b671f	-0.04575264
169	0x3d06b442	0.03288675
170	0x3bc28530	0.0059362873
171	0x3cedc70a	0.029025573
172	0xbc064a3c	-0.00819641
173	0x3d23981c	0.039939985
174	0xbd56471a	-0.0523139
175	0xbce81dbc	-0.028334491
176	0x3c244300	0.01002574
177	0x3d5024e9	0.05081645
178	0xbc1457c0	-0.009054124
179	0xbd41156e	-0.047139578
180	0xbc8e794c	-0.017391823
181	0xbbe2bb4d	-0.0069193006
182	0x3c644410	0.013932243
183	0xbd64dafa	-0.055872895
184	0xbd50d150	-0.050980866
185	0x3d40b3ca	0.04704646
186	0xbd341ff5	-0.04397579
187	0x3c934334	0.01797638
188	0xbd0761e8	-0.033052355
189	0x3c995dd0	0.018721491
190	0xbcc71d50	-0.02430597
191	0xbc1b5f50	-0.0094831735
192	0xbd58c44e	-0.052921586
193	0xbb198e20	-0.002343066
194	0x3caef244	0.021355756
195	0x3d66fbd8	0.05639252
196	0xbc9916b9	-0.018687593
197	0x3d2cc81a	0.04218302
198	0x3b185f46	0.0023250147
199	0x3d3c13ae	0.045917206
200	0xbd72bea2	-0.059263833
201	0xbd35e2aa	-0.044405617
202	0xbd5572b2	-0.052111335
203	0xbb9f7ef3	-0.0048674284
204	0x3c2a5940	0.010397255
205	0x3d745580	0.05965185
206	0xbd45d887	-0.0483022
207	0x3d032783	0.032020103
208	0xbd3194b8	-0.04335472
209	0xbd6b6fcb	-0.05747966
210	0xbd2eeff4	-0.042709306
211	0x3b529080	0.0032129586
212	0x3d6d6966	0.057961844
213	0x3d5bbcaf	0.05364674
214	0x3d195fca	0.037444867
215	0x3bbf2e00	0.005834341
216	0x3cd4a846	0.025959145
217	0xbd329123	-0.043595444
218	0xbd07cfa8	-0.03315702
219	0x3c877b58	0.016538307
220	0xbb15c540	-0.0022853166
221	0x3d2e6162	0.04257334
222	0xbcc019e0	-0.023449838
223	0x3cbedd48	0.023298874
224	0xbc5bc909	-0.01341463
225	0x3ce94f78	0.028480276
226	0x3cd17080	0.02556634
227	0x3ccab279	0.024743306
228	0x3d2a50da	0.041581012
229	0x3d232d09	0.03983787
230	0x3d0e826a	0.03479234
231	0x3bb2bb70	0.005454473
232	0xbd603a64	-0.054743186
233	0xbbb5f7a4	-0.0055532027
234	0x3c11e330	0.008904263
235	0xbcd925a6	-0.02650721
236	0xbcdee9d1	-0.027211102
237	0xbcd50583	-0.026003605
238	0x3c9edf92	0.019393716
239	0x3c89b69e	0.016810711
240	0xbcb7261b	-0.022357037
241	0xbcb0d062	-0.02158374
242	0xbd6e45d2	-0.058172055
243	0xbaebd480	-0.0017992407
244	0xbc529c73	-0.012854683
245	0x3c377718	0.011197828
246	0x3cf426b9	0.02980362
247	0xbc11f230	-0.00890784
248	0x3d28e874	0.04123731
249	0xbd68441a	-0.05670557
250	0x3b9c8b70	0.0047773644
251	0x3c4a3613	0.012341994
252	0xbd3b1bd0	-0.04568082
253	0x3cb1874c	0.02167096
254	0x3d40b705	0.04704954
255	0xbc4b44b6	-0.012406519

r.learn_modules.0.fcs.2.bias f4 [128]
0	0xbd4214e7	-0.047383215
1	0x3d4f1359	0.05055556
2	0x3ce2b5c5	0.027674565
3	0xbd0f4a41	-0.034982923
4	0xbd16ec2b	-0.03684632
5	0xbbd98cd7	-0.006639104
6	0x3d485881	0.04891253
7	0xbd548e39	-0.051893447
8	0x3cd6ce49	0.026221411
9	0xbcc88b0e	-0.024480369
10	0x3d299aab	0.04140727
11	0x3cf7fe8b	0.030272743
12	0xbcdb7eec	-0.02679392
13	0xbd21fae2	-0.0395459
14	0xbc1fee40	-0.009761393
15	0x3b71f928	0.003692219
16	0x3a93a63b	0.001126475
17	0xbc0887b2	-0.0083331335
18	0x3c85709d	0.01628905
19	0xb970329e	-0.0002290704
20	0x3d646391	0.055759016
21	0x3d29bf62	0.041442282
22	0x3beba920	0.007191792
23	0x3c17c0df	0.009262293
24	0xbccb8b89	-0.024846809
25	0xbcdab184	-0.026695974
26	0xbc94327a	-0.018090475
27	0x3d17198b	0.036889594
28	0x3cd62778	0.026141867
29	0x3d1927c1	0.037391428
30	0x3d65075a	0.055915214
31	0xbd2ace79	-0.041700814
32	0x3bdf68f0	0.0068179294
33	0xbc455ab3	-0.01204555
34	0xbd41020c	-0.047121093
35	0xbd488002	-0.048950203
36	0x3cb6a4dc	0.022295408
37	0x3c0445e0	0.0080733
38	0x3bd634b3	0.006537044
39	0xbd609442	-0.05482889
40	0xbd6b13ac	-0.057391807
41	0xbd03c73c	-0.032172427
42	0x3cb7abca	0.022420783
43	0x3ad4cba8	0.0016235011
44	0x3d6be5aa	0.05759207
45	0xbd21366e	-0.03935855
46	0x3cc04519	0.023470448
47	0xbd14ec56	-0.0363582
48	0xbbd62060	-0.006534621
49	0xbd349ff6	-0.044097863
50	0x3ba2c4ea	0.0049673216
51	0x3d302cc6	0.04301145
52	0x3cf295d4	0.02961246
53	0xbc68ffc5	-0.014221136
54	0xbc86b88a	-0.016445417
55	0x3cca1730	0.02466926
56	0x3d0e9103	0.034806263
57	0x3c2a1718	0.010381483
58	0xbd392f50	-0.045211136
59	0xbd5684bc	-0.05237268
60	0x3d58d640	0.0529387
61	0xbd24d330	-0.040240467
62	0x3c9ae49c	0.018907838
63	0xbd4995bb	-0.04921506
64	0x3d094015	0.03350838
65	0x3cb9612e	0.022629347
66	0x3d39592c	0.045251057
67	0xbc3a9088	-0.011386998
68	0xbd1d0177	-0.038331475
69	0xbcf15a98	-0.029462144
70	0x3cb79991	0.022412093
71	0xbae0dc9b	-0.0017155589
72	0xbcdd9204	-0.027047165
73	0x3c0d070d	0.008607638
74	0xbcc047a8	-0.023471668
75	0xba312a80	-0.0006758347
76	0xbd60c505	-0.054875392
77	0x3b9933d3	0.0046753674
78	0xbccac40b	-0.024751684
79	0x3d20215a	0.039094307
80	0x3d6ff34e	0.058581643
81	0x3c78f122	0.015194209
82	0xbd1836cf	-0.037161645
83	0x3c85694f	0.016285567
84	0xbd158558	-0.03650412
85	0x3d60bf0e	0.054869704
86	0x3d441b50	0.04787761
87	0xbcf6d2d8	-0.030129835
88	0x3d40c8f9	0.047066662
89	0xbd2df9cc	-0.042474553
90	0x3c858131	0.016296955
91	0xbd4e3aef	-0.050349172
92	0x3d1f617f	0.03891134
93	0xbd7a6cc0	-0.06113887
94	0x3d0dabeb	0.034587782
95	0x3c046e00	0.008082867
96	0xbce1d447	-0.027567042
97	0x3d7c2eb6	0.061567985
98	0x3d8006fc	0.06251332
99	0xbd6bc534	-0.057561114
100	0x3c4f36f0	0.012647375
101	0xbc306c20	-0.0107679665
102	0xbc85f664	-0.01635284
103	0x3d3d2c51	0.04618484
104	0x3d33f3ce	0.043933682
105	0x3b564b70	0.0032698773
106	0xbd60eada	-0.054911472
107	0x3ceb49c8	0.028721705
108	0xbd3d2730	-0.04617995
109	0x3b232540	0.002489403
110	0xbc817fb0	-0.015807956
111	0xbc745e90	-0.014915124
112	0xbcc13a60	-0.023587406
113	0x3c5691d0	0.013096288
114	0xbd5241c2	-0.051332243
115	0xbd76d662	-0.060263045
116	0x3cc0d6d9	0.023539947
117	0x3b3fbb80	0.0029256046
118	0xbc5cecd8	-0.013484202
119	0xbca735b1	-0.020411344
120	0xbc141b00	-0.00903964
121	0xbccfc5ac	-0.025362812
122	0x3d3472db	0.044054847
123	0xbcc38890	-0.023868829
124	0x3d2e039d	0.042483915
125	0xbbfad90b	-0.007655268
126	0x3b9b52ef	0.004740111
127	0xbd1f6f6a	-0.038924612

r.learn_modules.0.fcs.3.weight f4 [1, 128]
0	0xbd71c1d4	-0.05902274
1	0xbdafe5e7	-0.08588772
2	0x3d65377e	0.055961125
3	0xbd01ca7f	-0.031687256
4	0xbdaa9292	-0.08328737
5	0x3d80efff	0.062957756
6	0x3a130191	0.00056078384
7	0x3d86bfc3	0.065795444
8	0x3dab1edf	0.083554976
9	0xbd9335ab	-0.07187971
10	0x3d0cfb0b	0.0344191
11	0x3cffd51a	0.031229544
12	0x3db240d1	0.08703769
13	0x3dae27a0	0.085036516
14	0xbd34890d	-0.044076014
15	0xbdab7009	-0.083709784
16	0x3b8fe0b1	0.004390799
17	0x3c9746c8	0.018466368
18	0x3d9d4017	0.0767824
19	0xbd393fab	-0.045226734
20	0xbdb3fd8c	-0.087885946
21	0xbd55043e	-0.052006
22	0xbcd2160e	-0.025645282
23	0xbcb3900a	-0.02191927
24	0xbda0b594	-0.07847133
25	0xbd50e414	-0.050998762
26	0xbcd7bf84	-0.026336439
27	0xbcd92007	-0.02650453
28	0xbd3ba388	-0.045810252
29	0xbcb5887e	-0.022159811
30	0x3d349b89	0.044093642
31	0x3d7b825d	0.06140362
32	0xbd485548	-0.048909456
33	0x3b823feb	0.003974905
34	0x3b3523b5	0.0027639691
35	0xbcb52c19	-0.022115754
36	0x3c917cd1	0.017759712
37	0x3dad8772	0.084731
38	0xbaced25a	-0.0015779242
39	0x3d657729	0.056021843
40	0xbd4f018b	-0.05053858
41	0xbd429152	-0.04750187
42	0xbd9e0634	-0.07716027
43	0xbd056b06	-0.03257277
44	0x3da1f838	0.07908672
45	0x3d1311d9	0.035905693
46	0xbd59bfcc	-0.053161427
47	0x3ca4cd9d	0.020117575
48	0x3cd3191f	0.025768815
49	0xbcd3abde	-0.025838789
50	0x3d9ab5ec	0.0755423
51	0xbbd737ba	-0.0065679224
52	0xbc0bc291	-0.008530275
53	0xbd8d2094	-0.068909794
54	0xbcede70c	-0.029040836
55	0x3c004956	0.007829985
56	0x3c805d89	0.015669601
57	0x3b7dfff3	0.0038757294
58	0xbd4e6507	-0.050389316
59	0x3b84a180	0.0040475726
60	0x3ca4b2f7	0.020104868
61	0xbcd58536	-0.026064496
62	0xbd19d3fe	-0.037555687
63	0xbd25ebe4	-0.040508166
64	0xbd3b37e6	-0.045707606
65	0xbca6005a	-0.02026384
66	0xbbd1ecf5	-0.0064064213
67	0xbcdc0327	-0.026856972
68	0x3da5cd04	0.08095744
69	0x3d6a5a00	0.057214737
70	0x3ae37cf3	0.0017355963
71	0xbbbecaf6	-0.0058225347
72	0xbbd3b71f	-0.0064610387
73	0x3cb170bc	0.021660201
74	0xbd4374da	-0.04771886
75	0xbc43e32c	-0.011956017
76	0x3d0d675a	0.03452239
77	0x3b052790	0.002031777
78	0xbca220fe	-0.019791123
79	0xbce21730	-0.027598947
80	0xba90f223	-0.001105849
81	0x3d58bfc6	0.052917264
82	0x3cfb55d5	0.030680576
83	0xbdaf1b82	-0.085501686
84	0x3ca6514f	0.020302443
85	0xbd507668	-0.05089417
86	0x3dafe2a5	0.08588151
87	0x3d958386	0.07300477
88	0x3d024621	0.03180516
89	0xbc920961	-0.017826738
90	0xbd8a20ca	-0.06744535
91	0x3c81fb74	0.015866973
92	0x3c8db792	0.017299447
93	0x3c09a883	0.008401993
94	0xbd0d348a	-0.034473933
95	0x3ab8c752	0.0014097488
96	0xbc570d40	-0.013125718
97	0xbbb348e0	-0.005471334
98	0x3c00f8a3	0.00787178
99	0xbc966db5	-0.01836286
100	0x3d9de03b	0.07708784
101	0x3da25f43	0.07928326
102	0x3da7a3fc	0.081855744
103	0x3cc81756	0.02442519
104	0xbd890185	-0.06689743
105	0xbd2aa5a6	-0.04166188
106	0x3ce1a859	0.027546095
107	0xbd345d7a	-0.04403446
108	0xbcff2ee0	-0.031150281
109	0x3d920c74	0.071312815
110	0x3d9b5af0	0.07585704
111	0xbd8765b3	-0.066111945
112	0xbd40dc17	-0.047084894
113	0x3d7c1340	0.061541796
114	0x3cae628f	0.02128723
115	0xbd88a23c	-0.06671569
116	0x3cbb374f	0.022853522
117	0x3c6dcb9e	0.014513878
118	0x3db0359e	0.08603977
119	0x3d44ee7a	0.04807899
120	0xbd9fc753	-0.0780169
121	0x3d3b1deb	0.04568283
122	0x3d31a5ad	0.04337089
123	0xbac17f58	-0.0014762683
124	0x3db56b8a	0.08858402
125	0xbcaab0e3	-0.0208363
126	0x3d9d50ff	0.076814644
127	0xbcf28f66	-0.029609393

exp_avg f4 [1, 11]
0	0xb9ff904d	-0.00048744903
1	0x3ac4601e	0.0014982258
2	0x38925611	6.9778536e-05
3	0x3a2f1a7f	0.00066796684
4	0x37fa18e2	2.981391e-05
5	0xba39617f	-0.0007071718
6	0xb8224144	-3.8684593e-05
7	0x391a38ea	0.00014707787
8	0xba941ff1	-0.0011301023
9	0xb9af3b4c	-0.0003342278
10	0x39954d88	0.0002847726

exp_avg_sq f4 [1, 11]
0	0x31fed776	7.416868e-09
1	0x338a01f6	6.4264825e-08
2	0x2f915ea4	2.6442593e-10
3	0x32463380	1.1536827e-08
4	0x304978c3	7.3294987e-10
5	0x3299aae9	1.7889265e-08
6	0x2f916ec4	2.645405e-10
7	0x309b59cb	1.1303255e-09
8	0x331b31c4	3.613401e-08
9	0x3151159a	3.0425782e-09
10	0x310fa844	2.0904887e-09

exp_avg f4 [7, 11]
0	0x00000000	0.0
1	0x00000000	0.0
2	0x00000000	0.0
3	0x00000000	0.0
4	0x00000000	0.0
5	0x00000000	0.0
6	0x00000000	0.0
7	0x00000000	0.0
8	0x00000000	0.0
9	0x00000000	0.0
10	0x00000000	0.0
11	0x00000000	0.0
12	0x00000000	0.0
13	0x00000000	0.0
14	0x00000000	0.0
15	0x00000000	0.0
16	0x00000000	0.0
17	0x00000000	0.0
18	0x00000000	0.0
19	0x00000000	0.0
20	0x00000000	0.0
21	0x00000000	0.0
22	0x00000000	0.0
23	0x00000000	0.0
24	0x00000000	0.0
25	0x00000000	0.0
26	0x00000000	0.0
27	0x00000000	0.0
28	0x00000000	0.0
29	0x00000000	0.0
30	0x00000000	0.0
31	0x00000000	0.0
32	0x00000000	0.0
33	0x00000000	0.0
34	0x00000000	0.0
35	0x00000000	0.0
36	0x00000000	0.0
37	0x00000000	0.0
38	0x00000000	0.0
39	0x00000000	0.0
40	0x00000000	0.0
41	0x00000000	0.0
42	0x00000000	0.0
43	0x00000000	0.0
44	0x00000000	0.0
45	0x00000000	0.0
46	0x00000000	0.0
47	0x00000000	0.0
48	0x00000000	0.0
49	0x00000000	0.0
50	0x00000000	0.0
51	0x00000000	0.0
52	0x00000000	0.0
53	0x00000000	0.0
54	0x00000000	0.0
55	0x00000000	0.0
56	0x00000000	0.0
57	0x00000000	0.0
58	0x00000000	0.0
59	0x00000000	0.0
60	0x00000000	0.0
61	0x00000000	0.0
62	0x00000000	0.0
63	0x00000000	0.0
64	0x00000000	0.0
65	0x00000000	0.0
66	0x00000000	0.0
67	0x00000000	0.0
68	0x00000000	0.0
69	0x00000000	0.0
70	0x00000000	0.0
71	0x00000000	0.0
72	0x00000000	0.0
73	0x00000000	0.0
74	0x00000000	0.0
75	0x00000000	0.0
76	0x00000000	0.0
