graph_embedding/test_dir/model_best.pth (torch, 826651 bytes, 36 tensors)

u.0.learn_args.0 f4 [2, 2, 7]
00000000: bb36 61be 54b9 3fbf ac1b 0a3e 4299 e5be
00000010: f351 d9be 8514 7c3e d0ce a23e a2c6 2b40
00000020: 928d 0bc0 d930 263d feb0 6c3e 28eb 85be
00000030: afe6 bd3f 237e 3fbf 0f43 9c3f 10a3 aa3e
00000040: dfeb 64bf 19db d3bf 7c95 723f 653f 2fbf
00000050: feeb 203f f0f1 ecbe 21ec bcbe c894 853e
00000060: a303 ca3c 0114 3a3f 3e40 653f 8a66 5e3d
-0.21993534 -0.74892163 0.13487118 -0.4484349 -0.42445335 0.24617203 0.3179841 2.6839986
-2.1805158 0.04057393 0.23114392 -0.26155972 1.4836024 -0.74801844 1.2207965 0.33327532
-0.8942241 -1.6551238 0.94759345 -0.6845611 0.62860096 -0.46278334 -0.36898902 0.26090074
0.024659937 0.72686774 0.8955115 0.054297008

u.1.learn_args.0 f4 [2, 8, 3]
00000000: 8bcc 1d3f a277 f83e 77c0 cf3f 7905 04c0
00000010: c2c5 39bf a663 313f f95e 703e c1be e4bd
00000020: 514e 78be 6f27 7ebf 2ba5 4dbe 1d10 6e3f
00000030: e9c8 5bbf f3a0 c33f 11ed 3abf 02c6 aabf
00000040: a6ec e2bf 1435 5a3f a82b 0abd a3c7 4cbf
00000050: ed4e 8a3b 362b 923d 3b73 bbbf 202e de39
00000060: 841a 183c 2054 5bbf 1e21 95be 3e02 573e
00000070: aec8 243f 3e54 a3bc 3637 a23e 3753 31bf
00000080: cc18 c8be 1836 9e3f 2b9c c83d b75d c93f
00000090: c6b0 6ebe ea0f b63f 3e21 26be 62db 09c0
000000a0: 07a4 d03f ecab 793f cfde 783f 8b12 a5bf
000000b0: 88a3 bfbf 7a54 cb3f 476a 5940 f9d3 d3be
0.6164023 0.48528773 1.6230611 -2.062834 -0.7256738 0.69292676 0.23473729 -0.11169196
-0.24248625 -0.9927892 -0.20082538 0.92993337 -0.8585344 1.5283493 -0.73017985 -1.3341677
-1.7728469 0.8523724 -0.03373304 -0.7999212 0.0042208345 0.07137148 -1.464454 0.00042377505
0.009283666 -0.8567524 -0.2912683 0.20996949 0.6436871 -0.01993763 0.31682748 -0.692676
-0.3908142 1.2360258 0.09795412 1.5731725 -0.23309621 1.4223607 -0.16223618 -2.154015
1.6300057 0.97527957 0.9721498 -1.2896284 -1.4971781 1.5885155 3.3971117 -0.4137266

u.2.learn_args.0 f4 [2, 4, 5]
00000000: c243 82be 17c5 8bbf 0776 28bf b4d5 02be
00000010: cf0a d23f 0485 74bf 21ed 153f 59bf 773f
00000020: bb56 f43e c11b aebf f96d d53e 1168 04bf
00000030: 9b17 663f 7f8e 85bf fbfd 97bf 1840 debf
00000040: 8213 383e 03d5 753f 447f cdbf 8a71 373f
00000050: f874 8f3f 336f fc3e 7510 1940 fad5 38bf
00000060: 98b5 e23f d60b bdbf 76cc 7ebf 76dd 643e
00000070: 485c fdbe a13e 7fbe 59af c23e 1281 bc3f
00000080: 2db0 82bf 1c6c 323e c587 c93e f426 57bf
00000090: e160 9ebe 88b2 7e3f 9c0b c3be c29d d0be
-0.2544232 -1.0919522 -0.65805095 -0.12776834 1.6409549 -0.95515466 0.58564955 0.9677635
0.4772242 -1.360222 0.41685465 -0.5172129 0.8987977 -1.0434111 -1.1874384 -1.736331
0.17976192 0.96028155 -1.6054463 0.7165762 1.1207571 0.49303588 2.3916295 -0.722015
1.7711668 -1.4769237 -0.9953073 0.22350106 -0.49484468 -0.24926235 0.38024405 1.4726889
-1.0210015 0.17424053 0.39361396 -0.8404381 -0.30933288 0.9949117 -0.38094795 -0.4074536

r.learn_args.0 f4 [1, 11]
00000000: b9fe 853f 1cf6 c33f e549 8abe f3af e23c
00000010: de6e 4bbd ffed b23f c307 53bf 5a0d 253f
00000020: adcf 80bd fde3 bf3f 6263 8fbf
1.046836 1.5309482 -0.27009502 0.02767179 -0.049666278 1.3978881 -0.8243372 0.644735
-0.06289611 1.4991452 -1.1202204

r.learn_args.1 f4 [7, 11]
00000000: 5e51 2dbf ddb8 bc3f bfbc b73f c11c 3b3f
00000010: 51cf dfbe f3be 893f b265 5abf a81c d43e
00000020: 13bf db3e bcf4 edbf 02de f5be 81bc bc3f
00000030: 0446 e8bb f74f a53e d0c1 223f ee30 debc
00000040: 5cda 5dbf 159c cbbf a222 bebd a428 e63e
00000050: d529 babf 22d8 763e 4c0e 143e c976 3fbf
00000060: 5a32 babe 8ed0 593f 0c6a 593f 6858 73bf
00000070: 5ffb a03d 1da7 6dbe d695 f43e f4fc 62be
00000080: 9e2c b8bd 1abb 08bd 1ae6 8cbe 5856 873e
00000090: a143 053e a2b4 963f de21 153f 4404 72bc
000000a0: fe10 903e c2da 1ebf 3780 c9bd 5283 de3e
000000b0: 8a39 043f 6549 22c0 68cd 68bf 57f7 25bf
000000c0: 10e7 13bd c927 63bb 01ea 4f3e 9a5d 413e
000000d0: 1c1f f33f 9813 923e c228 75bf a99b 0fbe
000000e0: c80b a6bf b273 91be b6a5 993e 1b6a 173f
000000f0: 629c 30bf ba0a a63f 7ff3 6d3d e0a9 81bf
00000100: 3d99 c83c 03e6 c5bd 84c1 4b3d fec3 773f
00000110: dc62 5f3f 7fa5 593f 9fce cfbe b312 e43d
00000120: bdf2 5a3e a6a7 6cbc 5551 c4be 6d17 77bf
00000130: a576 7bbd
-0.6770228 1.4743916 1.4354476 0.7309075 -0.43712857 1.0761398 -0.85311425 0.41428113
0.42919216 -1.8590312 -0.4802094 1.4745027 -0.0070884246 0.3228757 0.63576984 -0.02712294
-0.86661315 -1.5907007 -0.092839494 0.4495288 -1.4544016 0.24105886 0.14458579 -0.74790627
-0.3636654 0.85083854 0.8492744 -0.9505677 0.07860445 -0.2320828 0.47770566 -0.22166806
-0.08992885 -0.03338156 -0.27519304 0.26433063 0.1301408 1.1773875 0.582548 -0.014771525
0.28137964 -0.6205255 -0.09838908 0.43459564 0.516503 -2.5357296 -0.90938425 -0.64830536
-0.03610903 -0.0034661165 0.20304109 0.18883362 1.8993869 0.28530574 -0.95765316 -0.14024223
-1.2972345 -0.2840858 0.3000924 0.5914628 -0.6898862 1.2972023 0.058093544 -1.0129967
0.024487132 -0.09663012 0.049745098 0.96783435 0.8726022 0.8501815 -0.40587327 0.11136379
0.2138166 -0.014444267 -0.383433 -0.9652012 -0.061392445

r.learn_args.2 f4 [3, 11]
00000000: cf3c 05bf 2d96 03be 9898 8c3f c26a d6bf
00000010: 797c b1bd 30f3 6a3f f659 38c0 ff9c cdbf
00000020: fd86 573f f631 52be add5 023f 9c9c 9e3e
00000030: 6f7c 863f 55d6 a0bf 90a7 c4bf d933 ebbe
00000040: 32c4 79be 360f 48bf 0cc2 5f3f f9bb 813f
00000050: 16a8 97bf 9ad9 1a40 3ff3 71bf 72b9 d93f
00000060: 3a80 943f 60e4 7cbf 431a 473f 94d2 803d
00000070: f3d7 8abf f51e 293f 2ff4 af3e 4775 69bd
00000080: 8355 c8be
-0.5204591 -0.12850256 1.0984068 -1.675133 -0.086663194 0.91777325 -2.8804908 -1.6063536
0.8419035 -0.20526871 0.51107293 0.30978858 1.0506724 -1.2565409 -1.5363636 -0.45937994
-0.24391249 -0.7814821 0.8740547 1.013549 -1.1848171 2.4195313 -0.9451179 1.7009718
1.1601632 -0.9878597 0.7777445 0.062901646 -1.0847152 0.6606286 0.34365985 -0.05699661
-0.3912774

r.learn_args.3 f4 [5, 11]
00000000: 6beb 8d3f b9e0 43bf 79c7 84bf e661 ba3e
00000010: 8fa5 3f3d 8f98 973f cace 6fbf 2fc1 fe3f
00000020: 1717 4f3f dff3 763f 7dd0 0940 ae34 60be
00000030: 58d7 65be f317 6e3f 0094 2ebf 72f7 953e
00000040: d6a3 52bf 0916 2b3e bb30 84bf e96a 213f
00000050: 2542 58bd c6bb e53f 2329 3b3f 450e a5be
00000060: b401 2bbf 57a3 153f b4ef cf3f beb8 d1be
00000070: 341b 5d3f 0de2 cabf 83a4 9fbd 12db 7b3f
00000080: 374a 9bbf 2a08 b23f 66aa 6abe adf4 993f
00000090: 0bf4 843d 2036 f6be 505d be3d 8800 91be
000000a0: 48a3 9abf ca54 a0bf 2b82 453f d8c6 883f
000000b0: d4e6 b6bf c40a 65bf ed5b 8fbf 3bb9 aebf
000000c0: 1b6f 20bf 6817 40bf 53a6 733f f108 d33e
000000d0: fa21 b9bf e2a8 8a3f 66c4 e3bb
1.1087469 -0.76514775 -1.0373374 0.36402816 0.04678875 1.1843432 -0.9367491 1.9902705
0.8089461 0.9646587 2.15335 -0.21895096 -0.22445428 0.93005294 -0.6819458 0.29290348
-0.82281244 0.16707624 -1.0327371 0.63053757 -0.052797455 1.7947929 0.73109645 -0.3223745
-0.66799474 0.5845236 1.6245027 -0.4096126 0.86369634 -1.5850235 -0.0779505 0.9838115
-1.2132024 1.3908741 -0.22916564 1.2027794 0.0649186 -0.4808817 0.09295142 -0.28320718
-1.208108 -1.2525876 0.77151746 1.0685682 -1.4289193 -0.8946955 -1.1199929 -1.3650278
-0.62669533 -0.75035715 0.95175666 0.4121776 -1.4463494 1.0832789 -0.0069509028

r.learn_modules.0.fcs.0.weight f4 [128, 11]
00000000: 2dc1 4a3d 6053 963c 08b0 33bd 49d3 1f3e
00000010: 48d0 113e d26e 713e 87bf 9bbd 294e f23d
00000020: cc17 88be cc3a f4bd 87ad 75be 07c4 513e
00000030: cf18 dfbc 0a22 713e dba2 483e e1bb 09be
00000040: 3fa2 5d3e 46b2 0dbe 6ef7 583e a801 f73d
00000050: 6bf8 3fbe 078b 8bbe a15c f23c 22da 78be
00000060: 9077 673e 6299 633e 5dd8 8a3d df16 663e
00000070: 13f8 033e 9111 31be 845d d73d f745 b23b
00000080: cac2 233e 4567 d83c 64e4 bf3d e0b7 033e
00000090: 3375 8f3e a669 43bd aa75 12bd 0e66 82be
000000a0: 36f2 653e 3e6a 7fbd 07de 733e 4a2f 053e
000000b0: cf9e 11be 6915 8d3e 45e0 6abd 19a8 833e
000000c0: 356a 0c3d 3da7 9a3e 261a f1bc bfe0 ce3d
000000d0: 0a9e e23d 6796 253d f6e4 7b3e 8285 6cbe
000000e0: 26e4 22be c85c 3fbe f529 b03c c68d 5ebd
000000f0: 232e 92be 096e 70be 938c 3c3e 7c1f 413e
00000100: 8f30 0d3e feb9 d0bc bd7b 893d bd37 8b3e
00000110: 195d 973e 6c61 68be 3079 ab3d 355b 53bd
00000120: ac87 3f3e 012e aebd a9b0 753d 4b98 e1bd
00000130: 35aa 9a3e d21d 80be a7ed fb3d 1171 47be
00000140: 61ef 173d 4db0 f63d 41b6 98be 7c22 8dbd
00000150: 8267 7dbe 48c9 513e d6b4 56bc 1a24 33be
00000160: 2735 a9bd 2ddb 45be cacd 353e d55e 23be
00000170: d497 693e 7b42 3a3e f162 2e3d b98b 803e
00000180: 8484 fabc f6b1 f33d bf5e a9bd 3b0c 0fbe
00000190: ef44 0fbd 8ba3 77bd 8f24 4cbe 95ba 793e
000001a0: 2be2 30be 6722 5bbe dc06 453d 8a95 d93d
000001b0: dfda 193e a394 6c3e 15ba 8abe 693e 3dbe
000001c0: 07b6 bd3d b07b 493e e491 46bd a638 bb3d
000001d0: bfa3 91bd feb0 2bbe 6538 6e3e 31bb 873e
000001e0: 9360 013e 6617 89be 0b22 fcbd cbc2 2b3e
000001f0: d273 283e ec41 e6bd c891 853e 4166 b6bd
00000200: 2647 953e 0a16 8b3e 1ad1 1abd a79c 3d3e
00000210: 41e1 09bd 4e3d 3cbe 4e08 80be 20c7 84be
00000220: 4970 7cbd ac3f 6c3d 8115 15be 17bd 1bbe
00000230: 6545 7d3e 6ad8 e63d 703c 6fbe a555 36bc
00000240: 8966 4d3e 060c f1bd 65d3 4c3e d5d6 4dbe
00000250: 5958 593e 50b7 2a3d 805a c63b 32c7 373e
00000260: 4fb4 3a3e d97e d63d 4de1 0d3c 027e 713e
00000270: c74e 3ebe a311 60bc 3e31 cabd 1584 7d3e
00000280: 78c8 34be 289a 7fbe 70ea 993d 2943 0dbe
00000290: 35a7 2abe 4abe 283e ae85 26bd c6df 863e
000002a0: c5a6 733c f106 5b3e 3b48 603e e6a3 85be
000002b0: 6ba1 00be ed65 733e e572 883e 068f 46bd
000002c0: ab7c edbd 2f4e d93d 5162 cabd 7367 783e
000002d0: 5510 293e 370c 8fbe fbf4 683e ef59 943e
000002e0: a8be 7cbe 879e 103e a5d8 863e a6fe e7bd
000002f0: a6c5 8abe 3e28 fc3d bab5 5cbe 14cc 0fbe
00000300: 35af d73d 72f0 053e a73e 80be 0a9c 5fbc
00000310: 501d 133e 610b 55be 3f79 913e 5a8d 193d
00000320: 4ef9 95bd 462e 3fbe 2eaa 91be ba69 98be
00000330: 1c0e cf3d f406 3fbd 5116 ca3d e575 7abe
00000340: 1979 d4bc 3d52 1d3e 2932 053d f595 b7bd
00000350: 65a7 093e 1d63 45be f305 903e 4936 783e
00000360: efd1 95be 8f4f 363e 35d4 6bbe 3fd7 c8bd
00000370: 190e 89be 7e9d d7bd 3e27 00be 4753 413a
00000380: c02f 483e 52c7 103d 5ba1 87be 1b6f 2abb
00000390: ae11 793e ff15 1b3e 8558 92be a87e 3b3e
000003a0: 29db 4dbe b564 99be d328 90be b490 04be
000003b0: e1ba d03d 6ff1 643e cb08 28be 7de8 4ebe
000003c0: 580c 563e ddb8 eebd 7063 d63d 2a1e 593e
000003d0: 22d1 913e e4d0 98bd 0be7 bb3d 01a3 953e
000003e0: 9350 813d 6b4d 0b3e d583 553e e3fa 6c3e
000003f0: 5938 6e3d 91a2 c6bc 701f c1bd 8c01 0fbd
0.049500633 0.018350303 -0.04386905 0.15607943 0.14239609 0.23577431 -0.0760489 0.11831314
-0.26580656 -0.11925277 -0.23991977 0.20484935 -0.02723351 0.23548141 0.19593374 -0.13450576
0.21643923 -0.13837537 0.21188137 0.12060863 -0.18747108 -0.27254507 0.029585185 -0.24301961
0.22604203 0.2222648 0.06779549 0.22469662 0.12887602 -0.17291857 0.105158836 0.0054404694
0.15992275 0.02641643 0.09369734 0.12863111 0.28019103 -0.047708176 -0.035756744 -0.25468487
0.22455677 -0.06235718 0.23815165 0.1300632 -0.14220737 0.27555397 -0.057342786 0.25714186
0.034280974 0.30205718 -0.029431414 0.10101461 0.110653 0.040426638 0.2459906 -0.23097804
-0.15907344 -0.18687737 0.021504382 -0.054334424 -0.28550825 -0.23479475 0.18413 0.18859667
0.13788055 -0.025479313 0.06713054 0.27190962 0.29563215 -0.22693413 0.08372724 -0.051600654
0.18704098 -0.08504868 0.05998293 -0.11015376 0.30207983 -0.2502275 0.12301188 -0.19476725
0.037093524 0.120453455 -0.2982655 -0.06891343 -0.24746516 0.20486939 -0.013104638 -0.1749424
-0.08262091 -0.1932189 0.17754284 -0.15954144 0.22811824 0.18189423 0.042574827 0.251066
-0.030580766 0.11899178 -0.082700245 -0.1396951 -0.03497785 -0.0604587 -0.19935821 0.24387582
-0.17273776 -0.21399842 0.048102245 0.106242254 0.15024899 0.23103575 -0.27095094 -0.18480839
0.092632346 0.1967609 -0.048478976 0.09141664 -0.0711131 -0.16766736 0.232637 0.26510003
0.12634496 -0.26775664 -0.12311181 0.16773526 0.16450432 -0.11243042 0.26087785 -0.08906222
0.29155844 0.27165252 -0.03779707 0.1851679 -0.033662084 -0.18382761 -0.25006336 -0.2593317
-0.06163052 0.05767791 -0.14558984 -0.15208851 0.24733503 0.112717465 -0.23362899 -0.011128818
0.20058645 -0.117698714 0.20002516 -0.20101483 0.21225108 0.041678727 0.006053269 0.1794708
0.18232845 0.10473413 0.008659673 0.23583224 -0.18584739 -0.01367608 -0.098726735 0.24757417
-0.17654598 -0.2496115 0.075154185 -0.13795151 -0.16665347 0.1647884 -0.04065483 0.263426
0.014871304 0.21389367 0.21902554 -0.26101607 -0.12561576 0.2376935 0.26650158 -0.04847624
-0.11596044 0.106106155 -0.098820336 0.24258213 0.16510136 -0.27939007 0.22749703 0.28974864
-0.24682105 0.14122973 0.26337162 -0.11327867 -0.2710392 0.12312363 -0.21553698 -0.14042693
0.10531465 0.13080004 -0.250478 -0.013648042 0.1436665 -0.20805122 0.28412816 0.03748832
-0.07322942 -0.18669996 -0.2845015 -0.29768163 0.10110113 -0.04663749 0.09867538 -0.24459036
-0.02593665 0.15363403 0.03251854 -0.08964149 0.13442762 -0.1927609 0.2812954 0.24239458
-0.2926173 0.17803787 -0.2303017 -0.0980668 -0.26768568 -0.10528086 -0.1251497 0.0007374775
0.19549465 0.035346337 -0.26490292 -0.0026006165 0.2432315 0.1514511 -0.2858316 0.18310034
-0.20103134 -0.29959646 -0.28156146 -0.12945825 0.10191894 0.22357725 -0.16409604 -0.20205875
0.20903146 -0.116563536 0.10468185 0.21202913 0.28479868 -0.07461718 0.09174927 0.29225925
0.063141964 0.13603751 0.20851071 0.2314258 0.058159206 -0.02424744 -0.09429824 -0.034913585

r.learn_modules.0.fcs.0.bias f4 [128]
00000000: ca29 0b3e 988c 7ebc d2b3 81be f1f5 8dbe
00000010: eb6a 8abe c020 25be f102 3dbd f255 3f3e
00000020: 32a8 743d 86c7 2a3e 054d 19be 6e29 3abe
00000030: 46f0 17be f253 54be 9c7d 94be 8601 15bd
00000040: c49d 493e 7ce9 6ebe 7107 63bd 60f2 b63d
00000050: ea52 42be 4a06 03be a036 03be bbe7 dcbd
00000060: 45ba 2dbe d8fc 9cbd b17b 47bd 9126 063e
00000070: e09c 5ebd 3f29 4a3e f0d2 533c ec87 513e
00000080: bf41 1c3e c106 423e 56fb 30bd 2e7c b03d
00000090: 6245 8dbe 1097 41be 310a 533e 601c 7fbe
000000a0: f09d 693e a999 363e 7dc3 703e 0387 94bd
000000b0: 1995 183e 291f 76be 45d0 6fbd 51dc 5ebe
000000c0: e15e c23d f991 45be 393b 82bd afb7 43be
000000d0: bad2 b1bd 21c3 1f3d 17c9 3fbd 025f b03a
000000e0: ca52 803e c835 553e 16d6 933d f0d9 b83c
000000f0: 9fc9 273e a49f 00bd f259 6dbe c6a7 683e
00000100: 93d7 3cbe 4b0e e0bd 3b65 02bd 558d da3d
00000110: 3c08 2a3e 9bd6 fa3c a6af 7f3d ba43 64bd
00000120: 7b13 68be 554a 3a3e 2c5e 67be 2b2d 793e
00000130: 93bc c7bd 0893 cb3d 33f4 583e 7c69 833e
00000140: 232f 033e b581 acbd f71a 4d3e b506 dcbc
00000150: 311c 5bbd 683c 8abd e26a 763e f142 71be
00000160: 7321 36be 0e58 3fbe 4457 febd d893 74be
00000170: a973 07be 7621 833e fc39 513c 9b6d 113e
00000180: 9e29 e9bd 4f0d d33d de3f 2f3e 680f 213d
00000190: df46 053d b9e7 4dbc 4dc6 0a3e 967a 57be
000001a0: 7f85 61be 83eb 79be 8f23 26be ce4e 09be
000001b0: a125 7b3e b070 953e b654 b93d 0100 523e
000001c0: abf4 e9bd d7c0 67bc cb8f 693e 053b bdbd
000001d0: bfb2 97bd c31c 1f3e a6a5 88be 9cb4 233e
000001e0: 6ae9 e7bd 9b8b 8abe 0667 65be 265a 813d
000001f0: abf6 ac3d 5f48 04be f675 37be bb26 41bd
0.1359016 -0.01553645 -0.25332505 -0.277267 -0.27034697 -0.16125774 -0.046145383 0.1868513
0.059730716 0.16677675 -0.14970787 -0.18179867 -0.14837751 -0.20735148 -0.29002082 -0.036378406
0.19689089 -0.23331255 -0.05542702 0.08932948 -0.18976942 -0.12795368 -0.12813807 -0.107863866
-0.16965587 -0.076654136 -0.048701946 0.1310065 -0.054348826 0.19742297 0.012928709 0.20462006
0.15259455 0.18947889 -0.043208443 0.086174354 -0.27591997 -0.18905282 0.20609356 -0.24913168
0.22814155 0.17832054 0.23512073 -0.07252314 0.14900626 -0.24035324 -0.05854823 -0.21763732
0.09490753 -0.19293965 -0.06358952 -0.19113038 -0.08682771 0.03900445 -0.046822634 0.0013456049
0.25063163 0.20821297 0.07218568 0.022564858 0.16385506 -0.031402245 -0.23178843 0.2272025
-0.1844161 -0.10940226 -0.031834822 0.10671488 0.16604704 0.03061991 0.06242337 -0.05572865
-0.22663681 0.18192418 -0.22594517 0.24333636 -0.097527646 0.09940153 0.21186905 0.25666416
0.1281095 -0.08423177 0.20029818 -0.026858667 -0.053493682 -0.06749803 0.2406421 -0.23560692
-0.17786197 -0.18685934 -0.12418988 -0.23884523 -0.13227715 0.25611466 0.012770172 0.14201967
-0.11384891 0.10305273 0.17114207 0.039321333 0.03253829 -0.012567454 0.13552208 -0.21042857
-0.22023581 -0.24406247 -0.16224502 -0.13408968 0.24526073 0.29187536 0.090493605 0.20507814
-0.1142362 -0.014145098 0.22808759 -0.09239773 -0.0740714 0.15538315 -0.2668888 0.15986866
-0.11323817 -0.27059636 -0.22402582 0.063160226 0.08445486 -0.12918232 -0.17916092 -0.047156077

r.learn_modules.0.fcs.1.weight f4 [256, 128]
00000000: 3123 b2bd 0deb 56bc ffa8 993d eb7c 9d3d
00000010: 54e2 9ebd 5ecd 9a3d 15b6 153d fd6d 30bd
00000020: d19a 803b 746a 0f3c 7c50 843d 88a0 75bb
00000030: cf30 6cbd 980c 35bc a6f6 833d 811e 8abd
00000040: a485 4f3d 003e cfbc a5cc 3fbd 54c5 96bc
00000050: 7331 62bd 2e3d 8a3d 2657 52bd 2bac 88bd
00000060: a90f 043c 29f1 843c 20f6 a73c 4fc4 053d
00000070: e7f8 a33d 2a3c 993b 104b 993d 8db3 223d
00000080: e707 033d 6452 95bc 5851 70bc 0ded c03c
00000090: 376b 4a3c 0121 903d 82f8 debc e13f d33b
000000a0: 1b76 d5bc e7e3 46bd 9651 823d 780a 903c
000000b0: c6e0 1cbb e143 87bc 8c1d 343d 34b0 8e3d
000000c0: 0028 b43c 01e3 953d 2e8b 983d 9829 7d3d
000000d0: 9065 243d 120d 8f3d 6028 c53c ac5f 65bc
000000e0: d273 c3bc 160c 683d b856 44bb 99f0 a83d
000000f0: f924 06bd d77d 7d3c 18a7 9f3d e617 20bc
00000100: 3c59 773b ebdc 023d 57c5 a53d 65a0 3f3d
00000110: a522 40bd 8c93 21bd 8f34 2cbd aeee 5f3d
00000120: 1c47 8e3d d699 253c 2f10 81bc 5b6a 1d3d
00000130: a053 6abd 37ad 98bc f5ee 063d 147f a5bd
00000140: 5302 2a3d 7e4a 2cbc f7d1 0fbb fcdf 96bd
00000150: 4e87 6bbd 3bf0 923d 60a9 c7b9 56c2 453d
00000160: 5462 2fbd 6456 8bbd 85de 76bd c698 1d3c
00000170: a082 a6bd 00bc 133b 5f86 0f3d 5fab 5cbd
00000180: b3c7 92bc db77 9b3d a27d 843b cfbb 5b3d
00000190: b82e 5bbd 4270 863c c4ec a23d 1242 a9bd
000001a0: ca27 6dbc cada a9bd e109 f8bc 25ab a7bd
000001b0: d4d2 b53c 68cd 9fbd e687 34bc b151 163d
000001c0: e392 073d 7497 f4bb 25e6 fd3c c8f7 b43b
000001d0: cdcd b4bd 24ea dfbb 18e1 a8bd 258a c4bb
000001e0: 0a61 6ebc ff4a 5f3d c743 123b 995a 48bd
000001f0: 89a3 b83b 1d32 1e3d 5437 55bd e27d e83a
00000200: c252 6e3d 5104 18bd cd30 bb3b 9e72 d1bb
00000210: 087d 9f3d e29f 4a3d 5179 14bd e017 5dbd
00000220: 95cd 36bd 7599 7abd 429f 883c 91db 983d
00000230: 2c48 b3bd 6389 a6bd d007 8f3d d77b a23d
00000240: cca9 383c 4f00 873d f4fb 17bd 25e0 4ebd
00000250: c154 a6bc 3f03 b3bd 4d65 38bd da87 483d
00000260: 134a d6bc bd57 81bd 6a8a 94bc 3efc 08bd
00000270: 1d3c afbc f50c 46bd 7457 b2bb ef38 adbd
00000280: 8653 9cbd 31fe ff3c a4da 49bd 9a7b 13bd
00000290: ed06 073d 15f6 f23c 7eca ad3d 43f8 a8bd
000002a0: ec12 60bd 680b ddbc 8b63 a5bd 059b 7dbd
000002b0: b218 d83c 0da3 05bd 94fa 91bd f79f 7c3d
000002c0: f133 d1bc 6711 22bd 9bc5 99bc 5e2b 50bd
000002d0: c4c6 a83d b5e4 0dbd 3518 8ebd ca54 883d
000002e0: 205e 943b 261f fabb 77f8 92bc dc30 7d3d
000002f0: 1b53 9ebd 2bda 3f3d 7d64 563d 0cec da3c
00000300: c9b5 213c a63c 3b3d bc1a f43c f71d 98bd
00000310: bbf7 b43d 9c2a de3c 1f0e 733d 6ef5 943d
00000320: 738d 023b f5fa 4a3d f002 f03c e8dd 823c
00000330: e639 58bd 0936 a7bc 1144 54bc db82 793d
00000340: b7e9 8ebd 113d 85bd 2c16 a7bd 3f99 433d
00000350: 430c 293c 42a9 933d 3057 993c fbba 763d
00000360: fcf4 a13d 4e1e 333d b434 633c 2e68 1abd
00000370: 9683 a13d c78b 673d af97 9abc 2100 8f3d
00000380: d05e 753c b325 883d bdf7 913b 2959 8e3d
00000390: 02a3 c7bb ae04 8a3d 286a 613d 8940 80bc
000003a0: 5ee1 9fbd 062d ddbc 243b 3c3d 26ea 533d
000003b0: 8d49 48bb ef1d a23d cee2 fb3b e431 293d
000003c0: 58a4 eabc aef3 8fbd 346e 923d 746b 71bd
000003d0: 6fb1 89bd 7d9a 3c3c 7359 a03d 5f1c 4dbd
000003e0: 04dc 143d 1cc7 b23c 41c0 0b3d 5956 923c
000003f0: be08 b63d 1ff8 843d ad68 4e3c 6b88 84bc
-0.086981185 -0.013117564 0.075029366 0.07689842 -0.077580124 0.07558702 0.0365506 -0.043073643
0.0039247056 0.008753408 0.06460664 -0.0037479717 -0.057663735 -0.011050366 0.06443529 -0.067440994
0.05066456 -0.025298119 -0.046826024 -0.01840464 -0.05522294 0.0674995 -0.051352642 -0.066734634
0.008060374 0.016228275 0.020503104 0.032657918 0.08006459 0.0046763616 0.0748502 0.039722014
0.031989958 -0.018227763 -0.014667831 0.023550535 0.012354664 0.07037545 -0.027218107 0.006446824
-0.026057294 -0.04855719 0.063632175 0.017583117 -0.0023937686 -0.01651186 0.04397349 0.06967202
0.02199173 0.07318688 0.074484214 0.061807245 0.04013592 0.06984915 0.024067104 -0.013999861
-0.023858938 0.05665215 -0.0029958915 0.08249015 -0.032750104 0.015471897 0.077955425 -0.009771323
0.0037742397 0.031948965 0.0809428 0.046783824 -0.04690804 -0.039447352 -0.04204231 0.054670982
0.06947157 0.010107478 -0.015754787 0.038431507 -0.057208657 -0.018637283 0.03294273 -0.08080879
0.041506123 -0.010515807 -0.0021945217 -0.073669404 -0.057502083 0.071747266 -0.00038082432 0.048281036
-0.042818382 -0.06803587 -0.060270805 0.009618944 -0.081303835 0.0022542477 0.035040256 -0.05387437
-0.01791749 0.0759122 0.004043297 0.053645905 -0.05351135 0.01641095 0.07955316 -0.08264555
-0.0144748185 -0.08293684 -0.030278148 -0.0818694 0.022195257 -0.0780285 -0.011018729 0.036699
0.033099066 -0.0074643437 0.03099353 0.005522702 -0.08828316 -0.0068333317 -0.08246058 -0.0059979134
-0.014549503 0.05451488 0.002231823 -0.048914526 0.0056347293 0.03862201 -0.052054718 0.0017737711
0.058184393 -0.03711349 0.0057126046 -0.0063918373 0.0778752 0.049468882 -0.03624851 -0.053977847
-0.044629652 -0.061181504 0.016677503 0.07463754 -0.08754 -0.08131673 0.06983912 0.07933777
0.0112709515 0.06591856 -0.037105516 -0.05050673 -0.020304086 -0.087408535 -0.045018483 0.048957683
-0.026158368 -0.06315563 -0.018132407 -0.033443682 -0.021390969 -0.0483522 -0.005442554 -0.08458125
-0.07633118 0.031249138 -0.049280778 -0.036006548 0.03296559 0.029658357 0.08485888 -0.08250477
-0.054705545 -0.026982978 -0.08075627 -0.061915416 0.026378963 -0.0326262 -0.07127872 0.061675992
-0.025537463 -0.039567377 -0.018770983 -0.05082261 0.082410365 -0.03464194 -0.06938211 0.06656797
0.004527822 -0.0076331077 -0.017940743 0.061814174 -0.07730695 0.04683892 0.052341927 0.026723884
0.009870001 0.045712136 0.029797904 -0.0742759 0.08836313 0.027119927 0.05933964 0.072733745
0.0019920736 0.049555738 0.029298276 0.015974954 -0.05278959 -0.020411508 -0.012955681 0.06091581
-0.06978171 -0.06505788 -0.08158526 0.04775357 0.010317865 0.07210018 0.018718332 0.060236912
0.07908055 0.043730073 0.013867546 -0.03769701 0.07886426 0.056529786 -0.018871156 0.069824465
0.014976218 0.066478156 0.0044545815 0.069506 -0.00609243 0.06739174 0.05503288 -0.015655773
-0.07806657 -0.026999008 0.04595484 0.051736973 -0.0030561418 0.07915866 0.0076869493 0.041307345
-0.028642818 -0.070289 0.07149926 -0.058940366 -0.06723296 0.011511442 0.07829561 -0.050075885
0.036342636 0.021823458 0.034118894 0.01786344 0.08888386 0.06492638 0.012598199 -0.01617833

r.learn_modules.0.fcs.1.bias f4 [256]
00000000: 5d0e 963d 09d1 c53c d042 6dbd 479b 2c3b
00000010: 1355 b33d c6a2 6e3d f8e6 483c d3b5 283d
00000020: 6060 233d c5d0 c83c c87f 89bd 4ec7 0bbd
00000030: f620 c7bc 01e6 19bd 7561 88bd 57a8 e23c
00000040: 8039 27bc 076c b13d e3e2 303d c6f3 4dbd
00000050: f623 18bd cda1 823d f6a6 3d3d d906 68bd
00000060: cc44 893d 31de 8bbd b68c 92bd 4c4a 71bd
00000070: af01 a03b 2e89 5b3d 0677 5dbd 78b7 143d
00000080: cf75 abbd f71b 8ebd 2743 8f3a e582 e1bb
00000090: 657d 823d ee2b 183d bcb4 613d 99d9 493d
000000a0: a5e5 bf3c 6a0a 0b3d 1fe3 013d a74a 113d
000000b0: 9172 febc 4048 d93c 5a96 a73d 98f8 9b3d
000000c0: feac 9a3b a33c ad3d e319 b13d ae59 ccbc
000000d0: ed7f 0abd 4626 d4bc 668d 023b d377 cf3c
000000e0: 012b 15bd 0d09 37bc 99ea f53b 9ab1 55bc
000000f0: acf0 9d3d f137 153c 7c41 0fbd 9e4a 773d
00000100: 2dea 153d 90bf 823d 385b 993d 9cf1 9fbd
00000110: 5305 ca3c 8c3c 30bb 951a 57bd 2bdb 723d
00000120: ab3c 9cbc c1cf 9fbd cf74 32bd d4cb 87bd
00000130: a214 94bc f878 56bd d853 b03c 3906 94bd
00000140: 435c 2b3d 0528 67bd d190 3fbd 4835 643d
00000150: 3053 f63a 8a8d 68bd 3b3a 12b9 3476 183d
00000160: bcfb febc e820 8ebd 4608 ab3d 55e3 dbbc
00000170: 491a 9dbd 9246 08bd 7b34 853c 7c62 533d
00000180: 4e2b b03d dcf1 49bd 373e 223b e22c 493c
00000190: d5c4 793d 2ade 6bbd 6235 cc3c f09e a73c
000001a0: e2f8 863d d1a0 103c 5361 af3d 125d 303c
000001b0: a9da b13d 9e4b 863d 4bed 9ebd 20ec 323d
000001c0: 06ce 9c3d be57 ad3d 47b4 873d b2a3 a9bd
000001d0: 27ef 0e3c 810a 643d 0630 2dbd b8d1 a1bc
000001e0: 6649 3dbd 9604 2cbd 269d 0ebd 7b8e a73d
000001f0: 0666 76bd e212 ee3c 555e a13d 09fc 623d
00000200: fc5b 47bd bb09 9ebd ef12 c83c 5308 a83d
00000210: 29e8 913c b2b6 2b3d c29a 3fbc 0e92 f23c
00000220: e3e0 b4bd 2993 dc39 ce9f 9ebd 742e 5abd
00000230: 8331 a6bd d073 593c b858 983c f753 75bd
00000240: 8f37 3b3d cb1f 8b3d 6265 6cbd a811 9dbb
00000250: 0505 f33a a850 76bd 55b8 12bc b6d7 1ebd
00000260: 23e7 a13d 14fc 8a3d 9d52 04bd 8ff3 5f3d
00000270: 27ce e83c 4540 0fbd bb9f b23d 5c1c 053b
00000280: 0dde 5b3b 62e7 f03b c987 313d 53c4 64bd
00000290: cc01 cf3c f60f 68bc 5a51 f93c ecac 223d
000002a0: de1a 9cbd bafb f73c a434 b4bd 04af 13bd
000002b0: d816 793d a556 913d 8c8f 9dbd ecf2 f23c
000002c0: da27 86bd 22f1 12bd 36a1 653d e402 9e3c
000002d0: f21e 4fbd a9e6 543d d7f1 59bd 5513 e7bc
000002e0: 9498 c6bc 6391 54bd 6823 4dbb 8601 a33c
000002f0: 910e 91bd dcda 313d 5c25 003d c3ea 083d
00000300: 7c14 003b 35b7 cdbb 43ff a9bc 5673 393d
00000310: 4206 34bc 97d1 aebd 4561 ecbc 1b7c 2d3d
00000320: 830f af3d 211a 723d 577e 223d ab58 45bd
00000330: 5b64 82bd c4ea a7bc 14b2 883a 185f 85bd
00000340: f562 d53c 8565 95bd 6448 183d 7717 7abd
00000350: 9549 5cbd 3da1 81bd e39b 6fbd 1dda 633c
00000360: 01c4 35bc 5008 083d e7f8 8abd dc72 74bc
00000370: fdc9 2abd af45 92bd dc3a b43d 9093 40bd
00000380: 9cae 6e3d 1939 063d 56b8 9bbc 633d 473d
00000390: 579b 173d 9a17 ef3c 0483 cebc a227 1b3d
000003a0: ab15 58bc f475 413d f0bc 91bd b692 8fbd
000003b0: 20a3 063d 59ea d6bc 0148 f2bc 3e1d 9a3d
000003c0: 1ed1 af3c d61d 13bd 0762 92bd 62a7 1cbd
000003d0: dd82 b63b 21d5 22bd ee59 6439 3213 acbd
000003e0: 75c3 fb3b 010b d6bb b838 f93c 2dae 383d
000003f0: d267 443d 6dc0 563d 7ac0 903d 03e1 85bd
0.07326958 0.024147527 -0.057925045 0.002633767 0.08756461 0.0582607 0.0122620985 0.041189026
0.039886832 0.024513612 -0.067138255 -0.03412562 -0.02430771 -0.037572864 -0.066592135 0.027668161
-0.01020658 0.08663183 0.043185126 -0.05028131 -0.03714367 0.06378517 0.046301804 -0.056647155
0.06702575 -0.06829489 -0.07155745 -0.058908746 0.004883013 0.05359762 -0.054068588 0.036307782
-0.083720796 -0.069389276 0.0010930047 -0.006882059 0.06371573 0.03715127 0.055104002 0.049279783
0.023424933 0.03394548 0.03171074 0.035471585 -0.031060489 0.02652371 0.08182974 0.07615775
0.0047203293 0.08458831 0.086475156 -0.024945106 -0.033813406 -0.025897156 0.0019920706 0.025325691
-0.036417965 -0.0111715915 0.007504773 -0.013042832 0.0771192 0.009107576 -0.03497456 0.060373895
0.03660028 0.06384194 0.07488102 -0.07809755 0.024660742 -0.0026891557 -0.052515585 0.059291046
-0.019071897 -0.07803298 -0.04356843 -0.06630674 -0.018076245 -0.05236146 0.021524355 -0.072277494
0.041836035 -0.05643465 -0.046768967 0.055714875 0.0018793102 -0.056775607 -0.00013945338 0.037222102
-0.031125896 -0.0693987 0.083511874 -0.026841799 -0.07671029 -0.033270426 0.016260376 0.051607594
0.0860201 -0.04930292 0.0024756321 0.012278767 0.06097873 -0.05758492 0.024927799 0.02046153
0.065904394 0.008827404 0.08563485 0.010764377 0.08684284 0.065573916 -0.07760104 0.043682218
0.07656483 0.08464001 0.06626182 -0.082831755 0.008724011 0.05567408 -0.042282127 -0.019753322
-0.046212576 -0.04199656 -0.034817837 0.08181473 -0.06015589 0.029061738 0.078793205 0.05541614
-0.048671708 -0.077167 0.02442309 0.08204713 0.017810898 0.04192228 -0.011694612 0.02961066
-0.08831956 0.00042071313 -0.07745324 -0.053266957 -0.08114912 0.013272241 0.018596992 -0.05989453
0.04570728 0.067931734 -0.057713874 -0.0047933646 0.0018540925 -0.060135514 -0.008955081 -0.038779937
0.07905414 0.06786361 -0.03230535 0.054675635 0.028418614 -0.0349734 0.087218724 0.0020311093
0.00335491 0.0073518017 0.043342385 -0.055851292 0.025269412 -0.014163962 0.0304343 0.039715692
-0.07622312 0.0302714 -0.08799103 -0.03605558 0.0608128 0.07096604 -0.07693395 0.02965685
-0.0655057 -0.035874493 0.056061946 0.019288488 -0.05056662 0.051977787 -0.053209152 -0.02820746
-0.024242677 -0.051896464 -0.0031301621 0.019898187 -0.070828564 0.04342161 0.03128563 0.03342701
0.001954346 -0.0062779435 -0.020751601 0.04527601 -0.01098782 -0.0853607 -0.028854975 0.042354684
0.085478805 0.05910695 0.03967127 -0.048180263 -0.063667975 -0.020497687 0.0010429048 -0.06512278
0.026048163 -0.07294754 0.037178412 -0.061057534 -0.05378111 -0.06329582 -0.058498275 0.013906983
-0.011094094 0.033211052 -0.067857556 -0.014919963 -0.041696537 -0.07142197 0.08800289 -0.047015727
0.05827199 0.032769296 -0.019008797 0.048642527 0.037013378 0.029186059 -0.025208957 0.037879594
-0.01318876 0.04723163 -0.07116115 -0.07010405 0.032870412 -0.026234793 -0.02957535 0.07525109
0.02146202 -0.035917126 -0.071476035 -0.038245566 0.0055697993 -0.039754037 0.00021777276 -0.08402099
0.0076832124 -0.0065320735 0.030422553 0.045087982 0.047950573 0.052429605 0.07067962 -0.06537058

r.learn_modules.0.fcs.2.weight f4 [128, 256]
00000000: ec17 0dbd f006 b83c 18f4 3cbd 6088 5a3b
00000010: e80d cf3c ac71 a43c 48c1 71bd 725e 50bd
00000020: 6012 14bb f4b7 c8bc 3e56 53bd 1c8d 313d
00000030: 60b6 a9bc c68e 64bd e8eb 663c 8482 20bd
00000040: ecef 2fbd bc55 a4bc e4a9 38bd 1068 f33c
00000050: 34af 3bbd 9aff 6d3d d8da a3bc 7621 62bd
00000060: c4bc 6e3d e02d 893b e0f5 11bd 1c24 d03c
00000070: e2a1 0bbd da79 5ebd 100e d3bb be6e 23bd
00000080: b83d d53c 42fd 01bd f4f2 6e3d 803c 2cbb
00000090: 18f5 7dbd 8af4 7abd ca73 16bd e0ad 663b
000000a0: 4e37 05bd c06c 25bb bcd1 f93c 02be 51bd
000000b0: a696 10bd 9272 59bd d024 8d3c 1a90 02bd
000000c0: 5405 dcbc 66e0 44bd 621b 5c3d d8db 46bc
000000d0: 1082 a5bb ceda 6d3d 68da 37bd 4e80 47bd
000000e0: f4a6 b43c 0071 8fb9 549d c83c d030 62bc
000000f0: 882f 70bc 5067 0d3c e0b6 3cbc 804d bf3c
00000100: 2866 06bc b808 713c 9a4d 643d bc21 983c
00000110: 08c7 8a3c e862 2fbc 24ff d2bc aca6 59bd
00000120: f4d8 b7bc 0e82 043d f850 743c aa61 523d
00000130: 8028 743b 14c8 e23c c0af 4f3b 805c 9a3a
00000140: fcde d9bc 5420 c7bc 7ac7 03bd 32e3 563d
00000150: 364a 5c3d 627d 7b3d 182d 47bd 80d5 b83c
00000160: 9ef7 6bbd 04be f7bc 7409 79bd 0846 65bd
00000170: 60a5 07bc ecd0 263d fc26 31bd 40f9 8eba
00000180: 3460 d2bc c4bf 16bd 6068 fe3c aaa8 293d
00000190: b8de 24bd d457 c5bc 002b 3eba a089 873c
000001a0: 1c75 f4bc 809e 103c ae81 103d e89f bc3c
000001b0: 406b 8cbb fc45 643d 485f 243d 1060 a8bb
000001c0: dae7 38bd c0af df3c fee4 113d 6879 783c
000001d0: 1017 1b3d 3e79 0b3d 246e 39bd ce0c 383d
000001e0: 86f9 3e3d 3673 20bd 8818 b1bc 8c66 b73c
000001f0: 80a4 f7bb 0c50 6dbd 244d 07bd 14cc 43bd
00000200: 440e 263d 5049 e1bc 3c0d c63c 08e1 923c
00000210: c81d 1e3c 6475 05bd e0df 49bb f4d4 493d
00000220: 5c65 dabc f835 e1bc c849 bdbc 5429 983c
00000230: 8cbf 1b3d bc78 e7bc 685d 1abd 202c 223b
00000240: 507b d5bb 8463 e7bc 682a 5b3c d609 5dbd
00000250: 1a7f 1dbd fcc4 71bd 6038 7a3c bcf3 483d
00000260: 0a3c 1f3d de51 083d 7014 a83b f2bf 523d
00000270: 18c6 b63c f073 443c 70cc b0bb b465 93bc
00000280: 905f 473d b691 753d aaa0 5c3d f20f 61bd
00000290: 14f2 823c 02db 3e3d 5c17 a8bc bc3b 2dbd
000002a0: 1085 543d bef0 293d 8073 46bb fc0c a83c
000002b0: b430 26bd 22f6 42bd 704a 293d 603f bfbc
000002c0: 00c1 71bd 284f a2bc 72ae 4abd 20a0 3b3b
000002d0: f8c7 d13c a82f d8bc 8ee1 4d3d 4c50 c4bc
000002e0: e6e3 5fbd 18fb 7fbc 807d debc b4af e9bc
000002f0: d483 8dbc 2c8c bd3c 8cc8 24bd 00da 5939
00000300: b830 ccbc f4fc e13c 60a6 4f3b 2433 dc3c
00000310: a858 83bc fc18 39bd 7cc9 debc bac8 773d
00000320: 6228 32bd 062d 433d 1437 acbc 3e42 54bd
00000330: f2bf 20bd b2ca 603d 6418 c6bc 7673 4cbd
00000340: 402c d9bc e0f6 e5bc dc68 fbbc 14a5 f13c
00000350: def8 643d e09b 44bb 0047 843a 7a46 403d
00000360: 1a0a 6b3d 8091 013a d6c6 19bd c872 8a3c
00000370: 4c65 41bd e426 943c c053 b9bb 00e9 83ba
00000380: 78b1 9ebc 00f9 afba 7869 643c 485b 1f3d
00000390: 9418 f63c acb4 963c 0048 813b c023 01bc
000003a0: 1ac9 2abd 80d0 1aba 00c6 2fbb 2cc6 c4bc
000003b0: bce3 163d 06d8 273d f23a 71bd 5068 50bd
000003c0: 6029 10bc 10a7 29bd 3a9a 523d 1880 3d3d
000003d0: 8096 95ba 0081 e539 0079 893b c23e 5abd
000003e0: 8a04 54bd 8095 623d e8bb 6abc 4aea 11bd
000003f0: daa0 233d 704c f3bc c048 6dbc e264 573d
-0.03444664 0.022464246 -0.046131223 0.0033345446 0.025275186 0.020073734 -0.059022218 -0.05087132
-0.002259396 -0.024501778 -0.05159592 0.043347463 -0.020716846 -0.05580022 0.01409433 -0.03918697
-0.042953417 -0.020060413 -0.045083895 0.029712707 -0.045821384 0.05810509 -0.020001814 -0.055207692
0.05828549 0.004186377 -0.035634875 0.025407843 -0.03408993 -0.054315425 -0.0064408854 -0.039900534
0.026030406 -0.031735666 0.058337167 -0.0026281178 -0.062001318 -0.061268367 -0.03673152 0.0035198852
-0.032523446 -0.0025241822 0.030495517 -0.051206596 -0.03529992 -0.05308778 0.017229468 -0.031875707
-0.02685801 -0.048065566 0.05373705 -0.012137376 -0.005050905 0.058069997 -0.044886023 -0.048706345
0.022052266 -0.00027359277 0.024489082 -0.013805583 -0.01465977 0.008630589 -0.01151821 0.023352385
-0.008203067 0.014711551 0.05573807 0.018570773 0.016940609 -0.010704733 -0.025756426 -0.053137466
-0.022442318 0.032350592 0.014911883 0.05136267 0.0037255585 0.027683295 0.0031690449 0.0011776835
-0.026595585 -0.024307407 -0.032172658 0.052462764 0.05378171 0.06139887 -0.04862699 0.022562742
-0.057609193 -0.030241974 -0.06080003 -0.05597499 -0.008279175 0.040726587 -0.04325007 -0.0010908023
-0.025680639 -0.036803976 0.03105563 0.041420616 -0.040251464 -0.024089731 -0.00072543323 0.016545117
-0.029840998 0.008826852 0.035279922 0.023025468 -0.004285246 0.055730805 0.04012993 -0.0051384047
-0.045142986 0.027305484 0.035618775 0.015165664 0.03786379 0.034051172 -0.045271054 0.044934087
0.046624683 -0.039172374 -0.021618143 0.022387765 -0.0075574517 -0.057937667 -0.03303255 -0.047802046
0.04054095 -0.027500778 0.024176233 0.017929569 0.009650655 -0.032582656 -0.0030803606 0.049275354
-0.02665966 -0.027491555 -0.02310647 0.018574394 0.03802447 -0.028255813 -0.037686735 0.0024745539
-0.006514944 -0.028245695 0.01337681 -0.05396446 -0.03845129 -0.05902575 0.01527223 0.04906057
0.038875617 0.0332812 0.0051293895 0.051452585 0.022311255 0.011990532 -0.0053954646 -0.017992832
0.04867512 0.059953414 0.05386416 -0.054946847 0.015984572 0.04659558 -0.020518951 -0.042293295
0.05188471 0.041489355 -0.0030281246 0.020514004 -0.04057379 -0.04759801 0.041330755 -0.02334565
-0.05902195 -0.019813135 -0.04948277 0.0028629377 0.025608048 -0.026389912 0.050263934 -0.02396407
-0.0546607 -0.01562383 -0.027159452 -0.028526165 -0.017274775 0.023138128 -0.04023032 0.00020775944
-0.024925575 0.027586438 0.003168486 0.026879855 -0.016033486 -0.045189843 -0.027195685 0.060494162
-0.043495543 0.04765036 -0.021022357 -0.051820986 -0.039245553 0.054880805 -0.024181552 -0.0499148
-0.026510358 -0.02807182 -0.03068965 0.02949766 0.0559014 -0.0030000135 0.001009196 0.04694221
0.05738268 0.00049426407 -0.03754314 0.016900435 -0.047215745 0.01808495 -0.0056557357 -0.0010063946
-0.019371733 -0.0013425648 0.013941161 0.038905412 0.030041017 0.018396698 0.0039453506 -0.007882059
-0.04169569 -0.0005905703 -0.0026820898 -0.024020277 0.03683828 0.0409775 -0.058894105 -0.05088073
-0.008798927 -0.04141909 0.051416613 0.046264738 -0.001141265 0.00043774396 0.0041953325 -0.053282507
-0.05176214 0.055318356 -0.014327027 -0.035623826 0.039948322 -0.029699534 -0.014482677 0.052586444

r.learn_modules.0.fcs.2.bias f4 [128]
00000000: 908b 8cbc e183 503d 483b 35bd 5421 e1bc
00000010: 7d96 383d 146c fe3c dcef 0bbd 9004 18bd
00000020: 05ae 763d 5cdf 5bbd 2484 ea3c 36a5 33bd
00000030: 6cec 58bd e84e 3e3c eb36 063d b46b eabc
00000040: 263d 61bd 8021 a6bc 33f0 1ebd 3b85 9bbc
00000050: 5c8d aebc f811 5ebc 8851 813c 07d6 473c
00000060: 6712 5d3c 5309 2c3d fe0b dc3a 34e4 3abd
00000070: 901b 09bc 3c2b 723c 985e 083c a061 943b
00000080: 34ff f1bc 947e 88bc 3b43 243b e01d fa3c
00000090: a911 943c 5b0a 213d 6c3d 2abd b01e 88bc
000000a0: efc8 fa3c e72c 31bc b50c fdba 5076 963c
000000b0: 95f1 15bd d0d4 d9bb 8c34 3a3d c07c 6e3c
000000c0: 3f65 2abd 6466 2abc 16df 293d 0827 29bd
000000d0: 7a7d 28bd 71b9 0a3c 12f3 cbbc 140b b8bc
000000e0: 7a03 7f3d 8810 42bd 9284 633d b473 0c3d
000000f0: dd29 c9bc 3aec 7c3d 77bf 45bd 20fb 2e3b
00000100: e439 36bd 5c2e 7fbd 93c8 42bd be65 003d
00000110: 7bc8 223d 2016 463c d080 73bc 8cbe 443d
00000120: 8dc3 f93c a44c 193d 5228 253d 6dc1 503d
00000130: eed4 e9bc 00cd 98b9 30c8 373c eefc 1cbd
00000140: 9b4e 963c f84a e33c ac7d b1bc befe 573c
00000150: c536 3a3d 880d 8c3c f206 273d c845 1c3d
00000160: 0aac 48bd 1842 253d 0b91 ad3c 1da6 583d
00000170: 2c43 043d 50e3 cb3c 2461 923c 7bae 3f3d
00000180: 03f1 68bc 925a 6b3d c06d d4bb a678 093d
00000190: 198b b5bb aa6e 333c d6d5 74bd d0b8 a43b
000001a0: 75fe 6abd 7335 7b3d 88bf 05bd ae95 11bd
000001b0: 3f83 2ebd e08f 86bc b30f 333d c473 703b
000001c0: f05b 1cbd 7dd5 e93c 57a0 173d a053 9e3c
000001d0: 6d03 5b3d 3ecc 733d b135 c23c b48e 26bd
000001e0: ac1d babc dccd 01bd 40d6 503b fe43 e03c
000001f0: b0ac e7bc 3e2b 2dbd ba3b 30bd 8894 29bc
-0.017156392 0.05090702 -0.044245988 -0.027481712 0.04506539 0.031057395 -0.034164295 -0.037113726
0.06022455 -0.05367981 0.028627463 -0.04385873 -0.052959844 0.011615492 0.032767218 -0.02861581
-0.054989956 -0.020279646 -0.03880329 -0.018984428 -0.02130764 -0.013554089 0.015785947 0.012197024
0.013493157 0.04200108 0.0016788242 -0.045627788 -0.008368388 0.014780816 0.008323334 0.0045282394
-0.029540636 -0.01666192 0.0025064487 0.030531824 0.018074827 0.039316516 -0.041562483 -0.016616195
0.03061339 -0.010813928 -0.0019306155 0.018366963 -0.036607344 -0.0066476837 0.04546027 0.01455611
-0.041600462 -0.010400388 0.041472517 -0.04129699 -0.04113529 0.008467064 -0.024896178 -0.02246622
0.062259175 -0.047379047 0.05554635 0.03429003 -0.024556095 0.06174872 -0.0482783 0.0026699975
-0.044488803 -0.06230007 -0.047554564 0.03134703 0.039741974 0.012090236 -0.014862254 0.048033282
0.030488754 0.037426606 0.040321656 0.050965715 -0.028543916 -0.00029144436 0.011217162 -0.03832715
0.018348029 0.027745709 -0.02166637 0.013183294 0.04546239 0.017096296 0.040778108 0.038152486
-0.048992194 0.040346235 0.021187326 0.052892793 0.032290623 0.024888664 0.017868586 0.046797257
-0.014217618 0.05745942 -0.00648281 0.033562325 -0.0055402634 0.010951677 -0.059774242 0.005026914
-0.057371575 0.06133027 -0.03265336 -0.035543136 -0.042605635 -0.016426027 0.043716144 0.0036690095
-0.038173616 0.028544182 0.037018146 0.019326985 0.053470064 0.059520952 0.023707243 -0.040663436
-0.022719227 -0.031690463 0.0031865984 0.027376171 -0.028280586 -0.042277567 -0.04302571 -0.010350354

r.learn_modules.0.fcs.3.weight f4 [1, 128]
00000000: b5da 843d 98fd 98bd 4993 fbbc 5de3 e23c
00000010: 7f99 a2bd 5ab5 8fb9 2973 723d 4915 12bb
00000020: 0d20 42bd f89d 94bb bc9d 513d 529b 95bd
00000030: 00bb ae3d 4f3f a83d dab0 ba3c ae1d 083d
00000040: e3b4 1cbd 6eae 49bd bd90 7a3d ad3a 963d
00000050: 316c 893d 9029 dbbc 27e2 703d a15f 39bd
00000060: 924b 96bc c002 263d d8d3 8abc 1951 e73b
00000070: eed3 9abd 5ef2 0fbd 05bd 96bd 9142 9ebb
00000080: 6fd4 09bd 9ec5 c1bc 0aad 293c 6f9b a93d
00000090: c310 af3b a488 7a3d 53ee 39bd 965d b43c
000000a0: 240c 223d 8979 a33d ac0a d83c e2a1 9cbc
000000b0: 8247 16bd daf5 24bd a1a1 8bbd 4d66 2a3b
000000c0: 8f6d 85bd 5bcd 993b 8d99 b43d 80e7 28bd
000000d0: 0401 4a3b 085d 57bd f09b 19bd 039d 83bd
000000e0: cc35 3f3d f56e 513c 5f1b aabc 7b78 e0bc
000000f0: 8d22 b3bd 834d d93c 6f17 b23d 5b04 9bbd
00000100: d185 983d 73a6 c33c 6aa6 8b3b 0de5 943d
00000110: d25b ac3d 14d6 163c dce4 313b 674c acbc
00000120: 6f2c 90bb bd64 973d 8e13 e8bb cf6c 093c
00000130: cafa 9b3d 95af 593d 2841 883d 5d05 85bd
00000140: f6ee 853d c321 f93b bb42 75bd 26a8 2bbb
00000150: 12a0 2e3d ae75 6ebd 866c 433d 4a41 b23d
00000160: 637d 1abd 47e9 58bd dc60 883d 3c70 833d
00000170: be78 4bbd c654 ffbc 1873 c03c e5d0 91bd
00000180: 61c1 d73b 9b56 993d 51f7 8e3d 2d68 503d
00000190: fb56 483d a41c fabc f412 5abd f03b 7f3d
000001a0: 4316 b63d 6739 8f3c b609 1abd 9723 523d
000001b0: 1c7d 71bd ddc9 b33d c338 9ebd fd21 72bd
000001c0: ad33 fabc cd13 013d 277f 9abc f88d 25bd
000001d0: e4d5 8d3c 12e6 08bb 3601 813d 3aeb 97bd
000001e0: 7f98 563d 8be4 8cbb 787b bf3a 3329 2a3d
000001f0: 4326 1d3d 54db 983d 884b 30bc f10b 9dbd
0.064870276 -0.07470244 -0.03070988 0.027696306 -0.07939433 -0.00027410203 0.059191857 -0.002229052
-0.047393847 -0.004535433 0.051175818 -0.073050156 0.08531761 0.082152 0.022789408 0.03323143
-0.038258445 -0.049238615 0.06117319 0.0733541 0.06710089 -0.026753217 0.058809426 -0.045257214
-0.018346582 0.040529966 -0.016946718 0.007059228 -0.07559954 -0.03514325 -0.07360271 -0.0048297127
-0.033649858 -0.023653802 0.010356197 0.082816 0.0053425743 0.061165467 -0.0453933 0.022017282
0.03956236 0.07982165 0.026372276 -0.01912016 -0.03668929 -0.040273525 -0.06817938 0.0026000917
-0.06515037 0.0046936697 0.0881835 -0.0412364 0.003082336 -0.052578956 -0.03750223 -0.06426432
0.046682164 0.012782802 -0.020765005 -0.0274012 -0.087468244 0.026526218 0.08695876 -0.0756919
0.074473985 0.02388308 0.0042617815 0.072702505 0.08415951 0.009206314 0.0027144467 -0.021032525
-0.004399828 0.07392261 -0.007082409 0.008387758 0.076161936 0.053145964 0.066530526 -0.064951636
0.06539719 0.0076029017 -0.059878092 -0.0026192754 0.042633124 -0.058217697 0.047710918 0.08703859
-0.037717234 -0.052956846 0.066590995 0.064178914 -0.049675696 -0.031168353 0.023492381 -0.071199216
0.006584332 0.07487222 0.069807656 0.0508806 0.048911076 -0.030531235 -0.05324073 0.06231302
0.08890965 0.017483426 -0.037606917 0.051303472 -0.058957204 0.08778737 -0.0772567 -0.059114445
-0.030542219 0.031513024 -0.01885946 -0.040418595 0.017313905 -0.0020889086 0.06299059 -0.07417913
0.052391525 -0.0042997054 0.001460894 0.041543197 0.038366567 0.074637085 -0.010760196 -0.07668293

exp_avg f4 [1, 11]
00000000: 2b69 203c 08ac 44bd ef5c bdb9 5581 d5b9
00000010: dbc5 2b39 cf23 e1bb 9b4b 3a3a 88a6 dcb9
00000020: dadf d1b9 b521 393d b395 203a
0.009790699 -0.048015624 -0.0003611813 -0.00040722886 0.00016381538 -0.006870724 0.0007106603 -0.00042085745
-0.0004003037 0.04519816 0.00061258225

exp_avg_sq f4 [1, 11]
00000000: 45a5 1736 5460 6138 670c 7631 c062 8f31
00000010: 0775 c530 6b28 4436 060b 7a32 b3c4 e431
00000020: ccac 9a31 a40b 4f38 23fb 0e32
2.2596953e-06 5.3733893e-05 3.5804761e-09 4.1730743e-09 1.4366898e-09 2.9229802e-06 1.4554422e-08 6.6580355e-09
4.5016346e-09 4.9363487e-05 8.32259e-09

exp_avg f4 [7, 11]
00000000: 0000 0000 0000 0000 0000 0000 0000 0000
00000010: 0000 0000 0000 0000 0000 0000 0000 0000
00000020: 0000 0000 0000 0000 0000 0000 0000 0000
00000030: 0000 0000 0000 0000 0000 0000 0000 0000
00000040: 0000 0000 0000 0000 0000 0000 0000 0000
00000050: 0000 0000 0000 0000 0000 0000 0000 0000
00000060: 0000 0000 0000 0000 0000 0000 0000 0000
00000070: 0000 0000 0000 0000 0000 0000 0000 0000
00000080: 0000 0000 0000 0000 0000 0000 0000 0000
00000090: 0000 0000 0000 0000 0000 0000 0000 0000
000000a0: 0000 0000 0000 0000 0000 0000 0000 0000
000000b0: 0000 0000 0000 0000 0000 0000 0000 0000
000000c0: 0000 0000 0000 0000 0000 0000 0000 0000
000000d0: 0000 0000 0000 0000 0000 0000 0000 0000
000000e0: 0000 0000 0000 0000 0000 0000 0000 0000
000000f0: 0000 0000 0000 0000 0000 0000 0000 0000
00000100: 0000 0000 0000 0000 0000 0000 0000 0000
00000110: 0000 0000 0000 0000 0000 0000 0000 0000
00000120: 0000 0000 0000 0000 0000 0000 0000 0000
00000130: 0000 0000
0.0 0.0 0.0 0.0 0.0 0.0 0.0 0.0
0.0 0.0 0.0 0.0 0.0 0.0 0.0 0.0
0.0 0.0 0.0 0.0 0.0 0.0 0.0 0.0
0.0 0.0 0.0 0.0 0.0 0.0 0.0 0.0
0.0 0.0 0.0 0.0 0.0 0.0 0.0 0.0
0.0 0.0 0.0 0.0 0.0 0.0 0.0 0.0
0.0 0.0 0.0 0.0 0.0 0.0 0.0 0.0
0.0 0.0 0.0 0.0 0.0 0.0 0.0 0.0
0.0 0.0 0.0 0.0 0.0 0.0 0.0 0.0
0.0 0.0 0.0 0.0 0.0

exp_avg_sq f4 [7, 11]
00000000: 0000 0000 0000 0000 0000 0000 0000 0000
00000010: 0000 0000 0000 0000 0000 0000 0000 0000
00000020: 0000 0000 0000 0000 0000 0000 0000 0000
00000030: 0000 0000 0000 0000 0000 0000 0000 0000
00000040: 0000 0000 0000 0000 0000 0000 0000 0000
00000050: 0000 0000 0000 0000 0000 0000 0000 0000
00000060: 0000 0000 0000 0000 0000 0000 0000 0000
00000070: 0000 0000 0000 0000 0000 0000 0000 0000
00000080: 0000 0000 0000 0000 0000 0000 0000 0000
00000090: 0000 0000 0000 0000 0000 0000 0000 0000
000000a0: 0000 0000 0000 0000 0000 0000 0000 0000
000000b0: 0000 0000 0000 0000 0000 0000 0000 0000
000000c0: 0000 0000 0000 0000 0000 0000 0000 0000
000000d0: 0000 0000 0000 0000 0000 0000 0000 0000
000000e0: 0000 0000 0000 0000 0000 0000 0000 0000
000000f0: 0000 0000 0000 0000 0000 0000 0000 0000
00000100: 0000 0000 0000 0000 0000 0000 0000 0000
00000110: 0000 0000 0000 0000 0000 0000 0000 0000
00000120: 0000 0000 0000 0000 0000 0000 0000 0000
00000130: 0000 0000
0.0 0.0 0.0 0.0 0.0 0.0 0.0 0.0
0.0 0.0 0.0 0.0 0.0 0.0 0.0 0.0
0.0 0.0 0.0 0.0 0.0 0.0 0.0 0.0
0.0 0.0 0.0 0.0 0.0 0.0 0.0 0.0
0.0 0.0 0.0 0.0 0.0 0.0 0.0 0.0
0.0 0.0 0.0 0.0 0.0 0.0 0.0 0.0
0.0 0.0 0.0 0.0 0.0 0.0 0.0 0.0
0.0 0.0 0.0 0.0 0.0 0.0 0.0 0.0
0.0 0.0 0.0 0.0 0.0 0.0 0.0 0.0
0.0 0.0 0.0 0.0 0.0

exp_avg f4 [3, 11]
00000000: 0000 0000 0000 0000 0000 0000 0000 0000
00000010: 0000 0000 0000 0000 0000 0000 0000 0000
00000020: 0000 0000 0000 0000 0000 0000 0000 0000
00000030: 0000 0000 0000 0000 0000 0000 0000 0000
00000040: 0000 0000 0000 0000 0000 0000 0000 0000
00000050: 0000 0000 0000 0000 0000 0000 0000 0000
00000060: 0000 0000 0000 0000 0000 0000 0000 0000
00000070: 0000 0000 0000 0000 0000 0000 0000 0000
00000080: 0000 0000
0.0 0.0 0.0 0.0 0.0 0.0 0.0 0.0
0.0 0.0 0.0 0.0 0.0 0.0 0.0 0.0
0.0 0.0 0.0 0.0 0.0 0.0 0.0 0.0
0.0 0.0 0.0 0.0 0.0 0.0 0.0 0.0
0.0

exp_avg_sq f4 [3, 11]
00000000: 0000 0000 0000 0000 0000 0000 0000 0000
00000010: 0000 0000 0000 0000 0000 0000 0000 0000
00000020: 0000 0000 0000 0000 0000 0000 0000 0000
00000030: 0000 0000 0000 0000 0000 0000 0000 0000
00000040: 0000 0000 0000 0000 0000 0000 0000 0000
00000050: 0000 0000 0000 0000 0000 0000 0000 0000
00000060: 0000 0000 0000 0000 0000 0000 0000 0000
00000070: 0000 0000 0000 0000 0000 0000 0000 0000
00000080: 0000 0000
0.0 0.0 0.0 0.0 0.0 0.0 0.0 0.0
0.0 0.0 0.0 0.0 0.0 0.0 0.0 0.0
0.0 0.0 0.0 0.0 0.0 0.0 0.0 0.0
0.0 0.0 0.0 0.0 0.0 0.0 0.0 0.0
0.0

exp_avg f4 [5, 11]
00000000: 0000 0000 0000 0000 0000 0000 0000 0000
00000010: 0000 0000 0000 0000 0000 0000 0000 0000
00000020: 0000 0000 0000 0000 0000 0000 0000 0000
00000030: 0000 0000 0000 0000 0000 0000 0000 0000
00000040: 0000 0000 0000 0000 0000 0000 0000 0000
00000050: 0000 0000 0000 0000 0000 0000 0000 0000
00000060: 0000 0000 0000 0000 0000 0000 0000 0000
00000070: 0000 0000 0000 0000 0000 0000 0000 0000
00000080: 0000 0000 0000 0000 0000 0000 0000 0000
00000090: 0000 0000 0000 0000 0000 0000 0000 0000
000000a0: 0000 0000 0000 0000 0000 0000 0000 0000
000000b0: 0000 0000 0000 0000 0000 0000 0000 0000
000000c0: 0000 0000 0000 0000 0000 0000 0000 0000
000000d0: 0000 0000 0000 0000 0000 0000
0.0 0.0 0.0 0.0 0.0 0.0 0.0 0.0
0.0 0.0 0.0 0.0 0.0 0.0 0.0 0.0
0.0 0.0 0.0 0.0 0.0 0.0 0.0 0.0
0.0 0.0 0.0 0.0 0.0 0.0 0.0 0.0
0.0 0.0 0.0 0.0 0.0 0.0 0.0 0.0
0.0 0.0 0.0 0.0 0.0 0.0 0.0 0.0
0.0 0.0 0.0 0.0 0.0 0.0 0.0

exp_avg_sq f4 [5, 11]
00000000: 0000 0000 0000 0000 0000 0000 0000 0000
00000010: 0000 0000 0000 0000 0000 0000 0000 0000
00000020: 0000 0000 0000 0000 0000 0000 0000 0000
00000030: 0000 0000 0000 0000 0000 0000 0000 0000
00000040: 0000 0000 0000 0000 0000 0000 0000 0000
00000050: 0000 0000 0000 0000 0000 0000 0000 0000
00000060: 0000 0000 0000 0000 0000 0000 0000 0000
00000070: 0000 0000 0000 0000 0000 0000 0000 0000
00000080: 0000 0000 0000 0000 0000 0000 0000 0000
00000090: 0000 0000 0000 0000 0000 0000 0000 0000
000000a0: 0000 0000 0000 0000 0000 0000 0000 0000
000000b0: 0000 0000 0000 0000 0000 0000 0000 0000
000000c0: 0000 0000 0000 0000 0000 0000 0000 0000
000000d0: 0000 0000 0000 0000 0000 0000
0.0 0.0 0.0 0.0 0.0 0.0 0.0 0.0
0.0 0.0 0.0 0.0 0.0 0.0 0.0 0.0
0.0 0.0 0.0 0.0 0.0 0.0 0.0 0.0
0.0 0.0 0.0 0.0 0.0 0.0 0.0 0.0
0.0 0.0 0.0 0.0 0.0 0.0 0.0 0.0
0.0 0.0 0.0 0.0 0.0 0.0 0.0 0.0
0.0 0.0 0.0 0.0 0.0 0.0 0.0
