graph_embedding/test.pth (torch, 282143 bytes, 14 tensors)

0 f4 [4, 2, 7]
0	0x3fb1a6da	1.3879044
1	0x3ed22d5a	0.41050225
2	0x3f6ebef4	0.9326012
3	0x3f839437	1.0279607
4	0xbf13c39c	-0.5772035
5	0xbf83bbfa	-1.0291741
6	0xbf4a5747	-0.79039425
7	0xbfec6857	-1.8469342
8	0xbe3d9e30	-0.18517375
9	0x3ea86dc6	0.3289625
10	0x3d9e7493	0.077370785
11	0x3fa81a6d	1.3133065
12	0x3f9da3f0	1.2315655
13	0x3f19052f	0.59773535
14	0xbf2fcf19	-0.6867538
15	0xbffaff18	-1.9609098
16	0xbf4b4d29	-0.7941461
17	0xbf24d011	-0.64379984
18	0xbf699c82	-0.91254437
19	0xbfd4e717	-1.6633023
20	0xbf60f975	-0.8788064
21	0x3f9b6e68	1.2143068
22	0x3ecf8cfc	0.4053725
23	0x3dbbc5ad	0.09168563
24	0x3e692125	0.2276655
25	0x3f81101a	1.0083039
26	0xbe83f4db	-0.25772747
27	0x3fc6d7c4	1.5534596
28	0xbf5c8446	-0.86139333
29	0xbee2909f	-0.44250962
30	0xbfb71bc6	-1.4305351
31	0x3fcf4d36	1.6195438
32	0xbf50cf77	-0.81566566
33	0xbf1f6dc1	-0.62276846
34	0xbeae33a3	-0.3402377
35	0xbfc73b1a	-1.5564911
36	0xbe36c916	-0.17850146
37	0xbd03fd28	-0.03222385
38	0xbde5519f	-0.111972086
39	0xbda89596	-0.08231656
40	0x3f3d04cb	0.7383544
41	0xbf3d2178	-0.73879194
42	0xbf9889ce	-1.1917055
43	0x3eb82183	0.35963067
44	0xbd891ce0	-0.066949606
45	0x3f2de81f	0.67932314
46	0xbfd985e6	-1.6993988
47	0x3ebd0e64	0.36925042
48	0x3f5b8b50	0.8575945
49	0x3ff3c0d8	1.9043226
50	0xbf967212	-1.1753561
51	0xbf6ecb8b	-0.9327933
52	0x3e0ca8a8	0.13736212
53	0x3e9b47a4	0.30328095
54	0x3f9e7b78	1.238143
55	0xbf1a64f6	-0.60310304

0 f4 [4, 8, 3]
0	0xc0181198	-2.3760738
1	0x3f9c6c87	1.222062
2	0x3f4169fb	0.7555234
3	0x3e152f53	0.14568834
4	0xbeed03c2	-0.4629193
5	0xbe2ad135	-0.16681369
6	0xbf87e296	-1.0616024
7	0xbed499de	-0.4152364
8	0xbf26210f	-0.64894193
9	0x3eb5188b	0.35370287
10	0x3fa5ac64	1.2943234
11	0xbdc056d4	-0.09391561
12	0xbe60990d	-0.21933384
13	0xbf500f43	-0.8127329
14	0xbffcfaa3	-1.9763988
15	0x3f87397e	1.056442
16	0xbe5aa735	-0.21352847
17	0x3f3e4dd0	0.7433748
18	0xbfbdf523	-1.4840435
19	0xbf804a54	-1.0022683
20	0xbd68509a	-0.056717493
21	0x3f79e000	0.9760742
22	0xbe8a0a27	-0.2696087
23	0xbf579713	-0.84214896
24	0x3e82c95a	0.25544244
25	0xbf98d780	-1.1940765
26	0xbfa16d8f	-1.261156
27	0xbf446557	-0.7671713
28	0xbdb029bc	-0.0860171
29	0xbdbcf308	-0.09226042
30	0x3fcdca90	1.6077442
31	0x3fd8b6b5	1.6930758
32	0x3f87af1d	1.0600315
33	0xbf7c7d21	-0.9862843
34	0x404c6dbb	3.1941974
35	0xbf8f518e	-1.1196764
36	0xbfc50452	-1.5391943
37	0x3fc460cf	1.5342044
38	0xbf40e912	-0.7535564
39	0x3ebeb610	0.37248278
40	0x3fd29053	1.6450294
41	0x3f78ae11	0.97140604
42	0xbfac77a5	-1.3474013
43	0x3f8bf2a0	1.0933418
44	0x3f0d808a	0.5527426
45	0xbf1219e3	-0.5707075
46	0x3ec6c808	0.38824487
47	0xbf878287	-1.0586709
48	0x3ecd369f	0.40080735
49	0xbf078f8d	-0.52953416
50	0xbfd274f4	-1.6441941
51	0x40093928	2.1441135
52	0x3efe7c2c	0.4970411
53	0x3f706335	0.9390138
54	0xbf4fa990	-0.81118107
55	0xbf059597	-0.5218138
56	0x3fa9e1be	1.3272016
57	0x403c70ca	2.944384
58	0x3ef458b5	0.47723928
59	0xbfe7de84	-1.8114781
60	0x3f9f74c2	1.2457507
61	0x3f8637f5	1.0485827
62	0xbf0c8b54	-0.549001
63	0xbfa535dc	-1.2907062
64	0xbf9fe5be	-1.2491987
65	0xbef0d20f	-0.47035262
66	0x3f142a81	0.57877356
67	0x3e9bd850	0.3043847
68	0xbef64290	-0.48097658
69	0xbf94d169	-1.1626407
70	0xbf9697a9	-1.1765033
71	0x3f40b3dd	0.7527445
72	0xbf5ce7f9	-0.8629146
73	0xbe988e86	-0.29796237
74	0xbed68806	-0.41900653
75	0x3e45d32a	0.19318834
76	0xbec75b96	-0.38937062
77	0xbe1d15c3	-0.15340333
78	0x3f7f52ce	0.99735725
79	0xbf07fc9f	-0.53119844
80	0x3fab4097	1.3379086
81	0x3ef3e9a4	0.4763919
82	0xbe8f8947	-0.28034422
83	0x3e385db1	0.1800449
84	0x3f26b12e	0.65114105
85	0x3e88f950	0.2675271
86	0x3fb7fe17	1.4374417
87	0xbf72695f	-0.94692034
88	0xbf8a1f27	-1.0790757
89	0xbf7febf5	-0.99969417
90	0x3f7bae65	0.9831298
91	0xbec6a5a5	-0.38798252
92	0xbf1c17e7	-0.6097397
93	0xc0008a64	-2.0084467
94	0x4000798a	2.0074182
95	0x3f260990	0.6485834

0 f4 [4, 4, 5]
0	0xbfcd8d6f	-1.6058787
1	0x3e0f4502	0.13991168
2	0x3ff0c438	1.8809881
3	0x3fa40f4b	1.2817167
4	0x3faf4c49	1.3695155
5	0xbf9e706a	-1.2378056
6	0x3f25bf38	0.647449
7	0xbec896b5	-0.3917748
8	0xbf7f825a	-0.99808276
9	0x3ff1688c	1.886003
10	0x3f220af2	0.6329795
11	0x3e38d466	0.18049774
12	0xbef26127	-0.47339746
13	0xbf64acfb	-0.8932645
14	0x3f7d9f63	0.9907133
15	0x3e3aea68	0.18253481
16	0xbf82ce14	-1.021914
17	0x3fccbc2f	1.5994929
18	0xbf24b862	-0.64343846
19	0x3eedd674	0.46452677
20	0x3f53bbba	0.82708323
21	0x3f86fea1	1.0546457
22	0xbfca0ffa	-1.5786126
23	0xbfc0a499	-1.5050231
24	0x3f9938a3	1.1970409
25	0xbf86dc5f	-1.0536002
26	0xbf69ff08	-0.9140477
27	0xbfba1d06	-1.4540107
28	0x3ee1473c	0.4399966
29	0xbf66dfee	-0.9018544
30	0x3f81459f	1.0099372
31	0xbce14aa9	-0.027501421
32	0x3f981e57	1.1884259
33	0x3febab45	1.8411642
34	0xbff0f2b9	-1.8824073
35	0xbf440be0	-0.7658062
36	0xbf8f5f71	-1.1201001
37	0x3d037a88	0.032099277
38	0xbf83812b	-1.0273794
39	0x3f9401a8	1.1563005
40	0xbdccba73	-0.099965
41	0xbf167692	-0.58774674
42	0xbf988387	-1.1915139
43	0x3ef1f5ba	0.47257787
44	0x3f81b457	1.013316
45	0xbc9fabc7	-0.01949109
46	0xbfbb6c2f	-1.464239
47	0x3ecc8f44	0.39953053
48	0x3f33823d	0.701206
49	0x3f9cb613	1.2243065
50	0x3ecc6e81	0.39928058
51	0x3c136095	0.008995195
52	0xbe21c614	-0.15798217
53	0xbe774034	-0.24145585
54	0x400924f6	2.142881
55	0xbfa21a7b	-1.2664331
56	0xbfa5cf2d	-1.295385
57	0x3f891103	1.0708317
58	0x40195116	2.395574
59	0xbf07c901	-0.5304108
60	0xbdbfc095	-0.09362904
61	0x3f2f7f99	0.68554074
62	0x3ffe3ca4	1.9862256
63	0x3e8cbe05	0.27488723
64	0xbf15ca7a	-0.5851208
65	0x3ec8363f	0.39103886
66	0x3f31a94c	0.6939895
67	0xbf800f94	-1.0004754
68	0xbe878dc3	-0.26475343
69	0x3f6574b4	0.896312
70	0x3f2f8820	0.68567085
71	0xbea14b6f	-0.31502864
72	0x3f1dfbcc	0.61712337
73	0x3f09dfb6	0.5385698
74	0xbf0b0384	-0.5430224
75	0x3f9d2623	1.2277263
76	0x3f9e05fc	1.2345576
77	0xbd9b5e73	-0.07586374
78	0xbf6c55e5	-0.92318565
79	0x3f9f46bb	1.244346

0 f4 [1, 11]
0	0x3f1f0848	0.6212201
1	0x3f39d51d	0.7259081
2	0x3fc0fbc5	1.5076834
3	0xbdc60dee	-0.096706256
4	0x3f868bff	1.0511473
5	0x3fbeb41c	1.4898715
6	0x3f874470	1.056776
7	0xbf84b664	-1.0368161
8	0x3fedaf34	1.8569093
9	0xbd142b1f	-0.036173936
10	0xbf48606d	-0.78272134

1 f4 [7, 11]
0	0x3e9e78fb	0.30951676
1	0x3f60789b	0.8768403
2	0xbe426f36	-0.18987736
3	0x3dae4e97	0.085110836
4	0x3f366a74	0.71256185
5	0x3f369859	0.71326214
6	0xbd3b3987	-0.04570916
7	0x3ef5a7b1	0.479795
8	0x401a6049	2.4121268
9	0x3fb57da4	1.4178967
10	0xbf1c841c	-0.6113908
11	0xbfb208cd	-1.3908936
12	0x3fbdf05a	1.4838974
13	0xbd12db15	-0.035853464
14	0x3d9a1975	0.07524387
15	0x3f09cd01	0.53828436
16	0xbe20def8	-0.15710056
17	0xbea71be3	-0.32638463
18	0xbfd3cf3a	-1.6547616
19	0xbf09c898	-0.53821707
20	0x3f7cc12d	0.9873226
21	0xbe35da47	-0.17759047
22	0xbfea37c6	-1.8298271
23	0xbe53e062	-0.20691064
24	0xbe3f343c	-0.1867227
25	0xbfe57c83	-1.7928623
26	0xbe7077fc	-0.2348327
27	0xbd59beb4	-0.053160384
28	0x3fa2cb45	1.2718283
29	0xbf3b17e2	-0.7308332
30	0xbfb960b1	-1.4482633
31	0xbf2d62b8	-0.6772876
32	0xbf000264	-0.5000365
33	0xbf652d69	-0.89522415
34	0x3e687191	0.22699572
35	0x3f967271	1.1753675
36	0xbece470c	-0.4028858
37	0xbfb8dfb0	-1.4443264
38	0xbef5dda3	-0.48020658
39	0x3f7ac2fe	0.97953784
40	0x3d0e2c84	0.034710422
41	0xc05935a9	-3.3939002
42	0xbd6ad121	-0.057328347
43	0xbf8373b8	-1.026969
44	0xbfae22a9	-1.3604327
45	0xbf466169	-0.77492386
46	0xbeca533d	-0.3951663
47	0x3fbf34a2	1.4937937
48	0x3f269931	0.650775
49	0x3f1ae3cf	0.6050386
50	0xbfa53c92	-1.290911
51	0xc011e5d7	-2.2796533
52	0xbe210091	-0.15722872
53	0x3f10b3ef	0.56524557
54	0xbf801dde	-1.0009115
55	0x3ed8cce9	0.42343834
56	0x3f524ee9	0.8215166
57	0xbf6ddd33	-0.9291565
58	0xbf0a6719	-0.54063565
59	0xbf1427e9	-0.578734
60	0xbf252683	-0.6451189
61	0xbf09e32d	-0.5386227
62	0x3eaedd1e	0.34153074
63	0x3d453abb	0.048151713
64	0xbec14ba0	-0.3775301
65	0xbe03632d	-0.12830801
66	0xbf3caed9	-0.73704296
67	0x3e2b6b5c	0.16740173
68	0x40071070	2.1103783
69	0xbf11d516	-0.5696577
70	0xbf126150	-0.5717974
71	0xbe4134fe	-0.18867871
72	0xbf4ed9f2	-0.8080131
73	0xbf2c1b15	-0.67228824
74	0xbea6d275	-0.3258244
75	0xbf74501b	-0.9543473
76	0xbf278159	-0.65431744

2 f4 [3, 11]
0	0x40021196	2.0323234
1	0x3e9767d3	0.295714
2	0xbe0dab7b	-0.13834946
3	0x3e8505bc	0.25980937
4	0x3f779fbb	0.96728104
5	0x3fb26b95	1.3939081
6	0x3b8ce0dd	0.0042992667
7	0xbf702385	-0.938042
8	0x3f97eca7	1.1869096
9	0xbf82f0db	-1.0229753
10	0x3ecc7834	0.39935458
11	0xbf161e5f	-0.5864009
12	0xbf10a085	-0.56494933
13	0xbfd4630d	-1.6592728
14	0x3dfaaeca	0.122403696
15	0x3f8f7aa0	1.1209297
16	0x3f632741	0.8873177
17	0xbfa3355c	-1.2750659
18	0xbd82516c	-0.06363186
19	0x3e413495	0.18867715
20	0xbece1007	-0.40246603
21	0x3f986d64	1.1908383
22	0xbef9e052	-0.48803955
23	0xbce9f890	-0.028560907
24	0x3f5dbde2	0.86617863
25	0xbf64df8f	-0.89403623
26	0xbf577e3a	-0.8417698
27	0x3f7668e5	0.96253806
28	0x3fae39fa	1.3611443
29	0xbf25594b	-0.64589375
30	0xbf6a5b82	-0.9154588
31	0x3e9dac92	0.30795723
32	0x3f078abc	0.52946067

3 f4 [5, 11]
0	0xbef7e7a6	-0.4841892
1	0xbfa9a8e3	-1.3254665
2	0xbe0cb8d3	-0.1374238
3	0xbd390042	-0.04516626
4	0xbe8fd573	-0.28092536
5	0xbf2fdbcf	-0.68694776
6	0xbe595e01	-0.21227266
7	0x3f7063c3	0.93902224
8	0x3f3250b9	0.69654423
9	0xbe2c1a4d	-0.16806908
10	0x3e3fbdbc	0.18724722
11	0xbe7c0fb9	-0.24615373
12	0xbf80357b	-1.0016321
13	0x3f18d435	0.596988
14	0xbf0e234e	-0.5552262
15	0x3e52863b	0.20559017
16	0x3e815d55	0.2526652
17	0xbf0108b0	-0.5040388
18	0xbf282889	-0.6568685
19	0x3f8d2523	1.1026958
20	0xbfdc940c	-1.723268
21	0xbe7f241f	-0.24916123
22	0xbfae45e7	-1.3615083
23	0xbfae490f	-1.3616046
24	0x3e376991	0.17911364
25	0xbf12e37e	-0.57378376
26	0x3e015e0c	0.12633532
27	0xbf9113fd	-1.1334225
28	0x3f513c8f	0.8173303
29	0x3f6241f9	0.88381916
30	0x3ed536b1	0.4164329
31	0x3f98602e	1.1904352
32	0xbc52eacd	-0.012873364
33	0xbfc55636	-1.5416934
34	0x3f6183dc	0.88091826
35	0xbfae5365	-1.36192
36	0xbf97549f	-1.1822699
37	0x3e6328e3	0.22183566
38	0xbf327753	-0.69713324
39	0x3f246b80	0.6422653
40	0x3f8bc51e	1.091953
41	0xbdb7f702	-0.0898266
42	0xbe4131f3	-0.1886671
43	0x3faaa6e0	1.3332176
44	0xbf938430	-1.1524715
45	0xbfb6e189	-1.4287578
46	0x3ecb218a	0.39674026
47	0xbef54fa4	-0.47912323
48	0xbf747a87	-0.9549946
49	0x3ffbdaa7	1.9676102
50	0xbd3717d4	-0.04470046
51	0xbfd2ea45	-1.6477743
52	0x3f535027	0.8254418
53	0xbeefba30	-0.46821737
54	0x3d9d3d6a	0.076777294

weight f4 [128, 11]
0	0xbcea643c	-0.028612249
1	0xbe951d8a	-0.291241
2	0xbd036a17	-0.032083597
3	0x3e520bd1	0.2051232
4	0x3db5c7d2	0.08876003
5	0xbe4259be	-0.18979546
6	0xbe8ff409	-0.28115872
7	0x3db486b2	0.088147536
8	0x3dc8eb4e	0.09810506
9	0xbdd1bcd9	-0.10241098
10	0xbe353890	-0.17697358
11	0xbd2c8cec	-0.04212658
12	0x3e24e1e5	0.16101797
13	0xbe582974	-0.21109563
14	0x3e12ca13	0.14334898
15	0x3e0c0bc6	0.13676366
16	0x3bd9454e	0.006630576
17	0xbcebf3ce	-0.028802779
18	0xbe1d605c	-0.1536879
19	0xbe5cc8d4	-0.21560985
20	0xbe94cc16	-0.29061955
21	0xbd80adec	-0.06283173
22	0xbe456685	-0.1927739
23	0x3e6d23a1	0.23158123
24	0xbe634763	-0.221952
25	0x3dee43c4	0.11634019
26	0x3e781365	0.24226148
27	0xbdfbe93c	-0.12300345
28	0xbdb2579a	-0.08708115
29	0x3d7216f2	0.059103914
30	0xbd17a998	-0.03702697
31	0xbdcef63d	-0.1010556
32	0xbe830436	-0.2558915
33	0xbe748d43	-0.23882012
34	0xbdeb32c8	-0.11484295
35	0xbe3d75c4	-0.18501955
36	0x3da7a1ca	0.08185156
37	0x3e927c66	0.28610533
38	0x3e38a91b	0.18033259
39	0x3e65833c	0.22413343
40	0x3e2735b0	0.16329074
41	0xbdd9c0bd	-0.10632465
42	0xbd55246f	-0.0520367
43	0x3e8e526b	0.27797255
44	0x3e22e423	0.1590734
45	0x3e58a60f	0.21157096
46	0x3e895e70	0.26829863
47	0xbe8f3f4a	-0.27977973
48	0x3e66cea7	0.22539769
49	0x3d581c4c	0.05276136
50	0xbdf1a1a8	-0.117984116
51	0x3e2e6597	0.17030941
52	0x3c86d74a	0.01646008
53	0x3e83f2bb	0.25771126
54	0x3e4e939c	0.20173496
55	0xbd532c97	-0.051556196
56	0xbe60c601	-0.21950532
57	0x3e5e3ab6	0.21702084
58	0x3e8bce48	0.27305818
59	0x3d837092	0.064179555
60	0xbe6ec5ac	-0.23317593
61	0xbe44d361	-0.1922126
62	0xbd2b500c	-0.041824386
63	0x3df1e8c9	0.11811978
64	0x3ddd0435	0.10791818
65	0xbe0ff502	-0.14058307
66	0x3e8a177b	0.2697104
67	0xbe89e063	-0.26929006
68	0xbd28a23d	-0.041170347
69	0xbdebb405	-0.115089454
70	0xbce08f1b	-0.027411988
71	0x3e07de77	0.13268457
72	0xbe8c9279	-0.274555
73	0x3d4cee8a	0.050032176
74	0x3de9dc57	0.114189796
75	0x3e673356	0.22578177
76	0x3e89dd1f	0.26926515
77	0x3e49f5ca	0.19722667
78	0xbe610260	-0.21973562
79	0x3c844068	0.016143993
80	0xbd91472e	-0.070936546
81	0xbe8ff9a3	-0.28120145
82	0xbd4a3eed	-0.049376417
83	0x3dd2b852	0.102890626
84	0x3dcdd745	0.10050825
85	0xbe950cc6	-0.29111308
86	0x3e8e19f2	0.2775417
87	0x3e6bd431	0.23030163
88	0xbe4a3587	-0.19746982
89	0x3def22ba	0.116765454
90	0x3e875198	0.2642944
91	0xbe50a215	-0.2037433
92	0x3e833d69	0.2563279
93	0xbe4078d5	-0.18796094
94	0x3de48601	0.11158372
95	0x3e98c3f6	0.29837006
96	0xbbe5f547	-0.0070177647
97	0xbddbcd89	-0.10732562
98	0xbdf1e3d7	-0.11811035
99	0xbe73e548	-0.23817933
100	0xbb8a38c5	-0.0042181932
101	0x3db13fbe	0.08654736
102	0xbe0d850a	-0.13820282
103	0x3e49d1e7	0.19708978
104	0x3ca417d8	0.0200309
105	0x3e86e636	0.26347512
106	0x3de79de7	0.11309414
107	0xbe71a739	-0.23598947
108	0x3d776a1d	0.060403932
109	0x3d766189	0.06015161
110	0xbe557d54	-0.2084859
111	0x3e8e910e	0.27845043
112	0xbd2b678f	-0.041846808
113	0x3e449c9d	0.19200368
114	0x3e419f06	0.18908319
115	0x3dcb2310	0.09918797
116	0xbde1a5b4	-0.110179335
117	0x3e515028	0.20440733
118	0x3db68299	0.08911628
119	0xbe544386	-0.20728883
120	0xbd8acea9	-0.067776985
121	0xbd21827a	-0.039431073
122	0xbdaa1dbc	-0.08306453
123	0xbe8688c9	-0.26276234
124	0x3e943fb9	0.28954867
125	0xbd91787a	-0.07103057
126	0xbe3909e4	-0.18070179
127	0x3e3fc140	0.18726063
128	0x3e3087bf	0.17239283
129	0xbe5731c0	-0.21015072
130	0x3e7abdf0	0.24486518
131	0xbd08ed55	-0.033429462
132	0xbd0b872a	-0.03406445
133	0x3e9560a8	0.29175305
134	0x3a96f7e3	0.0011517968
135	0x3e938ca1	0.2881823
136	0x3be99bd9	0.007129174
137	0xbe9524c0	-0.291296
138	0x3e43fb30	0.19138789
139	0x3da12f52	0.07870354
140	0xbd852cf9	-0.065027185
141	0xbe01b485	-0.12666519
142	0xbd9ddea3	-0.0770848
143	0x3e95445e	0.29153723
144	0xbdb320d2	-0.08746494
145	0xbdf48365	-0.11939124
146	0x3e2eb1f6	0.17060074
147	0x3e9a6f24	0.3016292
148	0xbda372cb	-0.079808794
149	0xbd52903c	-0.051407084
150	0xbe241a9f	-0.1602578
151	0xbe2f681b	-0.17129557
152	0x3dffb5c0	0.12485838
153	0x3e259002	0.16168216
154	0x3e861e3a	0.26194936
155	0x3e96ebfc	0.29476917
156	0xbe50c4ff	-0.20387648
157	0x3ce3ab3d	0.027791614
158	0xbdfb36aa	-0.12266286
159	0x3dcf76b0	0.1013006
160	0xbdabcbe8	-0.083885014
161	0x3c4338aa	0.011915365
162	0x3d601444	0.054706827
163	0x3e17a4c5	0.14808948
164	0xbe2f7a17	-0.17136417
165	0xbe3f9b74	-0.18711644
166	0xbd9d45ca	-0.07679327
167	0x3e9f4715	0.3110892
168	0x3e2574bf	0.16157816
169	0x3e3c5b33	0.18394165
170	0x3e5947d9	0.21218814
171	0x3db648a2	0.08900572
172	0xbe33c679	-0.1755618
173	0xbd874bcc	-0.06606254
174	0x3e77a8cc	0.24185485
175	0x3e79b61e	0.24385878
176	0xbe37aa68	-0.17936099
177	0x3c3d0f0e	0.011539234
178	0xbdd8349c	-0.105569094
179	0x3e2f3877	0.17111383
180	0x3e92a5e8	0.286422
181	0xbe7245e7	-0.23659478
182	0xbe3377b7	-0.17526136
183	0xbd630d78	-0.055432767
184	0xbe8bcf9b	-0.27306828
185	0x3e921b9d	0.28536692
186	0xbd7ab601	-0.06120873
187	0xbbd87123	-0.006605284
188	0xbdc6083b	-0.096695386
189	0x3e0fab88	0.14030278
190	0x3e68e322	0.22742894
191	0xbd7827c0	-0.060584784
192	0x3e1b90f8	0.1519202
193	0x3e831db4	0.256086
194	0xbe107f7f	-0.14111136
195	0x3c5d145e	0.013493625
196	0xbcac4c03	-0.021032339
197	0x3e475aff	0.19468306
198	0xbe71e1a3	-0.2362123
199	0xbe8b0f33	-0.27160034
200	0x3e0e9ae5	0.13926275
201	0xbe227750	-0.15865827
202	0xbd464b9d	-0.048411954
203	0xbe9c226a	-0.30495006
204	0x3e815d45	0.25266472
205	0xbcf23a73	-0.029568886
206	0x3d9a426d	0.07532201
207	0x3e0ccdeb	0.13750426
208	0xbe2eb316	-0.17060503
209	0xbe8dafcc	-0.27673185
210	0xbe5fb1f5	-0.21845229
211	0x3c81b4c4	0.015833266
212	0x3d971ada	0.073781684
213	0x3e1dc767	0.15408097
214	0xbde2923a	-0.11063047
215	0xbe6706e0	-0.22561216
216	0x3e6c721c	0.23090404
217	0xbceabb97	-0.028653903
218	0xbe08daf6	-0.13364777
219	0xbe956fe5	-0.2918693
220	0xbe646e4d	-0.22307701
221	0x3d2fe3d2	0.042941876
222	0xbd96a9c0	-0.07356596
223	0xbe809e73	-0.25120887
224	0xbd281a2c	-0.041040584
225	0xbd9ef48e	-0.07761489
226	0x3d929504	0.07157329
227	0x3e3df47e	0.18550298
228	0x3e549ed5	0.20763715
229	0xbc47d2f2	-0.012196289
230	0xbd032d25	-0.032025475
231	0x3e6ac693	0.22927313
232	0x3db8764b	0.090069376
233	0x3e64109a	0.22271958
234	0x3e506a51	0.20353056
235	0x3e8e2148	0.27759767
236	0x3d57a0d9	0.05264363
237	0x3d892d71	0.066981204
238	0x3e452588	0.19252598
239	0xbe919afe	-0.28438562
240	0x3e6a5040	0.22882175
241	0xbe74f3c1	-0.2392111
242	0xbda8dbd0	-0.08245051
243	0x3dcb8af7	0.09938615
244	0xbcb5bf6c	-0.022186004
245	0xbcab9fdb	-0.020950248
246	0x3d7f448d	0.062321234
247	0x3df046c4	0.117322475
248	0x3dce52df	0.100744
249	0x3e6fb5ef	0.23409246
250	0xbe1589d0	-0.14603353
251	0x3e5de3d3	0.2166894
252	0x3d2a5a90	0.041590273
253	0x3e8d7da0	0.27634907
254	0x3c80ef14	0.015739001
255	0xbe359fee	-0.1773679

bias f4 [128]
0	0xbdcbd9d5	-0.099536575
1	0xbd2aa8ff	-0.041665073
2	0x3e1c3d40	0.1525774
3	0xbdc97d5b	-0.09838363
4	0xbddf69b2	-0.10908832
5	0x3d930c53	0.07180085
6	0x3e6af5a7	0.22945271
7	0xba907897	-0.0011022267
8	0x3d812bae	0.06307159
9	0xbd0695d1	-0.03285772
10	0xbd93535f	-0.07193636
11	0x3b804249	0.003914152
12	0x3d30d0ff	0.043168064
13	0x3e4dd4af	0.20100664
14	0xbd0cb4c5	-0.034352083
15	0x3c5305e9	0.012879827
16	0xbe1df731	-0.15426327
17	0x3e9f45da	0.3110798
18	0x3e0ec172	0.13940981
19	0xbe30f038	-0.17279136
20	0xbe0bf34e	-0.13667032
21	0x3e470cea	0.1943852
22	0xbd98b206	-0.0745583
23	0x3e64304a	0.22284046
24	0x3e6c7c3b	0.23094265
25	0x3dd033fe	0.10166167
26	0x3e830907	0.25592825
27	0xbe821d98	-0.25413203
28	0x3db03c3b	0.08605238
29	0x3e6f566e	0.23372814
30	0x3db56309	0.0885678
31	0x3e5ed460	0.21760702
32	0x3e8e73c5	0.278227
33	0x3dac11e7	0.08401852
34	0x3e67a381	0.22620966
35	0xbe88e392	-0.26736122
36	0x3e263f87	0.16235171
37	0x3c8d58f9	0.01725434
38	0xbd3e8972	-0.046517797
39	0xbd2cd7ff	-0.042198177
40	0x3ea0dce2	0.3141852
41	0x3e44a5b5	0.19203837
42	0xbe2cf501	-0.16890337
43	0x3e2f67de	0.17129466
44	0xbe7852b6	-0.24250302
45	0x3d5c2ca5	0.053753514
46	0xbc41ad6e	-0.011821134
47	0x3d7c7bb0	0.061641395
48	0xbcab5dea	-0.020918805
49	0xbd7fb84b	-0.062431615
50	0x3e3fd5d8	0.18733919
51	0xbe3adf8d	-0.1824934
52	0x3c6e3758	0.014539562
53	0xbe3f18fd	-0.18661876
54	0x3e241241	0.16022588
55	0x3e27ab23	0.16373877
56	0xbd519b0c	-0.051173255
57	0x3e6d97b6	0.23202404
58	0xbe271e15	-0.16320069
59	0xbd7f15ee	-0.062276773
60	0x3d55336c	0.052050993
61	0x3e92703b	0.2860125
62	0x3e2d6df4	0.16936475
63	0xbe95d392	-0.29262978
64	0xbe0ffc38	-0.14061058
65	0x3e1c3566	0.15254745
66	0xbdb8f0ea	-0.09030326
67	0x3d6c9605	0.057760257
68	0xbb025106	-0.001988472
69	0xbe2ac174	-0.16675359
70	0x3cd43561	0.02590436
71	0x3e8e0830	0.27740622
72	0xbce6baac	-0.028165184
73	0x3e4c19c7	0.19931708
74	0xbe664140	-0.22485828
75	0x3e881e8f	0.26585814
76	0x3df5684c	0.11982784
77	0xbe8b3321	-0.27187446
78	0x3e9ea7f3	0.3098751
79	0xbda43f1c	-0.0801985
80	0xbc8d5257	-0.017251177
81	0x3e3de6e5	0.1854511
82	0x3e2b214f	0.16711925
83	0xbe807900	-0.25092316
84	0xbd12c0fb	-0.03582857
85	0x3e3819f0	0.17978644
86	0x3db2aeaf	0.087247245
87	0xbe0f928b	-0.14020745
88	0xbe667cc2	-0.22508529
89	0xbd95a39b	-0.07306596
90	0x3e7cddf2	0.2469404
91	0xbdb0b318	-0.086279094
92	0xbd0930de	-0.03349387
93	0x3e622cb9	0.22087373
94	0xbbf23edb	-0.007392747
95	0xbd9fc5f1	-0.07801426
96	0x3e5c38bc	0.21506017
97	0xbc8cee4f	-0.017203478
98	0xbda61890	-0.08110154
99	0x3e3ece8c	0.18633479
100	0x3e50b13a	0.20380107
101	0xbcf80854	-0.030277409
102	0xbe8af58c	-0.27140462
103	0xbe872c04	-0.2640077
104	0xbc255dc2	-0.010093154
105	0x3e8fe520	0.28104496
106	0x3e1860d7	0.14880691
107	0x3e9a3358	0.30117297
108	0xbdf08af2	-0.11745252
109	0x3e6c0d9a	0.23052064
110	0x3e6db001	0.23211671
111	0xbe344eaf	-0.1760814
112	0xbe87d931	-0.2653289
113	0xbe1f2d20	-0.15544558
114	0xbe817782	-0.2528649
115	0x3cb57e59	0.022154974
116	0xbe885491	-0.2662702
117	0xbd813934	-0.06309739
118	0xbe845bee	-0.25851387
119	0x3e99e0b8	0.3005426
120	0x3c8656fd	0.016398901
121	0x3e044f4b	0.12920873
122	0x3e14f235	0.1454552
123	0x3e5cca14	0.21561462
124	0x3ca81dce	0.020522024
125	0x3e50f8ab	0.2040736
126	0x3c7abb8b	0.015303503
127	0x3e9652ed	0.29360142

weight f4 [256, 128]
0	0x3d8b9baf	0.06816804
1	0xbd8c59b4	-0.06853047
2	0xbd88ae70	-0.06673896
3	0x3ccf1c0f	0.025281934
4	0x3cf1c9f7	0.02951525
5	0x3c8fee78	0.017569765
6	0xbd0f7ee6	-0.03503313
7	0x3c496722	0.012292655
8	0x3cfa6873	0.030567383
9	0xbd40bf61	-0.047057513
10	0x3c5edfd7	0.013603172
11	0x3bf7ac3b	0.0075583733
12	0xbbff19e8	-0.0077850707
13	0x3c6c4f48	0.014423199
14	0xbcd816b9	-0.026378023
15	0xbd26c8cf	-0.04071885
16	0x3d47f373	0.048816156
17	0x3cf284cd	0.02960434
18	0xbd821b8f	-0.06352913
19	0xbcfbc7e0	-0.030734956
20	0xbd7a303d	-0.06108116
21	0xbd4374b8	-0.047718734
22	0xbd50f295	-0.051012594
23	0xbd456056	-0.048187576
24	0xbd3a481c	-0.045478925
25	0xbda9cac9	-0.08290631
26	0xbd4403a7	-0.047855046
27	0x3d09c8f6	0.033638917
28	0xbd79299f	-0.06083071
29	0xbd986788	-0.07441622
30	0x3d14f423	0.03636564
31	0x3d50fba7	0.051021244
32	0x3cba7b57	0.022763891
33	0x3dac5d60	0.08416247
34	0x3b9ac9e9	0.0047237766
35	0xbd4b3523	-0.049611222
36	0xbd815070	-0.0631417
37	0x3ce13f97	0.027496142
38	0xbca345f5	-0.019930819
39	0x3d8192fe	0.06326865
40	0xbd14bc21	-0.036312226
41	0x3d797cf3	0.060910176
42	0x3d7c53ad	0.061603237
43	0xbd95df3e	-0.07317971
44	0x3d3ff7ab	0.046867054
45	0xbd8ac38b	-0.06775578
46	0xbd59fe48	-0.053221017
47	0x3ca95a9e	0.020673092
48	0x3bf424e3	0.0074506863
49	0xbb994b5d	-0.0046781735
50	0xbdb21a61	-0.086964376
51	0xbda2a890	-0.07942307
52	0x3cfedd4a	0.031111378
53	0x3d909a25	0.07060651
54	0x3d2b5a05	0.041833896
55	0x3d9d1f1b	0.076719485
56	0x3d654921	0.055977944
57	0xbd8d45c5	-0.06898073
58	0x3d965a49	0.07341439
59	0xbd97ebd0	-0.074180245
60	0x3cd4274d	0.025897646
61	0xbc9949d1	-0.018711956
62	0xbd208752	-0.03919155
63	0xbdb0a6cb	-0.08625563
64	0x3d612cd4	0.054974392
65	0xbdb47bff	-0.08812713
66	0xbcbcb39d	-0.023034865
67	0x3d0dc0ff	0.034607884
68	0xbd33ff74	-0.04394479
69	0x3d87fee3	0.06640413
70	0x3d501505	0.050801296
71	0x3d4a2463	0.049351107
72	0x3d6d968e	0.05800491
73	0xbae862a9	-0.0017729598
74	0x3d284a45	0.041086454
75	0xbd24b287	-0.04020932
76	0xbdb6d860	-0.08927989
77	0x3b183aa9	0.0023228324
78	0x3c56b2b0	0.013104126
79	0x3dae1d17	0.08501642
80	0x3b8a972f	0.0042294483
81	0x3d140e73	0.036146592
82	0x3c0b50c9	0.008503147
83	0xbb5b2cf0	-0.0033443533
84	0xbb70cbff	-0.0036742685
85	0xbd8e626a	-0.06952365
86	0xbd79a1ef	-0.060945448
87	0x3d6f52ca	0.058428563
88	0xbda428dd	-0.080156066
89	0x3d8fa4e7	0.070138745
90	0xbca6656e	-0.020312037
91	0x3d1953cf	0.03743344
92	0x3d2d640e	0.042331748
93	0x3ca7c977	0.020481808
94	0xbd9bf4db	-0.07615062
95	0x3d750251	0.059816662
96	0x3a778d48	0.0009443355
97	0x3d9c934a	0.07645281
98	0x3d88841a	0.066658214
99	0x3d9845c5	0.074351825
100	0x3d27c821	0.040962342
101	0xbbaf3615	-0.0053470233
102	0x3c2763e8	0.010216691
103	0x3d0c3145	0.034226675
104	0xbd60768a	-0.054800548
105	0xbd501187	-0.050797965
106	0x3d503ccd	0.050839234
107	0x3da4b07d	0.08041475
108	0x3d0e3e9e	0.034727685
109	0xbc400380	-0.011719584
110	0x3d54e39a	0.05197487
111	0x3cf02295	0.029313365
112	0xbd7edfd3	-0.062225174
113	0xbd4e4708	-0.05036071
114	0xbd6b4970	-0.057443082
115	0x3d27484f	0.040840443
116	0xbd4007c6	-0.046882413
117	0xbd0cb588	-0.03435281
118	0xbda5ae8e	-0.08089934
119	0xbcc9ee9b	-0.024649909
120	0xbc513a47	-0.012770242
121	0xbd5c67d7	-0.053809967
122	0x3d8dbf2e	0.0692123
123	0x3d634fff	0.055496212
124	0xbda58037	-0.08081096
125	0xbcb43f61	-0.022002878
126	0xbd4f88ec	-0.05066769
127	0xbd980699	-0.074231334
128	0xbcc49e3f	-0.024001239
129	0x3ce55f2f	0.027999489
130	0xbcdb6d94	-0.02678565
131	0x3d86e271	0.06586159
132	0x3d89b459	0.06723852
133	0xbb97afeb	-0.0046291254
134	0x3cb9a5bb	0.022662034
135	0xbcd582b6	-0.026063304
136	0x3ccff151	0.025383623
137	0x3c582d94	0.01319446
138	0x3c7f50c0	0.015583217
139	0xbb576512	-0.003286664
140	0x3d40a69c	0.04703389
141	0xbce8d4d0	-0.02842179
142	0xbd5823c5	-0.052768487
143	0xbdb07223	-0.0861552
144	0xbdaf4929	-0.08558876
145	0x3ce34bf3	0.027746176
146	0x3daf108f	0.0854808
147	0xbd5f773f	-0.05455708
148	0x3d6c8e8c	0.05775313
149	0x3d3ddcff	0.046353336
150	0x3cc8d167	0.024513913
151	0x3d9a9579	0.07548041
152	0x3d9af4ec	0.075662464
153	0xbda38521	-0.07984377
154	0x3c0fd948	0.008779831
155	0xbc400851	-0.011720733
156	0xbd36c147	-0.044617917
157	0xbd86db9f	-0.06584858
158	0xb979f656	-0.00023838258
159	0x3cc34243	0.023835307
160	0x3d526239	0.051363204
161	0xbcbab5fd	-0.022791857
162	0xbce7afc3	-0.028282052
163	0xbd4c9865	-0.049950022
164	0xbc7389f5	-0.0148644345
165	0x3d5c9879	0.053856347
166	0x3d351f69	0.04421941
167	0x3cb0d8d2	0.021587763
168	0xbd38747b	-0.04503296
169	0xbca4b15a	-0.020104099
170	0x3d7960ea	0.06088344
171	0xbd92c669	-0.0716675
172	0x3d37b6cf	0.044852074
173	0xbcb696d4	-0.022288717
174	0xbc8ac5e2	-0.016940061
175	0x3d00ff11	0.03149325
176	0xbd99eff3	-0.0751647
177	0xbdad2bc0	-0.0845561
178	0xbd94c7b8	-0.07264656
179	0xbc8640f2	-0.01638839
180	0x3c4b5955	0.012411435
181	0x3d3ff148	0.046860963
182	0xbc81b282	-0.01583219
183	0xbd8ecbe1	-0.069724806
184	0x3d1e0871	0.03858227
185	0xbd471b27	-0.04860988
186	0xbb843c08	-0.0040354766
187	0x3d5b2a53	0.05350716
188	0x3cfe95db	0.031077316
189	0x3dabaa5c	0.08382103
190	0xbd4e9216	-0.050432287
191	0xbda2073a	-0.079115346
192	0xbd9263d3	-0.07147946
193	0x3db2860e	0.08716975
194	0x3cb65988	0.022259489
195	0x3c3a3540	0.011365235
196	0xbb7a7953	-0.0038219288
197	0x3ca8f4d1	0.02062455
198	0xbda627e7	-0.081130795
199	0xbc8ac6a8	-0.01694043
200	0xbd1ff1bc	-0.039048895
201	0xbd20c929	-0.03925434
202	0x3b8dfb25	0.0043329173
203	0xbb27f565	-0.0025628444
204	0xbd1c3d2a	-0.038144268
205	0xbc068d34	-0.008212376
206	0x3d94e5e3	0.0727041
207	0xbccb8a5e	-0.024846252
208	0xbd123409	-0.035694156
209	0x3d2a52db	0.041582923
210	0xbcf33b50	-0.029691368
211	0x3cbdd663	0.023173517
212	0x3d87fce6	0.066400334
213	0xbcddd737	-0.027080161
214	0xbd5d7679	-0.054068062
215	0x3c072f9e	0.008251099
216	0xbd178aa9	-0.03699747
217	0x3cbf5878	0.023357615
218	0xbd47f9bc	-0.04882215
219	0x3ca7da15	0.020489732
220	0xbd653435	-0.05595799
221	0xbcc16639	-0.023608314
222	0x3d4db44c	0.050220773
223	0x3bd7ec92	0.0065894807
224	0x3d74db5c	0.05977951
225	0x3d01db3c	0.03170322
226	0x3d6b7e1f	0.057493325
227	0xbb36a542	-0.0027869497
228	0x3cb5dfbc	0.022201411
229	0x3d3ec372	0.04657311
230	0x3c87045a	0.016481567
231	0x3d87b63c	0.06626555
232	0x3d406862	0.046974547
233	0xbce72b67	-0.028218938
234	0xbd9f6cbd	-0.07784412
235	0xbd9418e6	-0.072313115
236	0x3d811529	0.06302864
237	0xbd82c305	-0.06384853
238	0x3d3d10af	0.04615849
239	0x3d4383db	0.04773317
240	0xbd703de7	-0.058652785
241	0xbda2e580	-0.0795393
242	0x3cafbe71	0.021453114
243	0xbcaeada2	-0.021323029
244	0x3d33409a	0.04376278
245	0x3d43a399	0.04776344
246	0x3b9b38d6	0.004737
247	0xbd1b8299	-0.037966345
248	0x3d525a42	0.051355608
249	0xbc487a6e	-0.012236221
250	0x3d1919de	0.037378184
251	0xbda5c81a	-0.08094807
252	0xbc236388	-0.009972461
253	0xbd4e320d	-0.0503407
254	0x3c8b9494	0.017038621
255	0x3d989824	0.074508935

bias f4 [256]
0	0x3bc04e13	0.005868682
1	0xbd411871	-0.04714245
2	0xbcc9879d	-0.024600798
3	0x3c49b850	0.01231201
4	0xbd7ad0f6	-0.061234437
5	0x3dc45ffb	0.09588619
6	0x3d639e11	0.055570666
7	0x3d48ae66	0.048994444
8	0x3d968fa2	0.073516145
9	0xbd3c1af7	-0.045924153
10	0x3d238631	0.039922897
11	0x3d254fe0	0.040359378
12	0x3d1974ba	0.037464835
13	0xbcfc1f5c	-0.030776672
14	0x3be8730a	0.007093792
15	0x3d9a4e29	0.07534439
16	0x3dc544fe	0.096323
17	0xbd7c5e4a	-0.06161336
18	0x3da8f004	0.08248904
19	0xbcb19817	-0.021678967
20	0x3d3ec7de	0.046577327
21	0x3d3f8347	0.046756055
22	0x3d51c500	0.051213264
23	0xbc919cd2	-0.017774973
24	0x3c9b33bc	0.018945567
25	0x3d9842e0	0.074346304
26	0xbd2c0f04	-0.042006508
27	0xbd73fae2	-0.059565432
28	0xbd1c02dc	-0.038088664
29	0xbc9f3247	-0.019433154
30	0x3dac27e5	0.08406047
31	0xbd4ac603	-0.049505245
32	0x3cb9354c	0.022608422
33	0xbca005ae	-0.019533958
34	0x3bd865ed	0.0066039474
35	0xbd1e82c5	-0.03869893
36	0x3d24c089	0.04022268
37	0x3dcf01e1	0.1010778
38	0xbcd32fc5	-0.025779614
39	0x3d7b88c6	0.061409734
40	0x3d80c9ed	0.06288514
41	0xbd9db0ac	-0.07699713
42	0xbd0c4471	-0.03424496
43	0xbd8b960a	-0.06815727
44	0x3b9fa5cd	0.00487206
45	0x3d9d8bdb	0.07692691
46	0xbd40fe78	-0.04711768
47	0x3d78f30f	0.060778674
48	0x3c4ad35e	0.012379495
49	0x3d60c2c2	0.054873236
50	0x3a803aa3	0.00097831
51	0x3d532d7d	0.051557053
52	0x3d8c59fc	0.06853101
53	0xbd9dbb4a	-0.07701738
54	0xbd678a87	-0.056528594
55	0x3bfdd60d	0.007746464
56	0xbcfe743f	-0.03106129
57	0x3ccdba81	0.025113346
58	0xbc97bea2	-0.018523518
59	0x3c49e132	0.012321757
60	0x3dd0fa5d	0.10204003
61	0x3d22eb55	0.03977521
62	0xbd0f8bfb	-0.035045605
63	0x3c8bb1d6	0.017052572
64	0xbd92040e	-0.071296796
65	0x3ccc5c92	0.024946485
66	0xbd41994a	-0.04726533
67	0xbd633c24	-0.055477276
68	0xbd844a33	-0.06459465
69	0xbccb8161	-0.024841966
70	0xbdb3a084	-0.0877085
71	0xbd8f8aca	-0.07008894
72	0xbd64f22d	-0.05589502
73	0x3d008bbd	0.031383265
74	0x3c3dbcab	0.0115806265
75	0xbc40539f	-0.011738687
76	0xbc05e40a	-0.0081720445
77	0xbdb1e036	-0.08685343
78	0x3db40dab	0.087916695
79	0x3cf7816d	0.030213082
80	0x3da65e1c	0.08123419
81	0x3d9be265	0.07611541
82	0x3cec8747	0.028873099
83	0x3d6f229a	0.058382608
84	0xbb8a50ba	-0.004221049
85	0x3b1bf39a	0.002379632
86	0xbd6ee010	-0.05831915
87	0xbc306aec	-0.01076768
88	0x3d8ed12c	0.0697349
89	0xbc87e0fa	-0.01658677
90	0x3d1cbbc2	0.038264997
91	0x3d792c6a	0.060833372
92	0x3d8e39a4	0.06944588
93	0xbd1313ac	-0.035907432
94	0x3d83eebd	0.0644202
95	0x3d920d5c	0.07131454
96	0x3d976cfa	0.073938325
97	0x3d3e3a08	0.04644206
98	0xbd9e39f0	-0.077258945
99	0x3d5fc732	0.054633327
100	0x3d688634	0.05676861
101	0x3ce0977e	0.027415987
102	0x3ad62210	0.0016337056
103	0x3c69838e	0.0142525565
104	0x3db46c03	0.08809664
105	0xbdb2778b	-0.08714207
106	0x3d8a261e	0.067455515
107	0x3d9ea051	0.07745422
108	0x3d2db8b8	0.04241249
109	0x3c5f8c48	0.0136442855
110	0xbdbe6997	-0.092974834
111	0xbd302082	-0.042999752
112	0x3c7581dc	0.014984574
113	0xbc89ac07	-0.016805662
114	0xbc8084e2	-0.015688363
115	0xbc697a69	-0.014250376
116	0x3d4c510a	0.049881972
117	0x3c74961d	0.014928368
118	0x3d9c0f60	0.0762012
119	0xbc812505	-0.015764723
120	0xbd1fefad	-0.039046932
121	0x3da5aa2b	0.080890976
122	0x3db30eaf	0.08743035
123	0x3d84145e	0.06449197
124	0x3d54c84f	0.05194884
125	0x3d2a0b0a	0.041514434
126	0xbd3613dc	-0.044452533
127	0xbcd26ef1	-0.025687667
128	0x3c1571e6	0.009121394
129	0xbc8f8929	-0.017521458
130	0x3d3cad25	0.04606356
131	0x3d864028	0.065552056
132	0x3d6db0a0	0.05802977
133	0x3d8ae5e7	0.06782132
134	0xbc10a429	-0.008828201
135	0xbc1e27a3	-0.009653005
136	0x3c3f66a7	0.011682189
137	0x3ce0b3de	0.027429517
138	0x3d738dcb	0.059461396
139	0x3c470844	0.012147967
140	0xbc3cb1ed	-0.01151703
141	0x378431de	1.5758847e-05
142	0x3c99b91f	0.01876503
143	0x3c8e026a	0.017335135
144	0x3d99fea3	0.07519271
145	0xbd565294	-0.052324846
146	0xbd8e3c0a	-0.06945045
147	0x3dabe9ff	0.083942406
148	0x3d9de39b	0.07709428
149	0x3d8e03b4	0.069343
150	0x3bdaebde	0.0066809496
151	0x3d8765b7	0.066111974
152	0x3d3213ed	0.043476034
153	0x3c490e1e	0.012271432
154	0xbca27e81	-0.019835712
155	0x3cdc7f13	0.026916062
156	0x3d8aeb8f	0.067832105
157	0xbd6f9e60	-0.058500648
158	0xbd388381	-0.045047287
159	0x3d95193a	0.07280202
160	0x3d35d087	0.04438832
161	0xbc191042	-0.009342255
162	0xbd06c00d	-0.032897998
163	0xbce99273	-0.028512215
164	0xbda0de76	-0.07854931
165	0x3dbf2fd0	0.093352914
166	0x3d7260d2	0.059174366
167	0x3d9e1650	0.077190995
168	0x3d50976e	0.050925665
169	0x3cedf162	0.029045764
170	0xbc9b24d1	-0.018938454
171	0x3d5f1b28	0.054469258
172	0x3d0705cf	0.032964524
173	0xbd5a7c14	-0.053340986
174	0x3c43aa20	0.011942416
175	0xbd1388f1	-0.03601927
176	0xbdc140df	-0.09436201
177	0xbd178c75	-0.036999185
178	0xbd40aaa1	-0.047037724
179	0x3d855392	0.065100804
180	0x3d6e14cb	0.0581253
181	0x3c0e9858	0.008703314
182	0xbd8c8e00	-0.06863022
183	0xbd6b0cd1	-0.05738527
184	0xbd886ce9	-0.06661398
185	0xbd2e6a56	-0.04258188
186	0xbd4a357f	-0.049367424
187	0x3c1d7de9	0.009612539
188	0xbd52fb47	-0.051509168
189	0x3d904c66	0.07045822
190	0xbd1749f3	-0.036935758
191	0x3d18ebda	0.0373343
192	0xbd8d658d	-0.06904135
193	0x3d07a37b	0.03311489
194	0x3db30639	0.08741421
195	0x3d898d70	0.0671643
196	0xbc6a4898	-0.014299534
197	0xbcb0df84	-0.021590956
198	0xbd407469	-0.046986017
199	0x3db3e227	0.087833695
200	0xbd18914c	-0.03724794
201	0xbcb31550	-0.021860749
202	0x3d0b253e	0.033971064
203	0xbc4014bd	-0.011723694
204	0xbbdaee63	-0.00668125
205	0x3b609a14	0.0034271525
206	0x3d8a3215	0.06747834
207	0x3d942840	0.072342396
208	0xbd078503	-0.033085834
209	0x3d96d525	0.07364873
210	0x3ce20731	0.02759132
211	0x3dab38f4	0.08360472
212	0xbca717fb	-0.020397177
213	0xbd7e8fd9	-0.062148903
214	0x3ba6277b	0.0050706244
215	0x3c9dbb24	0.019254275
216	0xbc4242bb	-0.01185673
217	0x3d8ed866	0.069748685
218	0x3c9c9514	0.019114055
219	0x3dd32b85	0.10311035
220	0xbd588321	-0.05285943
221	0xbdb2ca8d	-0.0873004
222	0x3d0905be	0.03345274
223	0x3d436981	0.04770804
224	0x3d021fd5	0.03176864
225	0x3c8aff5d	0.01696747
226	0x3d8e7c43	0.06957295
227	0x3c3d8dfd	0.011569497
228	0xbcf3c164	-0.029755302
229	0xbceae6d3	-0.028674519
230	0xbca8a7e5	-0.02058787
231	0x3becbf87	0.0072249803
232	0x3dc49dbb	0.09600397
233	0x3b321be2	0.0027177264
234	0xbd10d515	-0.03535946
235	0x3d2190f6	0.039444886
236	0xbc1aee6a	-0.009456256
237	0x3d19d27a	0.03755424
238	0x3d3544be	0.04425501
239	0xbd9d388a	-0.076767996
240	0xbdbb7f3a	-0.09155126
241	0x3daf3804	0.08555606
242	0x3d19d9c5	0.037561197
243	0xbd53ce15	-0.051710207
244	0xbda25c25	-0.079277314
245	0x3c809450	0.01569572
246	0xbd70dc38	-0.058803767
247	0x3d819f36	0.06329195
248	0x3d85a54a	0.06525667
249	0x3c8cf6d6	0.017207544
250	0x3d87deef	0.06634318
251	0xbd38f76b	-0.04515783
252	0x3cd1a37b	0.025590649
253	0x3c2672de	0.010159222
254	0xbcedf6e2	-0.029048387
255	0x3c5d568b	0.013509403

weight f4 [128, 256]
0	0x3ac0c000	0.0014705658
1	0xbd266dbe	-0.040632002
2	0xbd446a8a	-0.047953166
3	0x3d5c2e70	0.053755224
4	0xbb6ec580	-0.0036433637
5	0xbd032a7d	-0.03202294
6	0xbc6ee5e3	-0.014581176
7	0x3d672619	0.056432817
8	0xbce7cc7f	-0.028295754
9	0xbb0657c0	-0.002049908
10	0x3d430804	0.047615066
11	0x3d27b50b	0.04094414
12	0xbcbfb1d2	-0.023400221
13	0x3b8443d0	0.004036404
14	0xbc8f99aa	-0.017529327
15	0x3d3517ee	0.044212274
16	0x3d5843a6	0.05279889
17	0xbd3ce129	-0.046113167
18	0xbb58f93d	-0.0033107542
19	0x3d3066e9	0.043066893
20	0x3c9861f4	0.018601395
21	0x3c8cb33c	0.01717531
22	0xbca543e6	-0.020173978
23	0xbce50aa3	-0.027959174
24	0x3af6a3c0	0.0018817112
25	0xbd22fbd8	-0.03979096
26	0xbcb7e550	-0.022448212
27	0x3d3409f2	0.043954797
28	0x3c22f6f8	0.009946577
29	0x3d117726	0.03551402
30	0xbd5bdfa4	-0.053680077
31	0xbd293e24	-0.041319028
32	0x3c268fa0	0.010166079
33	0x3d378574	0.044805005
34	0x3d672d52	0.056439705
35	0x3d2ecacc	0.04267387
36	0xbc62bb1d	-0.013838557
37	0x3d52ade7	0.051435377
38	0x39bda000	0.00036168098
39	0xbd46e5d4	-0.048559025
40	0x3d40331b	0.046923738
41	0xbba79a20	-0.0051148087
42	0xbd35d140	-0.04438901
43	0xbcef76bb	-0.02923142
44	0x3d0b7f64	0.034057036
45	0x3c8f6b63	0.01750726
46	0x3d735724	0.059409276
47	0xbd57aa2c	-0.052652523
48	0x3c0da0c1	0.008644284
49	0xbd55d0d4	-0.052201107
50	0xbcd95015	-0.026527444
51	0x3b214f99	0.0024614094
52	0x3c94ceb5	0.018164972
53	0xbc264e55	-0.010150512
54	0x3bc11970	0.005892925
55	0x3d6af7ae	0.057365112
56	0x3cbecb62	0.02329034
57	0x3c6762c5	0.01412267
58	0x3c90980c	0.017650627
59	0xbc90ab2c	-0.017659746
60	0x3d19484d	0.037422467
61	0xbd2cdf51	-0.04220516
62	0x3c2e0733	0.010621834
63	0xbd67db0c	-0.056605384
64	0x3c8871ba	0.016655792
65	0xbd158039	-0.036499236
66	0x3cfd5b8f	0.030927448
67	0xbd4c3df1	-0.04986376
68	0x3d41f6b8	0.04735443
69	0xbc6c13da	-0.01440903
70	0xbd43ff60	-0.047850966
71	0xbd6cadc2	-0.057782896
72	0x3d439b47	0.047755506
73	0xbd820173	-0.06347933
74	0xbd7c10c6	-0.061539434
75	0x3d44aa8a	0.0480142
76	0xbd7bd87e	-0.06148576
77	0xbc90ef40	-0.017692208
78	0xbd811ac1	-0.06303931
79	0xbceb0a58	-0.028691456
80	0x3d25ac79	0.040447686
81	0x3d0cfe66	0.0344223
82	0x3ce0e6f0	0.02745387
83	0xbd43b9ef	-0.047784742
84	0x3cf6fc74	0.030149676
85	0x3d07a0d6	0.03311237
86	0xbd06c620	-0.03290379
87	0xbc57ee50	-0.013179377
88	0xbd3967fd	-0.045265187
89	0xbcab1979	-0.02088617
90	0xbbe61b55	-0.007022301
91	0x3ca2162e	0.019785967
92	0xbd546736	-0.051856242
93	0x3cb9acc2	0.022665385
94	0x3d02cd6f	0.031934198
95	0x3bae09ad	0.005311212
96	0xbd04c88b	-0.032417815
97	0xbcf135dd	-0.02944463
98	0xbd4c0e9b	-0.049818616
99	0xbcf33d00	-0.029692173
100	0x3d35895b	0.044320446
101	0x3bff8df0	0.0077989027
102	0xbccd7a07	-0.025082601
103	0x3cc9f214	0.024651565
104	0x3cfbfa85	0.030759105
105	0x3d67125a	0.056413986
106	0xbca91fae	-0.020644989
107	0xbc5c42a7	-0.0134436255
108	0x3d0e34e7	0.03471842
109	0x3ae4ba83	0.0017450604
110	0x3d61eed6	0.055159412
111	0x3d0441ec	0.03228943
112	0xbd1f4050	-0.038879693
113	0x3ccf2a95	0.02528886
114	0x3c9c131c	0.01905208
115	0x3d14dd4c	0.036343858
116	0xbccd72d1	-0.025079163
117	0x3d5bf9c4	0.053704992
118	0x3d3e0a0f	0.04639631
119	0xbb95c180	-0.004570186
120	0xbd3a7fbb	-0.04553197
121	0x3d1d0eed	0.038344312
122	0xbd521f55	-0.05129941
123	0xbd46b9c0	-0.04851699
124	0xba246812	-0.0006271611
125	0x3c3e2e30	0.011607692
126	0xbd776234	-0.06039639
127	0xbd24d271	-0.040239755
128	0x3b95cf92	0.0045718635
129	0x3ca104be	0.019655582
130	0x3cd2d460	0.025736034
131	0x3d4e6271	0.05038685
132	0x3d273818	0.04082498
133	0x3d16589b	0.036705595
134	0x3c6ad03c	0.0143318735
135	0x3d38b09e	0.04509031
136	0xbd602471	-0.054722253
137	0x3bedb818	0.0072546117
138	0xbd77d272	-0.06050343
139	0x3b76635a	0.003759584
140	0xbb80c046	-0.003929171
141	0xbd2cb951	-0.04216892
142	0x3cdac548	0.0267054
143	0x3d4ce41e	0.050022237
144	0x3cf762e6	0.030198526
145	0xbb63bc80	-0.0034749806
146	0x3d423f32	0.04742355
147	0x3d44c3f7	0.04803845
148	0x3c91668a	0.01774909
149	0x3d3eef28	0.046614796
150	0xbd1f907c	-0.03895615
151	0x3baec889	0.0053339642
152	0xb9a59af3	-0.000315867
153	0x3d31113a	0.04322932
154	0xbbc300e5	-0.0059510344
155	0xbc347d90	-0.011016265
156	0x3cf69f93	0.030105388
157	0x3c434158	0.011917435
158	0x3d0472c4	0.03233601
159	0xbc145238	-0.009052806
160	0xbd52268d	-0.051306296
161	0x3cf7a2e2	0.030229036
162	0x3d01c31e	0.03168022
163	0xbd6e0f78	-0.05812022
164	0x3d079088	0.03309682
165	0xbc95bba4	-0.01827795
166	0xbcda2a43	-0.02663148
167	0x3c0fd58e	0.008778943
168	0xbd216e45	-0.0394118
169	0xbc2c3af8	-0.010512106
170	0x3d76360e	0.060110144
171	0xbcac49b8	-0.021031246
172	0x3d400c4e	0.046886735
173	0x3d396980	0.04526663
174	0x3d35c774	0.044379666
175	0x3d4b7408	0.049671203
176	0xbcae656d	-0.021288598
177	0xbd6f972c	-0.058493778
178	0x3d4abb97	0.049495306
179	0x3c9bfdd6	0.019041937
180	0x3d5579e4	0.052118197
181	0x3d460420	0.048343778
182	0xbc7c0cf8	-0.015383951
183	0x3cca1b23	0.024671143
184	0x3d311097	0.043228712
185	0x3d577b09	0.05260757
186	0xbd4a2bd8	-0.04935822
187	0x3d073d7b	0.033017617
188	0xbd4421b4	-0.047883704
189	0xbd5549ec	-0.05207245
190	0xbd4d9290	-0.0501886
191	0xbd8521b3	-0.06500568
192	0x3d4f6cca	0.05064086
193	0xbd1a31b9	-0.037645075
194	0xbcf61faa	-0.030044395
195	0x3b9c8800	0.0047769547
196	0xbd6dbc3a	-0.058040835
197	0xbd4f2e23	-0.05058111
198	0xbd184236	-0.03717252
199	0x3c508cf0	0.012728915
200	0xbd7fd888	-0.06246236
201	0xbd1d8178	-0.03845355
202	0x3d2d99c0	0.042382956
203	0x3bcd9e4e	0.006274975
204	0x3d6eb0d6	0.058274113
205	0xbd47ccae	-0.048779182
206	0xbb3bbfa3	-0.002864816
207	0x3cbea146	0.02327026
208	0xbc77bfa8	-0.015121378
209	0x3d188c07	0.037242915
210	0x3c683e96	0.014175078
211	0x3d506a3d	0.050882567
212	0x3d10fd34	0.035397723
213	0x3ce42a92	0.02785233
214	0x3d341654	0.043966606
215	0x3ad4289a	0.0016186417
216	0xbd364b34	-0.044505313
217	0x3c55dd6e	0.013053281
218	0xbb9b04bb	-0.0047307885
219	0xbc23add3	-0.009990173
220	0xbd10c806	-0.035347007
221	0xbcf1bcac	-0.029508911
222	0x3c27f5a8	0.01025144
223	0xbce36844	-0.027759679
224	0x3cca15d3	0.02466861
225	0xbd82ee05	-0.06393055
226	0x3d32d16f	0.043656763
227	0x3d1ced5b	0.038312297
228	0xbd0e6835	-0.03476735
229	0x3cdabd70	0.026701659
230	0xbbb75e60	-0.005595967
231	0xbd1e870c	-0.03870301
232	0xbd77dceb	-0.06051342
233	0xbcad90a2	-0.02118713
234	0x3cc74a60	0.024327457
235	0xbd1df7fa	-0.038566567
236	0xbd66ce22	-0.056348927
237	0xbb2d7500	-0.0026467443
238	0x3b64e840	0.003492847
239	0x3c2ee450	0.010674551
240	0xba87de03	-0.0010365847
241	0x3c5df8c8	0.013548084
242	0xbd053680	-0.03252268
243	0xbd0187de	-0.031623714
244	0xbaa593cb	-0.0012632547
245	0xbd46142e	-0.04835909
246	0xbace7d80	-0.0015753955
247	0xbbdee6a2	-0.006802396
248	0x3cdf0f6d	0.027229035
249	0xbd48a2ef	-0.04898351
250	0x3c0df56e	0.008664472
251	0xbcf383da	-0.029725958
252	0x3cd1601f	0.02555853
253	0xbc3d4f26	-0.011554515
254	0xbc0d43d8	-0.008622132
255	0xbd26d872	-0.040733762

bias f4 [128]
0	0x3cf24617	0.029574437
1	0xbd341ad2	-0.04397089
2	0xbd1ff17c	-0.039048657
3	0x3d7cfb7f	0.061763283
4	0xbc7e9da0	-0.01554051
5	0xbd1c2910	-0.038125098
6	0xbd36a9be	-0.044595473
7	0xbc8294cc	-0.015940093
8	0xbd4e6055	-0.050384838
9	0x3d54f808	0.051994354
10	0xbd4e4f6a	-0.050368704
11	0x3d1d3dc8	0.038388997
12	0xbcfa1e30	-0.030531973
13	0x3d1f4403	0.03888322
14	0xbd3d494f	-0.04621249
15	0x3b185daa	0.0023249188
16	0xbcba3b34	-0.022733308
17	0xbc8cefcd	-0.01720419
18	0x3c820d24	0.015875407
19	0x3cd3abb9	0.02583872
20	0x3aa8a1a0	0.0012865551
21	0xbd37f713	-0.044913363
22	0xbd599d0e	-0.053128295
23	0x3d908009	0.07055671
24	0xbd0c316e	-0.034226827
25	0x3b7f2946	0.0038934513
26	0x3cced662	0.02524871
27	0x3a8cdbf5	0.0010746705
28	0xbcd456bc	-0.025920264
29	0x3c5e4158	0.013565384
30	0xbcb40c9b	-0.021978667
31	0x3d1277d7	0.03575882
32	0x3cc56ba6	0.024099182
33	0xbcd4fbdc	-0.025999002
34	0x3d38cacf	0.04511529
35	0x3d491c25	0.049099106
36	0x3d3a2c36	0.04545232
37	0x3b9992e1	0.004686699
38	0xbd49fc13	-0.049312662
39	0xbd28f1dd	-0.041246284
40	0x3c63b6cd	0.013898564
41	0x3d85a7d2	0.0652615
42	0xbd4e416b	-0.050355356
43	0x3bd77c79	0.0065761176
44	0x3d138d47	0.036023404
45	0x3d51a4a0	0.05118239
46	0xbd177818	-0.036979765
47	0x3b23ec0d	0.0025012523
48	0x3c13fbb1	0.009032176
49	0x3ce102c3	0.027467137
50	0xbcf123ed	-0.029436076
51	0xbd13b78e	-0.036063723
52	0xbd3b8d9e	-0.045789354
53	0xbcc73ef5	-0.024322012
54	0x3cceabb4	0.025228359
55	0x3d553b3b	0.05205844
56	0x3d31a0e5	0.04336633
57	0xbc18af29	-0.009319105
58	0xbcc4a4a8	-0.024004295
59	0xbd60a96c	-0.054849073
60	0xbbb4cca9	-0.0055175615
61	0xbb866940	-0.0041019022
62	0x3d8abf07	0.06774717
63	0x3c661020	0.01404193
64	0x3d18594b	0.03719453
65	0xbd45dbcb	-0.048305314
66	0x3c0ee70c	0.008722078
67	0x3d10af3a	0.03532336
68	0xbc189a28	-0.009314097
69	0xbc5c067b	-0.013429279
70	0x3d1d111e	0.038346402
71	0x3cd51edf	0.026015697
72	0xbcd29674	-0.025706507
73	0xbc786420	-0.01516059
74	0xbd4bb80c	-0.049736068
75	0x3d78b526	0.06071963
76	0xbc131b70	-0.00897871
77	0xbca3b264	-0.019982524
78	0xbcf9dddc	-0.030501299
79	0x3d8374c1	0.064187534
80	0xbd533280	-0.051561832
81	0x3d5b5d14	0.053555563
82	0xbbfd4222	-0.007728831
83	0xbd20d8bc	-0.039269194
84	0xbd39ceab	-0.04536311
85	0x3d1b67b2	0.03794069
86	0xbd7df9fe	-0.06200599
87	0x3cd3aca4	0.025839157
88	0xbc6d6120	-0.014488488
89	0x3cfbbb3c	0.030728929
90	0x3d3ab505	0.04558279
91	0xbca48dfd	-0.020087237
92	0xbd2c99e7	-0.04213896
93	0xbd0c9562	-0.03432215
94	0xbd0198a0	-0.031639695
95	0x3d5c3eae	0.053770714
96	0x3d3d2b2c	0.04618375
97	0xbd3b5067	-0.045730975
98	0xbcbfa598	-0.023394391
99	0x3cfaba0d	0.030606294
100	0xbc997942	-0.018734578
101	0xbccea459	-0.025224851
102	0xbd056cda	-0.032574512
103	0x3d3daca8	0.046307236
104	0xbd7cb676	-0.061697446
105	0xbba6f92a	-0.0050956206
106	0x3c4cc500	0.01249814
107	0x3d2ee59b	0.042699438
108	0x3cf8c374	0.030366637
109	0x3c8b0dea	0.016974408
110	0xbd6cac21	-0.057781342
111	0x3d2e8abf	0.042612787
112	0x3d77dd02	0.060513504
113	0x3bdbd640	0.00670889
114	0x3d6b0650	0.057379067
115	0x3c78450e	0.015153183
116	0x3cea28a8	0.02858384
117	0xbc4f1468	-0.012639143
118	0x3cb40405	0.021974573
119	0xbceed90d	-0.029156232
120	0xbc022062	-0.007942291
121	0x3b9365c4	0.0044982154
122	0xbbd8efff	-0.0066204066
123	0x3d613668	0.054983526
124	0x3cb67a65	0.02227516
125	0x3c4ac470	0.012375936
126	0xbcf2c7fe	-0.02963638
127	0xbd0b8e8d	-0.034071494

weight f4 [1, 128]
0	0xbc3a6653	-0.011376935
1	0x3d0a20dd	0.033722747
2	0xbda4eccb	-0.08052977
3	0x3db4c2f9	0.088262506
4	0xbc817f11	-0.01580766
5	0xbd92fc25	-0.07176999
6	0xbd83b786	-0.06431489
7	0xbd8ca7dc	-0.06867954
8	0xbd4c0ed6	-0.049818836
9	0x3da0c09a	0.07849236
10	0x3d7b4791	0.061347548
11	0x3d83217d	0.06402872
12	0xbdb2b71f	-0.08726334
13	0x3d45de0e	0.04830747
14	0x3d5d4fea	0.05403129
15	0x3d59f2b4	0.053209975
16	0x3bda195c	0.006655855
17	0x3c9e31f1	0.019310923
18	0xbda975ac	-0.08274397
19	0xbd5588a8	-0.05213228
20	0x3d84750e	0.06467639
21	0xbd4cbc00	-0.04998398
22	0x3c8e456f	0.017367093
23	0x3da841be	0.08215664
24	0x3dc8af93	0.09799113
25	0x3dc948f6	0.09828369
26	0xbd8b7a73	-0.06810465
27	0xbba6591d	-0.005076541
28	0xbb8240c5	-0.0039750063
29	0xbd86a05f	-0.06573557
30	0x3da61b64	0.08110693
31	0xbd8a8362	-0.067633405
32	0xbd247cc8	-0.040158063
33	0xbb5371e8	-0.0032263938
34	0x3c8f0519	0.017458485
35	0xbd1f1386	-0.03883698
36	0x3d1aaa6a	0.037760176
37	0xbc723b62	-0.014784666
38	0x3c74b659	0.014936053
39	0xbd122570	-0.035680234
40	0xbc1f2b33	-0.009714889
41	0x3d90d36c	0.070715755
42	0xbdae6341	-0.08515025
43	0x3d9035de	0.07041524
44	0xbce171a1	-0.027520003
45	0xbd91a4dc	-0.071115226
46	0xbd68baec	-0.056818888
47	0xbc95d2cc	-0.018288992
48	0xbd4d7437	-0.05015966
49	0xbd7b5f47	-0.06137016
50	0x3daa7899	0.083237834
51	0x3d2b0128	0.04174915
52	0x3d02b5fe	0.031911843
53	0xbd63de57	-0.05563196
54	0xbd997ec6	-0.07494883
55	0x3d2a735f	0.041613933
56	0xbcb7cd10	-0.022436649
57	0xbd18703f	-0.03721642
58	0x3cd3560b	0.025797864
59	0xbd4d3aeb	-0.050105017
60	0xbb864208	-0.004097227
61	0x3d3e0be0	0.046398044
62	0x3d50f2e7	0.0510129
63	0xbd870c36	-0.06594126
64	0x3d3e3f4f	0.046447095
65	0xbca1925b	-0.019723108
66	0x3d9f8a20	0.07790017
67	0x3d4ee664	0.050512686
68	0x3d6ecd8c	0.058301494
69	0xbdacdb5d	-0.08440278
70	0xbcb5b0e8	-0.022179082
71	0x3d88e7f5	0.06684867
72	0xbd8ef6d7	-0.06980675
73	0xbdacbe8a	-0.0843478
74	0xbc4e50fa	-0.0125925485
75	0x3db6230c	0.088934034
76	0x3d92f142	0.071749225
77	0x3d2496f5	0.040183026
78	0xbdacff8a	-0.08447178
79	0x3d1f0f2d	0.038832832
80	0xbceea28e	-0.029130246
81	0x3d275d3a	0.040860392
82	0x3c99ce3b	0.018775096
83	0x3db24ba6	0.08705835
84	0x3db146c9	0.08656079
85	0x3d9a9e7e	0.07549761
86	0x3d60fc0e	0.054927878
87	0xbd7b10f4	-0.061295465
88	0xbd678b53	-0.056529354
89	0xbd9ee095	-0.077576794
90	0x3d04748b	0.032337707
91	0x3d6da6a2	0.05802024
92	0x3d5b06d3	0.053473305
93	0x3d95924c	0.073032945
94	0xbd0fdd8e	-0.0351234
95	0x3ca92aa4	0.020650215
96	0x3c843cea	0.016142327
97	0x3d84b062	0.06478955
98	0xbd4445b1	-0.047918025
99	0x3cf4541e	0.029825266
100	0xbda4a58c	-0.08039388
101	0xbdbb2e96	-0.09139745
102	0x3dad4521	0.08460451
103	0x3d12f044	0.035873666
104	0xbd895f59	-0.06707639
105	0xbd4d97c2	-0.050193556
106	0x3cf7eaa8	0.03026326
107	0x3dd0d4d1	0.101968415
108	0x3db01be5	0.085990705
109	0x3db6247f	0.0889368
110	0xbd704e73	-0.058668565
111	0xbcd316ca	-0.025767703
112	0x3dbc9b87	0.09209352
113	0xbcf7b928	-0.030239657
114	0x3d2778c4	0.040886655
115	0xbcda9964	-0.02668447
116	0xbb3a0823	-0.0028386198
117	0xbd3a78a5	-0.04552521
118	0x3c4c7f5c	0.012481537
119	0xbcb4d03d	-0.022071952
120	0x3c7452e2	0.014912339
121	0x3c9a239f	0.018815814
122	0xbd8fef65	-0.07028083
123	0x3db1d417	0.08683031
124	0xbdae0bea	-0.08498366
125	0x3d1836fc	0.037161812
126	0x3c7b16db	0.015325273
127	0x3d900473	0.070320986
